202304182105_bestmodel.pt (torch, 436667 bytes, 10 tensors)

weight f4 [6, 3, 5, 5]
0.08327777 -0.08994558 -0.06361547 0.08868307 -0.07151771 -0.037103664 -0.03596146 0.0033769284
-0.10670749 -0.06059863 -0.0821465 -0.12286896 -0.06630865 0.055054218 -0.08793585 0.01268184
-0.1320659 -0.08332649 0.01458446 0.04097251 0.01781802 -0.09744637 -0.06448326 0.07157215
-0.089240216 0.033391863 0.11799637 0.08792793 0.023935325 0.043053843 0.05336572 0.07463904
-0.028059224 0.09984342 0.053412363 -0.088754356 0.072808154 -0.05649073 0.029905185 0.022848023
0.076554246 -0.096582584 0.01876885 0.0012687473 -0.04212427 0.109204024 -0.07560066 0.088114746
-0.10492956 0.09965444 -0.07743369 -0.11534035 0.08728553 -0.084475264 0.09191845 0.10442104
-0.07272198 -0.11276439 -0.03117677 -0.09699449 0.036748525 -0.00596339 -0.13306515 0.022888884
-0.10525052 0.110602856 -0.13186629 -0.104154095 -0.121901274 -0.09715749 0.080813445 0.022256397
-0.014084397 0.054224536 0.0065505607 -0.11253058 0.073063 -0.1419198 0.027980579 -0.13552749
0.009145348 -0.053510144 -0.11527139 -0.11653766 -0.11553866 -0.019564535 -0.017908806 -0.07197477
-0.1366299 0.02623571 -0.081933655 0.008999792 -0.06388596 -0.05518558 -0.047018144 -0.057110023
-0.027182901 -0.03766705 -0.10925699 -0.030114546 0.09700443 0.084398426 -0.05240138 0.10888684
0.01386282 -0.025618525 0.010120396 0.030352864 0.06634561 0.05108898 0.026130004 -0.0056412574
0.067880794 0.018338244 0.048002075 0.0067397174 0.04152358 0.024406167 -0.11098402 -0.014738219
0.05564075 -0.040795676 0.018439682 -0.04666898 -0.10080837 0.07682378 0.02480142 0.16206285
0.018761935 0.04753536 0.11263597 0.040659465 0.07512012 0.13155027 0.19388716 0.1270048
0.12963189 0.09646533 0.1409708 0.03633024 0.17687768 0.15729843 0.11847314 0.19049099
0.07120595 0.018369079 0.1565887 0.095035784 0.093148045 0.08197487 -0.046650343 0.012666914
0.0071924888 -0.07362889 0.110830516 0.11033367 0.12714814 0.0041059684 0.11793977 0.0070252004
-0.05003866 0.111816615 0.14550784 0.12612173 0.11680857 0.1632535 0.015911981 0.14861661
0.01771262 -0.057477128 0.050277594 0.13769168 0.0993161 0.030641673 0.13608491 -0.102424845
0.027118979 -0.14834878 -0.11106196 -0.13214327 -0.041420504 0.07356458 -0.074178636 0.0026155578
-0.047139697 -0.060525134 -0.08838855 0.030842753 -0.029173786 -0.017202657 -0.01489825 -0.00084017287
-0.10930976 -0.03754466 0.06883652 0.087297484 0.05249509 0.07495043 0.0802639 0.016059097
-0.09838923 -0.051070172 -0.13375948 -0.1048155 -0.03495064 -0.019121997 -0.09629428 -0.0046822405
0.054325934 -0.12857507 -0.002880387 -0.06585044 -0.005269321 -0.08127227 0.015797058 0.10335943
0.07212168 0.019900283 0.040076472 0.07254867 0.008202193 0.009067652 -0.060813628 -0.041790973
0.03484351 -0.0288895 0.03952129 0.06765233 0.08855692 0.10796918 0.109564885 0.04701621
0.06320008 0.0039857924 -0.048828766 0.08514911 0.055393863 -0.020908495 0.020766405 0.014155209
0.055725545 -0.109104775 0.09047502 -0.057472404 0.05524435 0.019690024 -0.08545649 0.030655904
0.0842934 -0.09545742 0.0060306666 -0.040448997 -0.00729947 0.1109587 0.013038806 -0.0031456836
00000000: 898d aa3d 6335 b8bd d448 82bd 789f b53d
00000010: e177 92bd 03fa 17bd 534c 13bd 754f 5d3b
00000020: 7589 dabd 4536 78bd 6d3c a8bd b9a2 fbbd
00000030: d4cc 87bd 8880 613d b617 b4bd 7ec7 4f3c
00000040: 493c 07be 14a7 aabd a9f3 6e3c cad2 273d
00000050: 19f7 913c f691 c7bd cd0f 84bd 6b94 923d
00000060: 93c3 b6bd e8c5 083d 15a8 f13d 8f13 b43d
00000070: 0414 c43c 3a59 303d 0396 5a3d 5adc 983d
00000080: 75dc e5bc b57a cc3d ecc6 5a3d d8c4 b5bd
00000090: 711c 953d d362 67bd b8fb f43c c72b bb3c
000000a0: 79c8 9c3d 17cd c5bd 22c1 993c 184c a63a
000000b0: 808a 2cbd 5ca6 df3d 85d4 9abd 8175 b43d
000000c0: 4fe5 d6bd a117 cc3d 8e95 9ebd 9037 ecbd
000000d0: c2c2 b23d 5e01 adbd be3f bc3d b3da d53d
000000e0: 43ef 94bd 04f1 e6bd 6d66 ffbc 0ca5 c6bd
000000f0: 9f85 163d 8b68 c3bb 3b42 08be 7881 bb3c
00000100: 968d d7bd c083 e23d f507 07be be4e d5bd
00000110: 60a7 f9bd 82fa c6bd 8581 a53d 0c53 b63c
00000120: 3ec2 66bc 8c1a 5e3d 16a6 d63b 6f76 e6bd
00000130: 0ea2 953d 6d53 11be 8737 e53c b8c7 0abe
00000140: 5fd6 153c 742d 5bbd 6813 ecbd 4cab eebd
00000150: 889f ecbd ce45 a0bc 7db5 92bc 8267 93bd
00000160: b5e8 0bbe 46ec d63c d5cc a7bd dd73 133c
00000170: a4d6 82bd 460a 62bd 1996 40bd 33ec 69bd
00000180: adae debc c448 1abd 21c2 dfbd c8b2 f6bc
00000190: 42aa c63d 15d9 ac3d d4a2 56bd 1000 df3d
000001a0: e220 633c f1dd d1bc 04d0 253c 92a6 f83c
000001b0: 35e0 873d ae42 513d 970e d63c 4cda b8bb
000001c0: 1605 8b3d 163a 963c d39d 443d d9d8 dc3b
000001d0: a114 2a3d 71ef c73c 974b e3bd 9278 71bc
000001e0: 8ee7 633d 5e19 27bd d10e 973c f927 3fbd
000001f0: 9e74 cebd c955 9d3d 592c cb3c cef3 253e
00000200: a1b2 993c 70b4 423d b0ad e63d 8a8a 263d
00000210: 94d8 993d 1db5 063e 5b8a 463e 8c0d 023e
00000220: 39be 043e 9d8f c53d a65a 103e 05cf 143d
00000230: 6c1f 353e d712 213e 0ca2 f23d 1210 433e
00000240: 6dd4 913d c07a 963c ca58 203e 1fa2 c23d
00000250: 67c4 be3d 71e2 a73d 6e14 3fbd e388 4f3c
00000260: f8ae eb3b beca 96bd 1cfb e23d 9ff6 e13d
00000270: 1f33 023e 5c8b 863b 688a f13d a733 e63b
00000280: 57f5 4cbd 1c00 e53d 0200 153e 0e26 013e
00000290: 5539 ef3d ed2b 273e d859 823c f42e 183e
000002a0: 0e1a 913c 236d 6bbd e1ef 4d3d 0cff 0c3e
000002b0: 3d66 cb3d 3f04 fb3c d859 0b3e 1ec4 d1bd
000002c0: 9f28 de3c bee8 17be 7474 e3bd 9150 07be
000002d0: 8ca8 29bd 07a9 963d f8ea 97bd c769 2b3b
000002e0: 8e15 41bd 34e9 77bd 0e05 b5bd f1a9 fc3c
000002f0: ddfd eebc 96ec 8cbc ca17 74bc 0c3f 5cba
00000300: ccdd dfbd 6ec8 19bd 29fa 8c3d 06c9 b23d
00000310: 1705 573d 9c7f 993d 6661 a43d 5e8e 833c
00000320: 4b80 c9bd f52e 51bd 3ff8 08be 82a9 d6bd
00000330: 6728 0fbd bca5 9cbc ef35 c5bd 7b6d 99bb
00000340: df84 5e3d 2fa9 03be e0c4 3cbb 98dc 86bd
00000350: 45aa acbb 1372 a6bd d568 813c 1cae d33d
00000360: 88b4 933d eb05 a33c 3a27 243d 6694 943d
00000370: 7e62 063c 7d90 143c b617 79bd 032d 2bbd
00000380: 11b8 0e3d aca9 ecbc 14e1 213d 4e8d 8a3d
00000390: 555d b53d f21e dd3d 8e63 e03d 1294 403d
000003a0: 0b6f 813d 409b 823b ac00 48bd a862 ae3d
000003b0: ade4 623d 4b48 abbc 4f1e aa3c 40eb 673c
000003c0: 7840 643d 5372 dfbd f84a b93d 2f68 6bbd
000003d0: e647 623d f94c a13c d003 afbd 1722 fb3c
000003e0: 05a2 ac3d 2e7f c3bd e69c c53b d9ad 25bd
000003f0: 6430 efbb 513e e33d b7a0 553c d027 4ebb

bias f4 [6]
0.052311335 -0.040293675 -0.060954727 -0.054755706 -0.05746615 -0.14877953
00000000: 6944 563d fb0a 25bd aaab 79bd 8547 60bd
00000010: a061 6bbd a959 18be

weight f4 [16, 6, 5, 5]
-0.11427812 0.047416788 0.018190442 0.02654878 -0.1049483 0.059703667 -0.07398654 0.0059834393
0.046888117 0.02428224 0.043267548 0.04731936 0.08435279 0.05722478 0.0145508945 0.035016373
0.013528121 0.08321472 0.052243713 -0.054217402 0.099409014 0.13861185 0.03215698 0.08802856
-0.02075616 -0.07853328 -0.10896307 -0.02833539 -0.0028359445 0.004008599 -0.08412262 -0.115698636
-0.037640486 -0.10417563 -0.052028358 -0.07877775 -0.13911407 -0.13134168 -0.12549949 -0.094678134
-0.08376038 -0.16733788 -0.15226483 -0.05754204 -0.1632037 -0.03574513 -0.09905204 -0.10447782
-0.14826095 -0.14103492 0.03182232 0.0034151413 0.002753371 0.06835242 0.06918867 0.06814245
0.024486607 -0.012383243 0.0039309184 -0.05406664 -0.04858193 0.07179375 0.045962278 0.030806864
0.0782524 0.038292848 -0.06465269 0.015979202 0.093774796 0.034484044 -0.064684205 0.05093296
0.0567349 0.027935794 -0.025966829 0.05307104 -0.0051615676 0.03346503 0.02958849 0.016587762
-0.010559721 -0.009840993 -0.054050606 -0.017731287 -0.04650517 0.04181329 0.027072376 -0.07713505
-0.12691171 -0.008290206 0.0009048601 -0.013837056 -0.01971666 0.002726199 -0.07650517 -0.1164273
-0.15551661 -0.15421715 0.0074430555 -0.09153455 0.052761033 0.0027310613 -0.04864544 -0.031152414
0.024141345 0.004890489 -0.0017201047 0.055124436 0.008832807 -0.05614747 0.087488696 0.030873429
0.12747565 0.11751625 0.05001264 0.058602534 0.15517423 0.057506587 0.13768889 0.09976977
0.075126216 0.15866695 0.14213014 0.044423603 -0.025684245 -0.07770747 0.030543461 -0.024742644
-0.012673967 0.051164426 -0.026082011 0.0631181 0.109735616 0.0818384 -0.032056704 0.08534072
0.13513094 0.08737443 0.037247024 -0.046652846 0.13409185 0.045548692 0.062050167 0.14643088
0.034616064 0.15260136 0.081026144 0.06359262 0.11493935 -0.022158872 0.00054513087 0.034338374
-0.059200447 -0.07654088 -0.061381523 0.107102424 -0.071555965 -0.09319592 -0.11456302 -0.11134695
0.045483097 0.035310447 -0.056004006 -0.16158694 -0.035319686 0.111307085 0.17116702 0.112019755
-0.08551238 0.03478116 0.082354896 0.1696172 0.13067417 0.030485481 0.041765064 0.0990907
-0.037503302 0.06278738 0.077279955 0.066248395 -0.025897158 -0.056796595 0.00015522033 0.08590602
0.121433035 -0.1228443 -0.06558347 -0.033378452 0.069412306 0.08333239 -0.11671179 -0.024921006
-0.12168674 0.037468676 -0.007273568 -0.08056356 -0.018593801 -0.057815526 -0.021765225 -0.10492904
-0.053329974 -0.014574859 0.14313693 0.2291817 0.1463767 0.048477855 0.055322587 0.015023887
0.19761293 0.17099984 0.020203736 -0.022636306 0.09626954 -0.005146334 0.087388895 0.022314524
-0.030844001 -0.06744369 -0.010997437 0.0038266738 -0.081648745 0.020687478 -0.07078174 0.013521604
0.06981545 0.105059646 -0.015904522 0.04439582 0.019861631 0.06498023 0.07138755 0.043217037
0.07936104 0.012414858 0.09193967 -0.040590674 -0.12968807 -0.032985687 0.12026681 0.0063275713
-0.12763871 -0.07687874 0.0015351961 0.03637249 0.06018123 -0.17127697 -0.11520299 -0.016449675
-0.017576585 0.098401174 0.040293705 -0.062108707 -0.09705667 -0.029265935 -0.086745866 0.13327748
00000000: a60a eabd 1b38 423d 1f04 953c d47c d93c
00000010: 22ef d6bd d58b 743d 4186 97bd ba10 c43b
00000020: c10d 403d 8ceb c63c 5039 313d f2d1 413d
00000030: 28c1 ac3d 8864 6a3d e066 6e3c 546d 0f3d
00000040: 0da5 5d3c 7b6c aa3d 81fd 553d 1113 5ebd
00000050: f496 cb3d 44f0 0d3e 0ab7 033d 5148 b43d
00000060: d308 aabc 0ed6 a0bd 0828 dfbd 9f1f e8bc
00000070: 41db 39bb 915a 833b 7b48 acbd 68f3 ecbd
00000080: e92c 1abd 085a d5bd b01b 55bd 3b56 a1bd
00000090: eb73 0ebe 6f7e 06be f082 00be 9ce6 c1bd
000000a0: 908a abbd 9f5a 2bbe 50eb 1bbe 34b1 6bbd
000000b0: df1e 27be 7c69 12bd ccdb cabd 78f8 d5bd
000000c0: b8d1 17be 756b 10be 1f58 023d 90d0 5f3b
000000d0: e671 343b 5bfc 8b3d cab2 8d3d 458e 8b3d
000000e0: 2398 c83c 16e3 4abc efce 803b fb74 5dbd
000000f0: d9fd 46bd 9a08 933d f142 3c3d ad5e fc3c
00000100: cb42 a03d f6d8 1c3d a168 84bd d1e6 823c
00000110: 000d c03d 243f 0d3d 2779 84bd 149f 503d
00000120: db62 683d 9bd9 e43c 63b8 d4bc 0561 593d
00000130: 5e22 a9bb a112 093d 9063 f23c 0fe3 873c
00000140: ae02 2dbc 1e3c 21bc 2b64 5dbd 3441 91bc
00000150: 357c 3ebd 6a44 2b3d e3c6 dd3c fbf8 9dbd
00000160: 25f5 01be a5d3 07bc 2234 6d3a d2b4 62bc
00000170: d584 a1bc 08aa 323b beae 9cbd 7071 eebd
00000180: bf3f 1fbe 1aeb 1dbe e0e4 f33b 7776 bbbd
00000190: f41b 583d 9bfb 323b 7140 47bd 5933 ffbc
000001a0: 12c4 c53c 6540 a03b 2375 e1ba 29ca 613d
000001b0: 7ab7 103c e4fa 65bd 462d b33d 46ea fc3c
000001c0: fa88 023e 5cac f03d 0eda 4c3d 3609 703d
000001d0: fee5 1e3e 078c 6b3d 51fe 0c3e 1854 cc3d
000001e0: c6db 993d 9779 223e 908a 113e 86f5 353d
000001f0: c467 d2bc 1825 9fbd 4836 fa3c 16b1 cabc
00000200: 78a6 4fbc ca91 513d f1a9 d5bc 1044 813d
00000210: 11bd e03d e49a a73d e44d 03bd 1ec7 ae3d
00000220: c45f 0a3e 5df1 b23d 5690 183d 0e17 3fbd
00000230: 604f 093e 4491 3a3d 5128 7e3d faf1 153e
00000240: 93c9 0d3d 8843 1c3e 09f1 a53d d93c 823d
00000250: 5265 eb3d 8686 b5bc 1de7 0e3a 65a6 0c3d
00000260: 2b7c 72bd 77c1 9cbd 316b 7bbd 8458 db3d
00000270: ef8b 92bd 81dd bebd 04a0 eabd df09 e4bd
00000280: 7c4c 3a3d b0a1 103d 7564 65bd 0c77 25be
00000290: 60ab 10bd f8f4 e33d 6846 2f3e 9d6a e53d
000002a0: 1d21 afbd b176 0e3d afa9 a83d 22b0 2d3e
000002b0: 73cf 053e b0bc f93c d811 2b3d 11f0 ca3d
000002c0: 109d 19bd ab96 803d f444 9e3d 3dad 873d
000002d0: 4726 d4bc 8ca3 68bd a4c2 2239 7fef af3d
000002e0: e2b1 f83d cb95 fbbd a050 86bd d8b7 08bd
000002f0: 0a28 8e3d 2caa aa3d 9706 efbd 2327 ccbc
00000300: e636 f9bd c178 193d 1c57 eebb 82fe a4bd
00000310: 0752 98bc f9cf 6cbd fc4c b2bc 09e5 d6bd
00000320: 8870 5abd 64cb 6ebc 7d92 123e 9cae 6a3e
00000330: c6e3 153e b790 463d f099 623d c026 763c
00000340: 0b5b 4a3e 951a 2f3e 4e82 a53c c66f b9bc
00000350: f728 c53d 94a2 a8bb f3f8 b23d f3cc b63c
00000360: 8fac fcbc eb1f 8abd 982e 34bc efc8 7a3b
00000370: 7537 a7bd c978 a93c 04f6 90bd b889 5d3c
00000380: 67fb 8e3d 8329 d73d 334a 82bc 64d8 353d
00000390: dcb4 a23c 5b14 853d a333 923d 5904 313d
000003a0: 0a88 a23d b067 4b3c de4a bc3d 6842 26bd
000003b0: f3cc 04be 001c 07bd 724e f63d 8457 cf3b
000003c0: b9b3 02be 9a72 9dbd a238 c93a 52fb 143d
000003d0: 9880 763d 3b63 2fbe 8cef ebbd 78c1 86bc
000003e0: c5fc 8fbc 8e86 c93d 030b 253d b365 7ebd
000003f0: a6c5 c6bd 1dbf efbc d1a7 b1bd e479 083e

bias f4 [16]
-0.027912645 -0.10477218 0.012458472 0.0037914244 0.10639059 0.093712434 -0.055340506 0.040400807
-0.032108102 0.07097987 -0.08036263 0.018817665 0.13633604 0.009620545 0.06814871 -0.04364427
00000000: 0fa9 e4bc cc92 d6bd 9e1e 4c3c 8c79 783b
00000010: 4fe3 d93d 4eec bf3d baac 62bd 517b 253d
00000020: c983 03bd e55d 913d 2a95 a4bd 8127 9a3c
00000030: ad9b 0b3e 7e9f 1d3c 8d91 8b3d 56c4 32bd

weight f4 [120, 16, 7, 7]
-0.045719497 0.03442929 -0.0076457094 -0.05052761 -0.00043620693 -0.0050933114 -0.0035798678 -0.036916368
-0.033259217 -0.016972948 -0.028991694 -0.010646409 -0.046595905 -0.01891499 0.0088033285 -0.041129615
-0.0059078764 -0.023115486 -0.0019275806 0.021978533 0.03301404 0.048783094 -0.0027653214 0.010867825
0.009893839 0.0098699145 0.022289503 0.005820641 0.018438924 -0.012450668 0.03544702 0.0035384714
0.010706556 0.016020099 -0.030292584 0.020560957 0.052311867 0.013034564 0.017654723 0.00880049
0.0028210457 0.008098974 0.04292295 0.02141847 -0.0076456666 0.036081705 -0.008970984 0.047026698
0.033483546 0.005439358 0.06789143 0.06964268 -0.04134198 0.029484443 -0.02377956 0.016882893
-0.069129854 0.0449432 0.029605158 0.039028574 0.013348619 -0.042358566 -0.040224176 -0.011033231
0.004824113 0.076597944 0.011615162 0.044675216 0.009745101 -0.0085319225 -0.022001725 -0.0110997
0.005416791 -0.009638275 0.014684809 0.004025503 0.00073655875 0.050510705 -0.025590997 0.039518766
-0.022057232 0.012612757 0.040988892 -0.028749963 0.05717306 0.042618055 -0.07496061 -0.001263581
-0.015174146 0.027365036 0.006778628 -0.036311105 -0.027596308 0.016476782 -0.02346987 0.015010664
0.011672931 0.008308611 0.10367343 0.02050529 -0.016503654 -0.025237292 -0.007825505 0.053334586
0.07346098 -0.058944028 0.007389317 -0.04066703 -0.011844968 0.06954864 0.0094583025 0.0051077693
-0.014088877 -0.018573271 -0.014144441 -0.014500574 0.011789424 -0.006839202 -0.045542113 -0.05138384
0.022110602 0.055584714 0.0023269907 0.051094 0.03519352 0.014960577 -0.04282527 -0.0047956347
0.08403932 -0.014492653 -0.006075328 0.021264486 -0.043784756 0.04712178 -0.01675401 -0.017320732
-0.034802638 -0.032110404 -0.005440164 -0.0026571332 0.044299927 -0.00024827986 0.047305644 -0.0022132348
0.013759987 -0.00063800573 -0.011222032 -0.018691322 0.032256573 -0.0039132405 -0.0059998333 -0.0052162004
-0.010991023 0.040980335 -0.041835852 -0.0118976105 -0.024328973 -0.019414367 -0.044941217 0.023654941
-0.019317199 0.035770584 0.0008400204 0.0029389234 0.034479704 -0.0007324482 0.039660294 0.0142583065
-0.051574364 0.021511324 -0.024060262 -0.014601451 0.022903163 -0.029023364 -0.02821615 -0.029440979
-0.032205056 -0.030493235 0.036755092 0.005087407 -0.028812135 -0.03507972 -0.016123632 -0.003743849
-0.022617826 -0.014613808 -0.0056583565 -0.018466014 -0.0018922483 -0.024888592 -0.05919951 0.031760655
0.0022582933 -0.04655204 -0.030569516 -0.021654649 -0.07329964 -0.009950953 -0.012211362 0.011626355
0.040227987 -0.053504862 0.018114347 -0.028661108 -0.042330984 0.028358534 -0.0045872745 -0.041135192
0.031665687 0.022594431 -0.044688527 -0.0040486488 0.06629472 -0.013527236 -0.0010166739 0.021943752
0.044038482 -0.01766949 -0.0275115 0.02085111 -0.05822753 -0.018647274 -0.029111113 0.0065208776
-0.024524713 -0.022774706 -0.033817723 -0.03612853 -0.04765123 -0.02850995 -0.016977947 0.055708196
-0.01293 -0.031108666 0.014469303 -0.027886232 -0.0069817253 -0.07150804 -0.0795055 -0.0860845
0.028574497 -0.0031583505 -0.028941141 0.0008475517 -0.04705067 -0.064253196 -0.010996296 0.0069550327
0.042847488 0.027305767 0.019516995 0.02181554 -0.07065763 -0.031951066 0.034762654 0.03958464
00000000: 5e44 3bbd ba05 0d3d dc88 fabb 0af6 4ebd
00000010: b4b2 e4b9 cbe5 a6bb 379c 6abb 9e35 17bd
00000020: d13a 08bd da0a 8bbc fd7f edbc 476e 2ebc
00000030: 59db 3ebd 9cf3 9abc d63b 103c 8777 28bd
00000040: dc96 c1bb b05c bdbc dfa6 fcba 530c b43c
00000050: bb39 073d c8d0 473d 653a 35bb f60e 323c
00000060: c519 223c 6cb5 213c 7a98 b63c 13bb be3b
00000070: 3a0d 973c e3fd 4bbc e530 113d b3e5 673b
00000080: 8d6a 2f3c 953c 833c 2728 f8bc 746f a83c
00000090: f844 563d ed8e 553c a3a0 903c ee2f 103c
000000a0: 4be1 383b 8fb1 043c facf 2f3d ca75 af3c
000000b0: 8088 fabb 69ca 133d 09fb 12bc 119f 403d
000000c0: 0b26 093d a43c b23b a90a 8b3d d2a0 8e3d
000000d0: 3556 29bd 5c89 f13c 5acd c2bc fe4d 8a3c
000000e0: f493 8dbd 5c16 383d 8486 f23c 6ddc 1f3d
000000f0: 2bb4 5a3c 2d80 2dbd 1bc2 24bd bac4 34bc
00000100: 9813 9e3b 62df 9c3d 854d 3e3c 5cfd 363d
00000110: eba9 1f3c 7ac9 0bbc f63c b4bc 84db 35bc
00000120: 567f b13b dbe9 1dbc 8e98 703c 5ee8 833b
00000130: 9f15 413a 50e4 4e3d 36a4 d1bc 6ede 213d
00000140: 5eb1 b4bc bda5 4e3c f8e3 273d 0b85 ebbc
00000150: 4c2e 6a3d 4590 2e3d f384 99bd be9e a5ba
00000160: fb9c 78bc a42c e03c 411f de3b f4ba 14bd
00000170: a711 e2bc 51fa 863c e343 c0bc 4aef 753c
00000180: d23f 3f3c d720 083c bc52 d43d b6fa a73c
00000190: ac32 87bc 70be cebc 8c36 00bc 5e75 5a3d
000001a0: b672 963d 4b6f 71bd 1522 f23b 7992 26bd
000001b0: 6611 42bc 846f 8e3d fff6 1a3c 135f a73b
000001c0: 08d5 66bc f926 98bc 16be 67bc d193 6dbc
000001d0: 6e28 413c 621b e0bb 5e8a 3abd dd77 52bd
000001e0: 4b21 b53c ccac 633d 6d80 183b f147 513d
000001f0: 1527 103d 351d 753c 8d69 2fbd b324 9dbb
00000200: cf1c ac3d 9872 6dbc 8c13 c7bb dc32 ae3c
00000210: a557 33bd c502 413d b53f 89bc 35e4 8dbc
00000220: 368d 0ebd 3386 03bd 6743 b2bb 4c23 2ebb
00000230: d773 353d 8f2b 82b9 90c3 413d eb0b 11bb
00000240: 9271 613c d73f 27ba 9ddc 37bc 8b1e 99bc
00000250: 781f 043d a43a 80bb 409a c4bb a9ec aabb
00000260: b113 34bc ffda 273d 125c 2bbd 32ee 42bc
00000270: 8e4d c7bc e10a 9fbc 4814 38bd 02c8 c13c
00000280: 1a3f 9ebc 2d84 123d d134 5c3a f49a 403b
00000290: 973a 0d3d c401 40ba d572 223d ac9b 693c
000002a0: a43f 53bd 8438 b03c 071a c5bc ed3a 6fbc
000002b0: 6a9f bb3c 68c2 edbc 8e25 e7bc 352e f1bc
000002c0: 73e9 03bd f3cc f9bc 828c 163d 43b4 a63b
000002d0: 6d07 ecbc c1af 0fbd b515 84bc 5d5b 75bb
000002e0: 0549 b9bc c16e 6fbc bc69 b9bb 0a46 97bc
000002f0: 5105 f8ba 29e3 cbbc 2f7b 72bd 7617 023d
00000300: e0ff 133b 5aad 3ebd ec6c fabc 1765 b1bc
00000310: 1f1e 96bd 5209 23bc 2a12 48bc 787c 3e3c
00000320: 1ac6 243d ea27 5bbd 8a64 943c b3ca eabc
00000330: 4163 2dbd 2850 e83c d950 96bb 607d 28bd
00000340: e1b3 013d f517 b93c 510b 37bd 87aa 84bb
00000350: 87c5 873d 57a1 5dbc ea41 85ba 62c3 b33c
00000360: b261 343d 9bbf 90bc cc5f e1bc f2cf aa3c
00000370: fe7f 6ebd 2bc2 98bc 6e7a eebc 16ad d53b
00000380: 0de8 c8bc 0592 babc 7484 0abd 82fb 13bd
00000390: f02d 43bd b38d e9bc 5615 8bbc 472e 643d
000003a0: 5ad8 53bc 9ad7 febc a810 6d3c ab71 e4bc
000003b0: f5c6 e4bb cf72 92bd c8d3 a2bd 124d b0bd
000003c0: 1015 ea3c 54fc 4ebb f915 edbc 3b2e 5e3a
000003d0: 34b8 40bd 2e97 83bd cf29 34bc 0be7 e33b
000003e0: d980 2f3d 58b0 df3c 1be2 9f3c 81b6 b23c
000003f0: f3b4 90bd 1fdf 02bd 4963 0e3d 8123 223d

bias f4 [120]
-0.012954427 -0.014562186 0.042459674 -0.016534997 -0.01143767 0.0046760063 -0.0034476898 0.029144991
-0.002782107 -0.021969302 -0.017274013 0.004536988 0.010590163 -0.029983386 -0.007857478 0.020394558
0.012302268 0.031011958 -0.01627647 0.023938423 0.009938207 -0.00702047 -0.0023510698 -0.00061022356
0.027705023 -0.0012991503 -0.023661597 0.013415147 -0.0395628 0.04712763 -0.01577219 0.0058400957
-0.013888209 -0.003925188 -0.003368111 -0.008168794 -0.008940642 0.028165512 0.030643422 -0.010518682
-0.02070707 -0.018003039 -0.022597548 0.020883568 0.025842972 -0.016213149 -0.031073391 -0.017030891
0.0066248723 -0.036306705 -0.037466496 -0.014058437 0.033784952 0.010449505 0.0037467298 0.028723702
-0.024177887 -0.00023991834 0.014463432 -0.014675155 0.00037217716 0.0121712 -0.030984104 -0.028742231
-0.0077344356 -0.00630915 0.008471419 0.02393244 -0.0092748655 0.011633866 -0.044120785 0.00843704
0.017964004 -0.022001809 -0.019973245 0.029119516 0.0073745754 -0.004258653 -0.010356536 -0.03209422
-0.0046884934 -0.018625798 0.012991832 -0.0140514625 0.044823747 0.015520173 -0.00460615 0.025385499
0.023155116 0.0068188156 0.0048921234 -0.022364503 0.015294911 0.024407191 0.0052363 0.02764433
-0.032419793 -0.03596481 -0.011127078 -0.005326076 -0.02599133 -0.01787748 -0.023093374 -0.0023778616
0.008155011 0.029042011 -0.045281414 0.016644442 -0.014538895 -0.012848532 -0.022147061 0.027875775
0.008949248 -0.025290292 -0.042437363 -0.031263705 0.039990876 -0.0013436343 -0.019746197 -0.006786238
00000000: ce3e 54bc 3c96 6ebc 32ea 2d3d 6774 87bc
00000010: 1165 3bbc 2f39 993b a3f2 61bb 7ac1 ee3c
00000020: 0354 36bb f7f8 b3bc 3b82 8dbc 04ab 943b
00000030: 5d82 2d3c b89f f5bc a7bc 00bc 7d12 a73c
00000040: 748f 493c ca0c fe3c 3b56 85bc 831a c43c
00000050: ddd3 223c f90b e6bb 6814 1abb 69f7 1fba
00000060: a5f5 e23c 4048 aaba f7d5 c1bc 34cb 5b3c
00000070: 9a0c 22bd e708 413d ae34 81bc 465e bf3b
00000080: 5f8b 63bc dd9e 80bb 87bb 5cbb 68d6 05bc
00000090: c57b 12bc 5cbb e63c ea07 fb3c 8d56 2cbc
000000a0: e0a1 a9bc 1c7b 93bc 7e1e b9bc 0414 ab3c
000000b0: a4b4 d33c 70d1 84bc a08d febc 5e84 8bbc
000000c0: 7515 d93b 57b6 14bd 7876 19bd 5c55 66bc
000000d0: 1762 0a3d 6734 2b3c b28b 753b f84d eb3c
000000e0: b410 c6bc 9792 7bb9 08f8 6c3c 1070 70bc
000000f0: c620 c339 b669 473c 60d2 fdbc d474 ebbc
00000100: 2671 fdbb fcbc cebb b5cb 0a3c f70d c43c
00000110: 9bf5 17bc f89b 3e3c ffb7 34bd 833b 0a3c
00000120: 3f29 933c 233d b4bc ee9e a3bc 0d8c ee3c
00000130: 6ca6 f13b 2c8c 8bbb 76ae 29bc 3b75 03bd
00000140: efa1 99bb 2195 98bc b1db 543c 1b38 66bc
00000150: 1b99 373d 5348 7e3c 30ef 96bb 40f5 cf3c
00000160: ccaf bd3c 5f70 df3b 1b4e a03b c335 b7bc
00000170: 8297 7a3c 97f1 c73c 4595 ab3b 5d76 e23c
00000180: 9eca 04bd d64f 13bd 594e 36bc 5d86 aebb
00000190: c5eb d4bc cb73 92bc 512e bdbc e6d5 1bbb
000001a0: 989c 053c 83e9 ed3c 0179 39bd ed59 883c
000001b0: 8c34 6ebc a682 52bc c16d b5bc bd5b e43c
000001c0: de9f 123c 962d cfbc cdd2 2dbd 5f0e 00bd
000001d0: 79cd 233d e31c b0ba c7c2 a1bc 175f debb

weight f4 [84, 120]
0.009751511 0.074548386 0.09422535 0.029158276 0.020617109 0.077304915 -0.029267877 0.11441961
0.039071653 0.017989153 -0.03836852 -0.04854229 -0.08802087 -0.017863983 0.009092067 -0.045656115
-0.013288507 0.018529756 0.09345732 -0.1267743 -0.049207363 0.016431049 0.019170567 -0.0626227
0.044712078 -0.03903887 0.026481425 -0.1920151 -0.06964609 -0.058408532 -0.013588029 0.030610614
0.03858491 0.11568644 -0.115755334 0.09519923 -0.056369886 -0.06356454 -0.020787528 -0.07457409
-0.1833171 -0.10090458 0.055012405 0.044987246 0.0820499 -0.07699648 -0.028459847 -0.12410751
-0.06140867 -0.08173681 -0.093688674 -0.022347756 0.008185817 0.0077498555 0.07010767 -0.04016592
-5.072781e-05 -0.05264159 0.011837971 0.050081115 0.008051037 0.05821114 0.018013794 -0.15482818
0.069223404 0.17817236 -0.1600004 0.074012704 -0.15032779 -0.0544138 -0.02679744 -0.037895434
0.007079992 0.017068379 -0.028550847 0.027745176 0.04393511 -0.09457779 -0.034988083 -0.001955554
-0.06673803 0.060403205 0.051398598 0.04896629 -0.012471032 -0.0880541 -0.098953 0.06220473
0.11073141 0.01713261 -0.062428605 -0.012611095 0.055857275 0.04934394 0.057992954 0.09985728
-0.15535398 -0.19175294 -0.0023266466 -0.011400391 0.10255033 -0.047092367 -0.14317855 -0.10664833
0.038369942 0.005883168 -0.085866615 0.0034024364 0.09676925 0.06595572 0.0033227666 -0.0053429324
0.09054743 -0.08145491 -0.05258819 0.10837491 0.036004078 -0.012719169 -0.07549575 -0.08110352
-0.047257535 -0.11147273 -0.1246457 -0.028176822 -0.16909003 -0.0019979372 -0.032688748 0.021151567
0.035333022 0.07388423 0.06594547 -0.0562038 -0.16715164 0.0483645 -0.1018693 0.10311015
0.050656147 -0.029696055 0.007816725 -0.009284222 -0.044134334 -0.1235391 4.3495915e-05 0.1564162
-0.112587065 -0.06298883 0.01174408 0.020320052 0.072303675 -0.03199873 0.10919298 0.0010375073
-0.08696892 0.066775925 0.00071126793 0.11387497 -0.038554866 0.048867658 0.16245924 0.022896994
0.053888723 -0.049337283 -0.22364603 -0.016015973 -0.019317202 0.0012144521 0.04090966 -0.027252918
-0.14025491 0.060016442 0.049949188 0.06576687 0.16961333 0.099785596 -0.10907806 -0.04137407
0.0074304636 0.10982941 -0.12798177 -0.017668942 -0.0059268842 -0.09566432 -0.073093094 -0.017010512
-0.087397456 -0.0768712 -0.074482925 0.05841225 -0.09242997 -0.15558639 0.10907512 -0.050555337
-0.024323037 -0.033884417 -0.090591386 0.027110789 0.13983175 0.03359165 -0.07916377 -0.025134997
0.113334656 -0.04664292 0.08030272 0.1291313 -0.10179021 0.019667689 -0.07214477 0.08243017
0.03809445 -0.02426488 -0.08628036 0.120881334 -0.11081007 -0.041521534 -0.03440883 -0.030294508
0.048252523 -0.021400401 0.1083008 -0.014543115 0.08450472 -0.027452575 0.15909427 -0.073574364
-0.015752234 0.015294151 0.06789579 0.15272509 -0.012683755 0.03891706 0.108543724 -0.10124403
0.039900888 0.06468029 -0.11924821 -0.017081795 -0.014606741 -0.11027436 0.043427784 0.035723258
0.010527166 0.1327756 -0.014367726 -0.04765705 0.02384352 0.03980413 0.07504627 -0.080196306
-0.08187391 0.04722514 0.0016087333 0.05723523 -0.028015146 -0.06310485 0.042967286 0.077715196
00000000: cdc4 1f3c d3ac 983d 38f9 c03d 56dd ee3c
00000010: 36e5 a83c 0a52 9e3d 30c3 efbc d454 ea3d
00000020: 9909 203d fd5d 933c 4f28 1dbd 48d4 46bd
00000030: 4944 b4bd 7d57 92bc e5f6 143c e801 3bbd
00000040: 0ab8 59bc b7cb 973c 8d66 bf3d 1fd1 01be
00000050: a98d 49bd 689a 863c 980b 9d3c 5540 80bd
00000060: 0324 373d 39e7 1fbd 93ef d83c 9b9f 44be
00000070: 9ca2 8ebd c93d 6fbd 53a0 5ebc 1cc3 fa3c
00000080: 360b 1e3d 03ed ec3d 2211 edbd d0f7 c23d
00000090: 1ce4 66bd 202e 82bd 9b4a aabc 4dba 98bd
000000a0: 7ab7 3bbe 0fa7 cebd b054 613d 8c44 383d
000000b0: c709 a83d 55b0 9dbd a024 e9bc 142c febd
000000c0: a887 7bbd a165 a7bd d9df bfbd a412 b7bc
000000d0: ce1d 063c 80f2 fd3b 9c94 8f3d 0585 24bd
000000e0: 92c4 54b8 b59e 57bd 0df4 413c db21 4d3d
000000f0: 7fe8 033c ce6e 6e3d aa91 933c 478b 1ebe
00000100: 00c5 8d3d d172 363e 25d7 23be f993 973d
00000110: 87ef 19be 01e1 5ebd 4e86 dbbc 3e38 1bbd
00000120: 47ff e73b fcd2 8b3c 77e3 e9bc da49 e33c
00000130: 4df5 333d 00b2 c1bd aa4f 0fbd c028 00bb
00000140: f3ad 88bd 5a69 773d 5687 523d e090 483d
00000150: 4d53 4cbc b555 b4bd dfa7 cabd 63ca 7e3d
00000160: 26c7 e23d b059 8c3c 23b5 7fbd c49e 4ebc
00000170: 99ca 643d df1c 4a3d 058a 6d3d f981 cc3d
00000180: 1d15 1fbe e25a 44be a77a 18bb b5c8 3abc
00000190: e805 d23d ede3 40bd 669d 12be 716a dabd
000001a0: cd29 1d3d 97c7 c03b d6da afbd 69fb 5e3b
000001b0: f52e c63d cb13 873d c6c2 593b c413 afbb
000001c0: ee70 b93d d5d1 a6bd b766 57bd aaf3 dd3d
000001d0: 0379 133d 1064 50bc 849d 9abd 9a19 a6bd
000001e0: 1e91 41bd d14b e4bd 3f46 ffbd 14d3 e6bc
000001f0: f025 2dbe d3ef 02bb a3e4 05bd 0d46 ad3c
00000200: 5cb9 103d 9d50 973d 6b0e 873d f535 66bd
00000210: cd29 2bbe db19 463d daa0 d0bd 6a2b d33d
00000220: d27c 4f3d 2445 f3bc b911 003c d91c 18bc
00000230: 34c6 34bd 1102 fdbd 626f 3638 912b 203e
00000240: 0c94 e6bd 4a00 81bd 3e6a 403c 3d76 a63c
00000250: f313 943d 1a11 03bd 92a0 df3d f8fc 873a
00000260: c31c b2bd d1c1 883d 6274 3a3a 4837 e93d
00000270: b5eb 1dbd 7429 483d b75b 263e 7a92 bb3c
00000280: 6cba 5c3d e415 4abd 7703 65be ee33 83bc
00000290: 1c3f 9ebc 402e 9f3a e390 273d 8341 dfbc
000002a0: fc9e 0fbe cdd3 753d 8597 4c3d c8b0 863d
000002b0: 1eaf 2d3e 645c cc3d 5164 dfbd db77 29bd
000002c0: 3f7b f33b 3eee e03d a70d 03be 75be 90bc
000002d0: 4f36 c2bb a8eb c3bd d5b1 95bd a159 8bbc
000002e0: 70fd b2bd a66e 9dbd 818a 98bd af41 6f3d
000002f0: ed4b bdbd 0a52 1fbe c762 df3d 1d13 4fbd
00000300: 1b41 c7bc 63ca 0abd fa87 b9bd 7217 de3c
00000310: 0e30 0f3e 6697 093d 9d20 a2bd e9e7 cdbc
00000320: 001c e83d a50c 3fbd c175 a43d ff3a 043e
00000330: 6377 d0bd 221e a13c a3c0 93bd 26d1 a83d
00000340: ed08 1c3d 24c7 c6bc c2b3 b0bd a290 f73d
00000350: 64f0 e2bd 7c12 2abd 46f0 0cbd 302c f8bc
00000360: 70a4 453d e54f afbc cfcc dd3d 3f46 6ebc
00000370: d010 ad3d 39e4 e0bc 9ce9 223e 28ae 96bd
00000380: d40a 81bc 5294 7a3c f30c 8b3d f763 1c3e
00000390: 86cf 4fbc 7f67 1f3d 2c4c de3d 0859 cfbd
000003a0: 1d6f 233d 1a77 843d 6838 f4bd 1fef 8bbc
000003b0: 1d51 6fbc 86d7 e1bd 55e1 313d 8d52 123d
000003c0: 227a 2c3c 54f6 073e 9c66 6bbc 0a34 43bd
000003d0: 7c53 c33c a809 233d dcb1 993d f63d a4bd
000003e0: 82ad a7bd 266f 413d 22dc d23a 7d6f 6a3d
000003f0: 0580 e5bc 1e3d 81bd 77fe 2f3d 2529 9f3d

bias f4 [84]
-0.0175077 -0.07152484 -0.12719426 0.06779645 0.069571204 0.050885584 -0.050812747 -0.011294472
-0.022169318 -0.016359841 -0.106057964 -0.08330423 0.035058174 -0.07780268 -0.038342547 0.0038830251
0.086020485 -0.030754033 0.005403477 0.11249724 0.05010939 -0.07361619 0.019822074 0.05922892
0.1442261 -0.007643842 0.08512355 -0.12774333 -0.04388544 0.035771087 -0.07479375 -0.06027043
0.023083776 -0.02830665 0.025639893 0.026746642 -0.006177969 -0.04048921 -0.03374002 -0.045045063
0.08017331 0.0061235237 0.06666872 0.07641514 -0.08274824 -0.064760566 0.054445326 0.04817079
0.008996359 -0.14615974 0.051725432 -0.104074776 -0.030237503 -0.11163611 -0.025945595 0.043315936
-0.07366091 -0.004868808 -0.073966876 0.10309673 -0.018106 -0.021327967 -0.07160584 0.012881561
0.035995156 -0.050448243 0.0053810626 0.043115497 0.09500429 -0.07432471 -0.048560064 0.048496883
0.07552698 -0.023921933 -0.14213707 -0.047075566 -0.0064064264 0.095078625 -0.033284515 0.079454474
-0.046566714 0.030529825 -0.004070971 0.093699105
00000000: 4f6c 8fbc 9e7b 92bd 363f 02be ddd8 8a3d
00000010: 597b 8e3d 676d 503d 0721 50bd 730c 39bc
00000020: 6e9c b5bc 1305 86bc eb34 d9bd 689b aabd
00000030: 2999 0f3d 0357 9fbd 130d 1dbd 5a7a 7e3b
00000040: 822b b03d e2ef fbbc a60f b13b f464 e63d
00000050: 813f 4d3d 16c4 96bd e761 a23c 069a 723d
00000060: 02b0 133e 3279 fabb 4155 ae3d 26cf 02be
00000070: 38c1 33bd b484 123d 772d 99bd 20de 76bd
00000080: 301a bd3c 59e3 e7bc c10a d23c c61b db3c
00000090: 8f70 cabb 04d8 25bd fa32 0abd 2c81 38bd
000000a0: e831 a43d d7a7 c83b 9c89 883d 8a7f 9c3d
000000b0: e977 a9bd 30a1 84bd 1002 5f3d bc4e 453d
000000c0: 7765 133c e6aa 15be 0cde 533d 2825 d5bd
000000d0: a4b4 f7bc 79a1 e4bd db8b d4bc 0d6c 313d
000000e0: 88db 96bd 868a 9fbb f27b 97bd 6124 d33d
000000f0: 0953 94bc fdb7 aebc 15a6 92bd 2f0d 533c
00000100: a86f 133d d1a2 4ebd a053 b03b e099 303d
00000110: 9c91 c23d 8e37 98bd ebe6 46bd aba4 463d
00000120: e4ad 9a3d eef7 c3bc 618c 11be 4fd2 40bd
00000130: 00ed d1bb 95b8 c23d 5855 08bd 07b9 a23d
00000140: bdbc 3ebd af19 fa3c c865 85bb 51e5 bf3d

weight f4 [6, 84]
0.19486825 -0.13185075 -0.089842275 0.2748796 0.23770973 -0.013253723 -0.038875204 0.15045469
0.034012288 0.08421013 -0.029316595 -0.05295044 0.16692205 0.29211253 -0.1700279 -0.19710834
0.12757857 0.2510486 -0.009939573 0.20444657 -0.27185068 0.28298944 0.20989487 0.14210379
0.18271506 0.25655493 -0.01847084 -0.16481775 -0.12543909 0.16912203 -0.0840458 -0.24771895
-0.16681434 -0.02951993 0.00022959884 -0.23645094 0.15420397 0.23830071 0.21455035 0.32035825
0.13621752 0.068133235 -0.117321186 -0.05127429 -0.23195238 -0.07027746 0.03184367 -0.17406252
0.111536 -0.25527325 0.012096062 -0.26804873 0.21847008 0.12314344 -0.2795059 -0.030727038
0.0019287884 0.048022594 -0.15889657 0.20738056 0.14111772 -0.19772649 -0.14193477 0.27794647
-0.2722084 -0.1552635 -0.22703007 -0.19665821 0.18030402 -0.22240199 0.020620268 0.06407686
-0.31259054 -0.1853358 -0.16431935 -0.11778086 0.12806135 0.22022334 -0.05093208 0.18954441
-0.25242764 -0.23416668 0.08881988 0.18701111 -0.14938053 0.20373932 -0.11267674 0.2532427
0.097695746 -0.19377892 0.06893432 -0.085094444 -0.08051293 0.14576714 0.24530272 0.17653799
0.32135788 -0.13579139 -0.2396534 0.011760714 -0.1808535 -0.027169913 -0.30849633 -0.040383823
0.096840285 -0.048954114 -0.087686285 -0.24372844 0.08180533 -0.15993597 -0.24911919 0.22578569
0.24278955 -0.16597891 -0.06734865 0.044890985 0.23935972 -0.10768498 0.16265307 0.19176127
-0.2558656 0.0563061 -0.1501756 -0.024201779 -0.16748235 -0.111487694 0.13634223 0.14794871
0.1964198 -0.09119095 0.1877603 0.097868025 -0.111758016 0.103113584 -0.20191613 0.00011487181
0.32897988 0.33335906 0.058413696 -0.29340303 -0.17626253 -0.13422117 0.19512612 0.15661429
-0.23268403 0.18902282 0.12805282 0.13229658 0.13589072 -0.19965795 0.1702655 -0.031548467
-0.16701533 0.18797466 -0.0428477 -0.15251057 -0.022788005 -0.02140984 -0.07173278 0.12609099
-0.08323956 -0.17050302 0.16651806 -0.14040256 -0.09670986 -0.1672206 0.00902086 0.23830137
0.0073575233 0.1930191 -0.059384335 -0.18528949 0.1800199 -0.14452004 0.24575384 -0.124279894
0.06622188 -0.26602107 -0.16498408 0.115749724 -0.27830112 0.05187359 0.16224304 0.19880477
-0.2569141 0.19637842 0.18067333 0.27248055 0.07087582 -0.061212033 0.004311093 0.19022307
0.17209135 0.026111608 0.2403081 -0.19121064 0.0018461089 -0.19054917 -0.21354316 0.08012234
-0.21497916 -0.25707072 0.2072625 0.003995599 0.116908744 0.11337252 -0.21006551 0.053696025
-0.05091521 -0.26971668 0.038671557 0.123284236 -0.25580412 -0.27090383 0.15097155 0.15635045
-0.18878958 -0.02320303 0.27043992 0.20147109 -0.26201773 -0.28665146 0.1477507 0.21149802
-0.16952997 -0.2163414 -0.060366232 -0.27691865 -0.045486446 -0.10248819 -0.15574805 0.1074198
-0.091710016 -0.19904818 0.016150419 0.17130622 -0.18161905 0.20914634 0.06269931 -0.2558215
0.07307319 0.00011169142 0.21012664 0.17722256 -0.13691542 0.09860886 -0.299001 -0.19599801
0.09966026 0.05671789 -0.20767404 0.0009056659 -0.12951508 -0.05567479 0.21697535 -0.061551884
00000000: 8b8b 473e e203 07be 3aff b7bd 05bd 8c3e
00000010: 2e6a 733e 2526 59bc 9b3b 1fbd cb10 1a3e
00000020: 7850 0b3d 5c76 ac3d 5b29 f0bc 90e2 58bd
00000030: 9ded 2a3e c68f 953e cb1b 2ebe c5d6 49be
00000040: f5a3 023e 7189 803e 97d9 22bc 715a 513e
00000050: 0330 8bbe fee3 903e aeee 563e a883 113e
00000060: a819 3b3e 2b5b 833e 2950 97bc fcc5 28be
00000070: 1b73 00be 532e 2d3e 3420 acbd 09aa 7dbe
00000080: 61d1 2abe c8d3 f1bc 78c0 7039 3220 72be
00000090: a5e7 1d3e 1a05 743e 16b3 5b3e ff05 a43e
000000a0: 9b7c 0b3e 7089 8b3d 1746 f0bd fd04 52bd
000000b0: ed84 6dbe a1ed 8fbd 826e 023d 723d 32be
000000c0: fd6c e43d 2db3 82be 902e 463c af3d 89be
000000d0: 9fb6 5f3e a132 fc3d 661b 8fbe 45b7 fbbc
000000e0: 66cf fc3a 57b3 443d c8b5 22be 925b 543e
000000f0: 2a81 103e d078 4abe 5957 11be 004f 8e3e
00000100: e65e 8bbe 65fd 1ebe 927a 68be c560 49be
00000110: 9ea1 383e 59bd 63be d6eb a83c bb3a 833d
00000120: de0b a0be abc8 3dbe 5543 28be 1737 f1bd
00000130: 8422 033e 3a82 613e 289e 50bd ee17 423e
00000140: 323e 81be 64c9 6fbe 32e7 b53d d77f 3f3e
00000150: 36f7 18be 0aa1 503e 10c3 e6bd 07a9 813e
00000160: b514 c83d fb6d 46be 702d 8d3d ff45 aebd
00000170: f7e3 a4bd fb43 153e a330 7b3e 60c6 343e
00000180: 0589 a43e e60c 0bbe b367 75be 03b0 403c
00000190: a931 39be 7093 debc 3bf3 9dbe 8269 25bd
000001a0: 3354 c63d 1c84 48bd de94 b3bd f393 79be
000001b0: 8e89 a73d 41c6 23be 1a19 7fbe 5d34 673e
000001c0: d39d 783e 60f6 29be 17ee 89bd 9cdf 373d
000001d0: b71a 753e f189 dcbd 878e 263e 115d 443e
000001e0: d100 83be 3aa1 663d a2c7 19be cf42 c6bc
000001f0: 7e80 2bbe a953 e4bd 4c9d 0b3e de7f 173e
00000200: 4622 493e 52c2 babd 3c44 403e 086f c83d
00000210: 63e1 e4bd 372d d33d 1ac3 4ebe 55e7 f038
00000220: 0d70 a83e 0aae aa3e 3343 6f3d ec38 96be
00000230: 2a7e 34be 4671 09be 24cf 473e 7f5f 203e
00000240: b944 6ebe 338f 413e 4720 033e c178 073e
00000250: f026 0b3e 2273 4cbe 145a 2e3e f738 01bd
00000260: 1106 2bbe 6e7c 403e 1281 2fbd bb2b 1cbe
00000270: e9ad babc b063 afbc a3e8 92bd ff1d 013e
00000280: 8179 aabd 5898 2ebe b683 2a3e b0c5 0fbe
00000290: d20f c6bd e13b 2bbe 3bcc 133c 4605 743e
000002a0: 6117 f13b cda6 453e fd3c 73bd 87bc 3dbe
000002b0: 2357 383e 10fd 13be e5a6 7b3e 7586 febd
000002c0: 569f 873d ea33 88be 96f1 28be 310e ed3d
000002d0: 7c7d 8ebe 6779 543d 0a23 263e 7a93 4b3e
000002e0: 3f8a 83be 6d17 493e 6e02 393e 9282 8b3e
000002f0: 5827 913d 78b9 7abd 1244 8d3b d6c9 423e
00000300: b738 303e 03e8 d53c 5413 763e b9cc 43be
00000310: 23f9 f13a 521f 43be 0fab 5abe 2e17 a43d
00000320: 7f23 5cbe c69e 83be 9f3c 543e 84ed 823b
00000330: da6d ef3d da2f e83d 6a1b 57be 5df0 5b3d
00000340: 788c 50bd 4e18 8abe 1166 1e3d 727c fc3d
00000350: c2f8 82be e8b3 8abe 4998 1a3e 551a 203e
00000360: 0e52 41be 4814 bebc 1a77 8a3e 704e 4e3e
00000370: 3027 86be fbc3 92be f64b 173e f092 583e
00000380: 4499 2dbe 9a88 5dbe 9542 77bd 48c8 8dbe
00000390: ff4f 3abd 54e5 d1bd 6b7c 1fbe e9fe db3d
000003a0: 76d2 bbbd 49d3 4bbe e24d 843c e66a 2f3e
000003b0: 58fa 39be 752a 563e 7f68 803d 09fb 82be
000003c0: 66a7 953d e03b ea38 702b 573e d579 353e
000003d0: 8e33 0cbe 71f3 c93d a916 99be b4b3 48be
000003e0: ae1a cc3d 0551 683d 81a8 54be 366a 6d3a
000003f0: 9a9f 04be 400b 64bd c92e 5e3e d41d 7cbd

bias f4 [6]
0.013307963 -0.041922554 -0.032230295 -0.06334637 0.05100148 0.06541688
00000000: a409 5a3c fcb6 2bbd ea03 04bd bebb 81bd
00000010: eee6 503d 49f9 853d
