202304182246_bestmodel.pt (torch, 436667 bytes, 10 tensors)

weight f4 [6, 3, 5, 5]
0.0028532452 -0.072251275 -0.07531724 0.0540626 -0.001531082 -0.07190168 -0.06939107 -0.006618962
0.0018339488 -0.05831384 -0.054434914 -0.03368621 -0.16839972 0.05912847 0.071952276 -0.046786413
0.053488284 -0.05154277 -0.16140129 -0.101599135 -0.07959985 0.052303594 -0.090085775 0.0014027052
-0.0155743705 0.020341907 -0.029772675 -0.05303197 0.006665427 0.021119924 0.037426777 -0.17208521
-0.14336511 0.007139036 0.033370115 -0.14155619 -0.2585155 -0.20863901 -0.012429188 0.013012443
-0.24155779 -0.09173982 -0.2280454 -0.038225263 -0.04306832 -0.23376569 -0.0059341555 -0.040944535
-0.09591871 -0.0128639415 -0.005699398 0.16045582 -0.018863449 0.09655046 -0.0435519 0.07811822
-0.017851071 -0.07250595 -0.0957676 -0.028773172 -0.10281623 -0.040670335 -0.1781492 -0.016711826
0.09778122 -0.085985266 -0.16089576 -0.036128823 -0.114125185 -0.024601927 -0.021076258 -0.12528645
-0.017416522 -0.11421707 -0.067518294 -0.11402922 -0.12597674 0.059203167 0.016488718 0.03707648
-0.032671675 -0.12572458 -0.083248675 -0.13421531 0.04517754 -0.15517022 0.06943147 -0.073820725
-0.11382069 -0.095731094 0.055170823 -0.0920926 0.036991447 -0.07100761 0.0058098976 -0.07533074
-0.11197051 -0.05083816 -0.09996092 -0.079809114 0.08862834 -0.118996665 -0.017131865 -0.012158115
-0.06325746 -0.12844937 -0.046277557 0.03924255 0.07395202 -0.057322003 0.013621381 0.066499904
-0.04405629 0.084860995 0.0490439 -0.10037498 0.079936214 0.05153137 -0.10288192 0.03122022
-0.14882761 -0.09473022 0.09057795 0.054588325 -0.08410851 0.01117809 0.0023295274 0.117458925
0.15075298 0.08005499 0.012800262 0.08245371 0.14025716 0.049721472 -0.014936176 0.19148117
0.19174485 0.09403289 0.17778358 0.13594751 0.08807699 0.1527267 0.027887123 0.18418159
0.08926994 0.040850338 0.1703964 0.17152382 0.111196555 0.18343657 0.052880786 0.05022493
0.09850261 -0.034662355 -0.052188404 0.058949575 -0.024113543 0.003430552 -0.009197548 0.0023318774
0.012397898 0.15365039 -0.044821423 0.028815735 -0.05548164 -0.01551477 0.097790875 0.060783073
0.05035222 -0.086983345 0.06486325 0.09573044 -0.04341868 0.11241681 -0.09664724 -0.011874414
0.040564224 -0.0754941 -0.0014406593 0.12447264 0.14952381 0.09964447 0.12903963 0.052916728
-0.047748365 0.059028737 0.12733859 0.08237084 0.085019685 0.13947904 0.14892356 0.059947997
0.024763593 0.01923828 -0.06839714 -0.006159644 -0.013952363 0.018729312 -0.048237935 0.03127151
-0.086056754 -0.11073539 0.01426459 0.07861104 0.059479732 -0.10241746 0.10124941 0.048668668
0.083106086 0.009942204 -0.10418927 0.076404035 0.016853936 0.0996637 -0.10038567 0.08912145
0.09747308 -0.08431262 0.08862598 -0.040599346 -1.2056638e-05 -0.09574317 -0.13697031 -0.13356505
-0.13517311 -0.03572368 -0.09838936 -0.14180887 -0.02864058 0.043748353 0.063899346 -0.083813846
-0.11262117 -0.019803347 0.06511176 -0.12531628 0.02307612 -0.07698861 -0.12219103 -0.11656653
0.046919346 -0.06372039 -0.12805949 -0.07597428 -0.0015462721 -0.0023853765 -0.07679264 0.07198831
0.04365909 0.059075538 -0.09057271 0.023368204 -0.101269476 -0.035626147 -0.09598074 -0.07565743
00000000: 83fd 3a3b 7af8 93bd ed3f 9abd bf70 5d3d
00000010: 96ae c8ba 3041 93bd e81c 8ebd e1e3 d8bb
00000020: 1c61 f03a 7eda 6ebd 25f7 5ebd 8dfa 09bd
00000030: fa70 2cbe b230 723d b75b 933d 1ca3 3fbd
00000040: 8816 5b3d 831e 53bd 6146 25be 3513 d0bd
00000050: 3f05 a3bd 4b3c 563d e47e b8bd fada b73a
00000060: a52b 7fbc 12a4 a63c d3e5 f3bc 0d38 59bd
00000070: a769 da3b b103 ad3c d24c 193d 1b37 30be
00000080: 4ece 12be 93ee e93b 1aaf 083d 1bf4 10be
00000090: 255c 84be 77a5 55be cba3 4bbc 2432 553c
000000a0: ed5a 77be 16e2 bbbd bc84 69be 1892 1cbd
000000b0: 6868 30bd 4660 6fbe 4e73 c2bb 75b5 27bd
000000c0: 0771 c4bd 48c3 52bc 04c2 babb 884e 243e
000000d0: 8587 9abc 3fbc c53d 7a63 32bd 72fc 9f3d
000000e0: 693c 92bc 007e 94bd ce21 c4bd b7b5 ebbc
000000f0: 5191 d2bd f095 26bd be6c 36be 3de7 88bc
00000100: 8541 c83d 0b19 b0bd dcc1 24be d1fb 13bd
00000110: 77ba e9bd fb89 c9bc 1ea8 acbc 174b 00be
00000120: 18ad 8ebc a4ea e9bd 0847 8abd 2788 e9bd
00000130: 0c00 01be 057f 723d 5913 873c 82dd 173d
00000140: bcd2 05bd f2bd 00be 487e aabd bd6f 09be
00000150: 160c 393d f1e4 1ebe 1632 8e3d 522f 97bd
00000160: d21a e9bd aa0e c4bd cdfa 613d 0c9b bcbd
00000170: 5884 173d 706c 91bd f460 be3b 0147 9abd
00000180: cb50 e5bd ad3b 50bd 50b8 ccbd f672 a3bd
00000190: c682 b53d 86b4 f3bd 2058 8cbc d532 47bc
000001a0: 218d 81bd 3b88 03be 898d 3dbd ccbc 203d
000001b0: 2874 973d 7aca 6abd 362c 5f3c 1a31 883d
000001c0: 5e74 34bd 9acb ad3d 42e2 483d 6691 cdbd
000001d0: 99b5 a33d 8f12 533d c2b3 d2bd 8cc1 ff3c
000001e0: 4466 18be eb01 c2bd ef80 b93d 0298 5f3d
000001f0: 1541 acbd 4f24 373c fcaa 183b 4e8e f03d
00000200: fd5e 1a3e dff3 a33d 31b8 513c 7edd a83d
00000210: 939f 0f3e bea8 4b3d ddb6 74bc a413 443e
00000220: c358 443e 5194 c03d e60c 363e d335 0b3e
00000230: b561 b43d 6364 1c3e 8973 e43c 199a 3c3e
00000240: 29d3 b63d af52 273d 657c 2e3e f1a3 2f3e
00000250: 05bb e33d ccd6 3b3e 8699 583d a8b8 4d3d
00000260: bdbb c93d 1dfa 0dbd 82c3 55bd 1c75 713d
00000270: c489 c5bc 1dd3 603b 50b1 16bc 69d2 183b
00000280: 8e20 4b3c 8756 1d3e ab96 37bd fa0e ec3c
00000290: b740 63bd a931 7ebc 9546 c83d acf7 783d
000002a0: 213e 4e3d 5324 b2bd 06d7 843d 520e c43d
000002b0: c9d7 31bd c93a e63d fdee c5bd e78c 42bc
000002c0: ac26 263d a79c 9abd 81d4 bcba 83eb fe3d
000002d0: c51c 193e 6612 cc3d f722 043e 36bf 583d
000002e0: ca93 43bd 1ec8 713d 0c65 023e 0bb2 a83d
000002f0: cd1e ae3d 98d3 0e3e 6b7f 183e 088c 753d
00000300: 05dd ca3c 9999 9d3c cd13 8cbd d7d6 c9bb
00000310: 7498 64bc 376e 993c 2495 45bd 8e16 003d
00000320: 863e b0bd 3cc9 e2bd 07b6 693c d3fe a03d
00000330: 05a1 733d 3fc0 d1bd da5b cf3d cc58 473d
00000340: 8633 aa3d a0e4 223c 2f61 d5bd b879 9c3d
00000350: 4411 8a3c 7b1c cc3d 0197 cdbd 4f85 b63d
00000360: f79f c73d 18ac acbd 8a81 b53d 804b 26bd
00000370: de46 4ab7 ff14 c4bd f241 0cbe 47c5 08be
00000380: d26a 0abe fe52 12bd 5c80 c9bd 5836 11be
00000390: a69f eabc 7931 333d a9dd 823d 98a6 abbd
000003a0: eea5 e6bd a13a a2bc 5059 853d e952 00be
000003b0: 220a bd3c 34ac 9dbd 4a3f fabd 6fba eebd
000003c0: 802e 403d d67f 82bd 0722 03be 6798 9bbd
000003d0: 48ac caba fa53 1cbb 7645 9dbd 9b6e 933d
000003e0: e0d3 323d 31f9 713d 2f7e b9bd ad6e bf3c
000003f0: 5f66 cfbd b9ec 11bd 8d91 c4bd 48f2 9abd

bias f4 [6]
-0.13319981 -0.016863605 0.12519613 0.05067462 -0.07787194 -0.06744622
00000000: 8865 08be 8b25 8abc 6a33 003e 3190 4f3d
00000010: 537b 9fbd 3e21 8abd

weight f4 [16, 6, 5, 5]
0.04070882 -0.040246524 -0.035909362 -0.05951521 0.021496981 0.03702672 -0.0009672389 0.011501408
0.0013943352 -0.05563419 0.05948484 0.010284588 0.06826496 -0.05577798 -0.047369674 -0.109411724
-0.032815434 -0.06369368 -0.09284566 -0.0715595 -0.060903743 -0.12222139 -0.12936902 -0.0611468
-0.035921924 -0.046947517 -0.12807038 -0.05356693 -0.1293396 -0.21502902 -0.05270687 -0.20775945
-0.24305627 -0.13420363 -0.09630266 -0.058035593 -0.24236283 -0.18255198 -0.17759924 -0.08025284
-0.1564691 -0.16361533 -0.04164465 -0.08860673 -0.07084315 -0.065489486 -0.07325605 -0.12777463
-0.012925839 -0.021296453 0.020455148 0.023460938 0.049045622 -0.081287384 -0.06670522 0.08312663
0.034217577 -0.08869199 -0.042356323 -0.066709645 -0.044003353 -0.07702233 0.009281428 -0.097126774
-0.011620916 -0.010547747 0.10159397 -0.06839024 -0.016017932 0.010231857 0.070197 0.046529934
0.060716983 0.110948384 0.058383416 -0.122280665 -0.12708984 -0.15824214 -0.07302541 -0.11837693
-0.13550745 -0.103612475 -0.21991178 -0.13681199 -0.14076085 -0.13413393 -0.05957164 -0.19295782
-0.13208736 -0.024365606 -0.020694377 -0.131911 -0.12547167 0.023134066 0.0027298897 0.054947544
-0.0021080084 -0.059901144 0.046976075 0.11043821 -0.00065724587 0.08661048 0.11176673 0.07884965
0.119765036 0.087177545 0.012239817 0.058662668 0.07995351 0.17142926 0.15852326 0.1099591
0.08902719 0.17887902 0.10733358 0.09083502 0.11057319 0.14067997 0.03705309 0.12177377
0.07976853 0.05999306 0.038356066 0.02841065 0.03994601 -0.006666166 -0.06339672 -0.046585742
-0.09192584 -0.057214566 0.041842937 0.041455537 -0.00540872 -0.019529661 0.0090832785 -0.04001472
0.042212367 0.04182938 -0.04286989 -0.078917004 -0.015084523 0.083899625 -0.008420701 0.07245657
0.025654186 0.0022247501 0.06931648 0.049978048 0.119939014 0.098931774 0.08004613 0.03971988
-0.0008318873 -0.053469468 0.07347245 0.016309338 -0.03761401 0.016957255 0.050128292 0.03244333
0.090352885 -0.009194525 -0.02108213 0.007441522 0.053676642 0.0958907 0.026355168 -0.06478494
-0.054389063 0.023195116 0.072256446 -0.043796606 -0.12294612 -0.10886166 0.066708945 -0.011661024
0.015079187 0.0966084 -0.0036672766 -0.04405628 0.03451508 0.07794569 0.20793599 0.19186698
0.05195372 0.16913028 0.10061375 0.12379098 0.19051714 0.12592116 0.11618032 0.23121792
0.22853038 0.12393577 0.107117966 0.09894385 0.15221082 0.28849897 0.10324316 0.07787259
-0.060702167 0.01327208 -0.016431209 -0.01063738 0.059504792 -0.092668325 -0.013304596 0.019658765
0.08209548 -0.017023735 -0.033630084 -0.013289129 0.06455792 -0.032308843 0.016519226 0.02138206
-0.010102285 -0.026818825 0.0044514285 0.037172362 -0.008355716 -0.06023699 -0.03565073 0.063372836
0.07275362 -0.024400856 0.05495835 0.0871902 0.0053933044 0.08666039 0.022106329 0.0070821247
0.19345029 0.21756068 0.056071408 0.079102285 0.08247046 0.17452353 0.1666257 0.10585691
0.09629963 0.15723144 0.28406957 0.25904223 0.14301312 0.12841673 0.1120391 0.15317038
0.18323876 0.16271937 -0.05120554 0.07549452 -0.022821879 -0.07877475 -0.03344888 -0.08314539
00000000: 4bbe 263d 8ad9 24bd b215 13bd 39c6 73bd
00000010: 701a b03c 54a9 173d 4e8e 7dba 6770 3c3c
00000020: 20c2 b63a ade0 63bd 60a6 733d b080 283c
00000030: 80ce 8b3d 7377 64bd b406 42bd 4113 e0bd
00000040: 7a69 06bd d571 82bd de25 bebd ca8d 92bd
00000050: 3476 79bd 354f fabd 5079 04be 1175 7abd
00000060: de22 13bd 0a4c 40bd e224 03be ff68 5bbd
00000070: 9a71 04be 9130 5cbe 29e3 57bd e5be 54be
00000080: bee3 78be ad6c 09be 543a c5bd bbb6 6dbd
00000090: f62d 78be e8ee 3abe 93dc 35be 9a5b a4bd
000000a0: 7039 20be c78a 27be 9593 2abd 7277 b5bd
000000b0: 3716 91bd 5a1f 86bd 4507 96bd 5ad7 02be
000000c0: e6c6 53bc e675 aebc 8e91 a73c 2731 c03c
000000d0: 10e4 483d 007a a6bd bf9c 88bd 4b3e aa3d
000000e0: bb27 0c3d 25a4 b5bd d37d 2dbd 119f 88bd
000000f0: dc3c 34bd e2bd 9dbd 2111 183c 67ea c6bd
00000100: a865 3ebc 75d0 2cbc 8010 d03d 2f10 8cbd
00000110: 0a38 83bc 85a3 273c 72c3 8f3d 2c96 3e3d
00000120: 5fb2 783d e838 e33d 7323 6f3d 496e fabd
00000130: d723 02be 3a0a 22be 598e 95bd 9b6f f2bd
00000140: 77c2 0abe c732 d4bd 8e30 61be 7118 0cbe
00000150: 9d23 10be 685a 09be 6401 74bd bc96 45be
00000160: e941 07be 619a c7bc 4187 a9bc ad13 07be
00000170: a57b 00be a783 bd3c f3e7 323b ad10 613d
00000180: 8326 0abb e75a 75bd fc69 403d 6e2d e23d
00000190: 064b 2cba d660 b13d f5e5 e43d ed7b a13d
000001a0: 5f47 f53d 248a b23d 8389 483c 4448 703d
000001b0: aabe a33d 278b 2f3e ec53 223e 3d32 e13d
000001c0: e353 b63d 102c 373e b5d1 db3d b607 ba3d
000001d0: 3274 e23d 690e 103e fbc4 173d 8764 f93d
000001e0: af5d a33d 48bb 753d 401b 1d3d 74bd e83c
000001f0: 6d9e 233d da6f dabb 24d6 81bd b1d0 3ebd
00000200: 9d43 bcbd d259 6abd 8063 2b3d 48cd 293d
00000210: a23b b1bb abfc 9fbc 08d2 143c 7ae6 23bd
00000220: e0e6 2c3d 4955 2b3d 5698 2fbd 3d9f a1bd
00000230: 1325 77bc 91d3 ab3d fbf6 09bc 1c64 943d
00000240: ba28 d23c 1dcd 113b ccf5 8d3d c8b5 4c3d
00000250: 96a2 f53d be9c ca3d 3aef a33d 50b1 223d
00000260: 0313 5aba cd02 5bbd b978 963d 299b 853c
00000270: 2611 1abd f1e9 8a3c 5353 4d3d 4ce3 043d
00000280: ef0a b93d a2a4 16bc 6eb4 acbc 03d8 f33b
00000290: 0adc 5b3d 5862 c43d cbe6 d73c f7ad 84bd
000002a0: 11c7 5ebd af03 be3c 30fb 933d 1264 33bd
000002b0: 2dcb fbbd ddf2 debd b39e 883d e10d 3fbc
000002c0: b20e 773c a0da c53d b156 70bb 5c74 34bd
000002d0: af5f 0d3d fda1 9f3d 2ced 543e c778 443e
000002e0: 6dcd 543d 7d30 2d3e 950e ce3d 2086 fd3d
000002f0: ed16 433e 7af1 003e f3ef ed3d 64c4 6c3e
00000300: de03 6a3e 09d2 fd3d aa60 db3d 13a3 ca3d
00000310: 27dd 1b3e 23b6 933e 2671 d33d aa7b 9f3d
00000320: d6a2 78bd 2373 593c be9a 86bc 6848 2ebc
00000330: 4cbb 733d e4c8 bdbd 85fb 59bc 6b0b a13c
00000340: ad21 a83d 5c75 8bbc b3bf 09bd a6ba 59bc
00000350: f136 843d 4756 04bd 5453 873c 6e29 af3c
00000360: 0e84 25bc 27b3 dbbc 4add 913b 0c42 183d
00000370: 6ae6 08bc 10bb 76bd 8006 12bd 9ec9 813d
00000380: daff 943d 4ee4 c7bc 021c 613d c790 b23d
00000390: 51ba b03b 017b b13d 5518 b53c 2b11 e83b
000003a0: d517 463e 3ac8 5e3e 22ab 653d 6100 a23d
000003b0: 46e6 a83d 4cb6 323e ed9f 2a3e 82cb d83d
000003c0: be38 c53d 4701 213e 9171 913e 2fa1 843e
000003d0: 0872 123e ad7f 033e c174 e53d b2d8 1c3e
000003e0: f1a2 3b3e e89f 263e e6bc 51bd df9c 9a3d
000003f0: f3f4 babc a854 a1bd b101 09bd 2148 aabd

bias f4 [16]
0.043610595 -0.010703694 0.06918174 -0.09384742 0.03956647 0.10473898 0.052883137 0.021986306
0.15346678 -0.0029329623 0.013138547 0.0387749 0.06910411 -0.06606659 0.06687894 0.1014626
00000000: 06a1 323d 8c5e 2fbc 28af 8d3d 1333 c0bd
00000010: 7310 223d 6481 d63d fd9b 583d a01c b43c
00000020: 6526 1d3e f136 40bb 0f43 573c 6ed2 1e3d
00000030: 7586 8d3d ec4d 87bd d3f7 883d a0cb cf3d

weight f4 [120, 16, 7, 7]
-0.026598625 0.06347734 0.016954174 -0.040279847 0.0060775117 0.035487298 0.046334896 0.013295359
0.021111816 -0.0032059355 0.005569389 -0.0036241713 0.03989192 0.038181204 -0.021805286 0.008802271
0.022814246 0.01875167 0.030167548 0.0032627557 -0.0261722 -0.036825325 0.0155320335 0.021846326
-0.00013000505 0.009684166 -0.013571948 0.0065493174 -0.058961626 0.049699467 -0.007121041 0.0387841
-0.024701765 -0.045196757 0.015986947 -0.056411475 0.0034988548 0.029710645 0.019758323 0.022770626
0.058330115 0.042372286 -0.016517337 -0.022890855 0.045454323 0.010132514 0.025657639 0.041532263
0.103206545 -0.018215554 -0.024877872 -0.03436413 0.046886202 0.03417613 -0.014039555 -0.017704865
-0.044681754 -0.061792172 0.0047232113 -0.044836942 0.020582467 -0.026170105 0.022447227 0.012157272
0.034219835 0.023487078 -0.024081113 0.012218113 0.026618762 -0.0113319075 0.0038255062 0.028263057
0.019195948 -0.046933964 0.020467706 0.017866403 0.033073977 0.07627794 0.005496896 -0.026601255
0.01447782 -0.0122023225 0.009727973 0.023558497 0.030782262 0.027446838 0.0022484453 0.0042942273
0.02449894 -0.029073054 -0.038241707 0.021602277 -0.0009962315 0.009715175 -0.0017975634 -0.0077550597
-0.03153178 -0.14559843 0.015197124 -0.015358996 -0.049218655 0.003936942 0.006764792 0.014890077
-0.046108946 -0.010893624 0.025376461 0.041427467 0.03319689 0.0016034226 -0.017548997 -0.01668456
-0.008427637 -0.0029496301 -0.012726272 0.004590754 0.025271755 0.012574052 0.005882666 -0.0323438
0.019314237 0.027422573 -0.0070443065 0.007151664 0.03193875 -0.031376522 -0.007600215 -0.029403023
-0.027886875 -0.03360554 0.028566312 0.04919742 0.0004975208 0.03632007 0.023671165 -0.010569952
0.007826681 -0.011276175 -0.026330333 -0.018205468 -0.001627141 0.03743523 -0.009149506 -0.027874269
-0.007641693 -0.027302051 -0.11695823 0.025370799 -0.024680262 0.033074982 0.022912184 -0.010422888
0.016675573 -0.013456397 0.011912786 -0.004286884 -0.034329493 -0.01926927 0.02793235 -0.057403322
0.0141610745 0.002252509 0.025760138 0.021575905 -0.014932032 -0.03269887 0.03231336 0.034276802
0.017778942 0.02541164 0.004247999 -0.025787136 0.03951018 -0.041900467 -0.024640527 0.009490193
0.008477691 -0.023003472 0.035958394 -0.007187239 0.037213802 0.0079703145 -0.05908464 -0.009296255
-0.020215224 0.017516155 0.027448606 0.026110787 -0.030723335 0.09658468 0.04703819 0.03351501
-0.01738398 -0.01592526 -0.022566846 0.037193306 0.027811952 -0.0056812903 0.045613244 -0.033633262
-0.015128394 -0.0070873518 0.01657235 0.016562985 -0.025314474 -0.009427021 -0.004875493 0.052788556
-0.022052748 -0.026212756 -0.0066110436 -0.022489589 -0.043098114 -0.028321993 -0.009684802 -0.007073836
0.021133916 -0.029848127 -0.019351413 -0.008195306 -0.0518228 0.02043157 0.013827866 0.017300552
0.0028639329 -0.01331562 -0.029007709 -0.025048012 0.023613768 0.031923007 -0.026767466 -0.06564112
0.0048257243 -0.008803613 0.0201478 -0.019250086 0.016516795 -0.024798507 0.052600324 0.006511552
0.022626791 0.016898336 -0.0040308787 -0.022861423 -0.025665982 -0.019418176 0.00038384824 0.00554794
0.03639139 0.023514025 -0.016953414 -0.03549867 0.035082668 0.025627041 -0.008581302 0.009706561
00000000: 5ce5 d9bc 6800 823d 7be3 8a3c 7bfc 24bd
00000010: dd25 c73b 215b 113d a9c9 3d3d c7d4 593c
00000020: b0f2 ac3c ac1a 52bb 6c7f b63b 8183 6dbb
00000030: b665 233d e563 1c3d 00a1 b2bc 6737 103c
00000040: f1e4 ba3c 1a9d 993c ef21 f73c f5d3 553b
00000050: 1567 d6bc 27d6 16bd 127a 7e3c 11f7 b23c
00000060: f751 08b9 56aa 1e3c e05c 5ebc a89b d63b
00000070: bf81 71bd ab91 4b3d 9f57 e9bb 14dc 1e3d
00000080: 5b5b cabc 3c20 39bd 0ff7 823c b80f 67bd
00000090: 0b4d 653b bd63 f33c 35dc a13c 7789 ba3c
000000a0: 8feb 6e3d 908e 2d3d 5e4f 87bc 9a85 bbbc
000000b0: 502e 3a3d d802 263c f82f d23c bc1d 2a3d
000000c0: f45d d33d c938 95bc aecc cbbc 67c1 0cbd
000000d0: bf0b 403d 45fc 0b3d 2906 66bc cb09 91bc
000000e0: 3704 37bd ca19 7dbd 2bc5 9a3b f1a6 37bd
000000f0: 909c a83c b062 d6bc 3fe3 b73c 4b2f 473c
00000100: 192a 0c3d f967 c03c c145 c5bc 7b2e 483c
00000110: 970f da3c 77a9 39bc 58b5 7a3b ed87 e73c
00000120: d240 9d3c d43d 40bd e4ab a73c 905c 923c
00000130: 9478 073d 9c37 9c3d 4e1f b43b e0ea d9bc
00000140: 6134 6d3c 40ec 47bc 1362 1f3c c0fd c03c
00000150: 152b fc3c 31d8 e03c a75a 133b 97b6 8c3b
00000160: 00b2 c83c 9d2a eebc 56a3 1cbd 42f7 b03c
00000170: fb93 82ba 662c 1f3c 389c ebba 281e febb
00000180: 7827 01bd c117 15be 5cfd 783c 4ca4 7bbc
00000190: 8099 49bd 7701 813b 30ab dd3b 82f5 733c
000001a0: bcdc 3cbd 2c7b 32bc 4ce2 cf3c d9af 293d
000001b0: 76f9 073d ef29 d23a eac2 8fbc 0fae 88bc
000001c0: 1214 0abc 954e 41bb db81 50bc 096e 963b
000001d0: b606 cf3c 6603 4e3c 61c3 c03b ef7a 04bd
000001e0: e438 9e3c 4ea5 e03c edd3 e6bb 8158 ea3b
000001f0: 35d2 023d ab84 00bd 390b f9bb 9cde f0bc
00000200: 0473 e4bc f6a5 09bd e603 ea3c 3c83 493d
00000210: 0e6c 023a 5bc4 143d 08ea c13c 982d 2dbc
00000220: 7b3b 003c b5bf 38bc b6b2 d7bc a223 95bc
00000230: cb45 d5ba af55 193d cfe7 15bc 9458 e4bc
00000240: 2b67 fabb 8da8 dfbc cc87 efbd 6cd6 cf3c
00000250: 432e cabc a279 073d 55b2 bb3c c3c4 2abc
00000260: 369b 883c 3878 5cbc d92d 433c fd78 8cbb
00000270: 159d 0cbd 97da 9dbc 62d2 e43c bf1f 6bbd
00000280: da03 683c d49e 133b ed06 d33c f4bf b03c
00000290: 7ba5 74bc 40ef 05bd 045b 043d d565 0c3d
000002a0: 25a5 913c 122c d03c cc32 8b3b 8b3f d3bc
000002b0: 6dd5 213d d39f 2bbd eeda c9bc c17c 1b3c
000002c0: 03e6 0a3c c771 bcbc 1c49 133d ee82 ebbb
000002d0: 806d 183d ec95 023c bc02 72bd 524f 18bc
000002e0: 669a a5bc 0a7e 8f3c e6db e03c 4ae6 d53c
000002f0: 81af fbbc 30ce c53d 1eab 403d 0947 093d
00000300: d968 8ebc b175 82bc 1bde b8bc 0258 183d
00000310: e4d5 e33c 1e2a babb f4d4 3a3d 08c3 09bd
00000320: 15dd 77bc 043d e8bb bdc2 873c 19af 873c
00000330: 4d60 cfbc cb73 1abc 99c2 9fbb d038 583d
00000340: f7a7 b4bc 22bc d6bc 74a1 d8bb 163c b8bc
00000350: a687 30bd 8603 e8bc 01ad 1ebc a3cb e7bb
00000360: 0921 ad3c 0f84 f4bc db86 9ebc 9b45 06bc
00000370: 2544 54bd 1c60 a73c 468e 623c e3b9 8d3c
00000380: d2b0 3b3b c229 5abc 93a1 edbc 7d31 cdbc
00000390: a971 c13c b3c1 023d 7247 dbbc da6e 86bd
000003a0: 1c21 9e3b 073d 10bc 000d a53c 5bb2 9dbc
000003b0: 3b4e 873c 3d26 cbbc 7073 573d db5e d53b
000003c0: d25b b93c 616e 8a3c 7615 84bb e147 bbbc
000003d0: 7741 d2bc de12 9fbc 3d3f c939 7ecb b53b
000003e0: 230f 153d 7ca0 c03c e3e1 8abc 0e67 11bd
000003f0: d8b2 0f3d cdef d13c 9798 0cbc 4508 1f3c

bias f4 [120]
-0.010692562 -0.026440179 0.01468671 0.013425886 -0.020908164 0.016511457 0.019872466 0.016133994
0.0287549 -0.010181221 0.0071412995 -0.010322239 -0.014101678 0.0011255324 -0.0015802264 0.0021431334
-0.005988839 0.0024408274 0.030298665 0.024440901 -0.013238435 -0.016513461 0.0400779 -0.02625414
0.0022591657 -0.023439761 0.0025408848 0.01960229 -0.033426814 -0.0066436483 0.0037003306 -0.009638248
-0.008252233 0.013025878 0.030597445 0.0038231793 0.035919458 -0.022177292 0.024006262 0.022187997
0.008552215 0.024161866 -0.0020666441 -0.035788015 -0.043760903 0.022387391 0.007895721 -0.029375503
0.007856639 0.023551013 -0.0048362063 0.011475565 0.032184508 0.03214134 -0.021963658 0.014257059
0.02073338 0.023318954 -0.026945284 -0.031673897 -0.0057090595 -0.008565214 -0.012409742 -0.0014408065
-0.013302995 -0.009415759 -0.0053293314 -0.0124545535 -0.03208026 0.015819922 -0.010299712 0.036244575
0.04321945 0.010299417 0.005490243 -0.025674505 0.013313839 0.025084421 0.008976932 -0.02403831
-0.030187443 -0.026843164 0.028677233 -0.015945962 -0.018144403 0.023353538 -0.019081565 -0.024748454
-0.014269952 -0.040217645 0.021734115 0.012677814 0.02242205 0.039728463 0.042286668 -0.020340327
0.020803386 0.024869649 0.010651056 0.024914399 0.011206765 -0.022109503 -0.008418884 -0.0036172378
0.0027750048 -0.013881685 0.001711288 0.028260892 0.03232712 -0.008805209 -0.015611198 0.036748223
0.019079158 0.036279906 0.028285613 -0.021168137 -0.016366666 -0.047615487 -0.0069434424 -0.009767595
00000000: db2f 2fbc 1399 d8bc 87a0 703c 3ff8 5b3c
00000010: 9947 abbc 0943 873c 95cb a23c 702b 843c
00000020: 658f eb3c 23cf 26bc 9001 ea3b 9c1e 29bc
00000030: b90a 67bc 9a86 933a 991f cfba d073 0c3b
00000040: 063e c4bb 4af6 1f3b e834 f83c 4938 c83c
00000050: 05e6 58bc 3d47 87bc b928 243d ec12 d7bc
00000060: 830e 143b be04 c0bc f984 263b fb94 a03c
00000070: 8eea 08bd f6b2 d9bb 3f81 723b bee9 1dbc
00000080: 6034 07bc 7e6a 553c 7ea7 fa3c 4e8e 7a3b
00000090: 4820 133d 27ad b5bc c8a8 c43c 9ac3 b53c
000000a0: 971e 0c3c 1bef c53c 8970 07bb 7496 12bd
000000b0: a23e 33bd c365 b73c 0e5d 013c e5a4 f0bc
000000c0: 22b9 003c 0eee c03c 0a79 9ebb 0204 3c3c
000000d0: e7d3 033d a3a6 033d 21ed b3bc 7196 693c
000000e0: 0dd9 a93c 6407 bf3c 5bbc dcbc 7dbc 01bd
000000f0: 1013 bbbb 1d55 0cbc 3b52 4bbc 72d9 bcba
00000100: cef4 59bc 8e44 1abc aca1 aebb 2f0e 4cbc
00000110: 9766 03bd c898 813c 20c0 28bc 3175 143d
00000120: e106 313d e3be 283c 7fe7 b33b 5753 d2bc
00000130: 4a22 5a3c d87d cd3c fb13 133c fdeb c4bc
00000140: a84b f7bc 32e6 dbbc 84ec ea3c 1ba1 82bc
00000150: 92a3 94bc eb4f bf3c f150 9cbc 45bd cabc
00000160: 84cc 69bc 42bb 24bd be0b b23c 9bb6 4f3c
00000170: 72ae b73c 50ba 223d c934 2d3d c2a0 a6bc
00000180: dd6b aa3c 6fbb cb3c c481 2e3c 4819 cc3c
00000190: 949c 373c fd1e b5bc 5cef 09bc 2e0f 6dbb
000001a0: dbdc 353b 0270 63bc 4c4d e03a 6383 e73c
000001b0: 7169 043d b943 10bc 1cc6 7fbc 4e85 163d
000001c0: e54b 9c3c 3d9a 143d 3bb7 e73c cd68 adbc
000001d0: 6313 86bc 7508 43bd d185 e3bb 4308 20bc

weight f4 [84, 120]
0.04593786 0.010919435 0.07608706 0.07411813 -0.17240769 0.1370943 -0.0025039264 -0.11069897
-0.20782393 0.061367694 0.04091437 0.09128725 -0.042371914 -0.1030572 0.06541332 -0.010889492
0.016774103 0.10466175 0.15289925 0.017845158 0.09473656 0.16300736 0.00045381862 -0.047205184
0.02935516 0.065232255 0.04007144 -0.08177464 0.004495136 -0.060641676 0.15700622 -0.014472849
0.038305532 0.12377874 0.12049776 -0.06541741 0.011248346 0.10785984 -0.10149055 -0.07064422
-0.07592868 -0.044722117 -0.10896638 -0.077597514 0.017855493 0.008025575 0.046397448 0.057423726
-0.01845383 0.07465235 0.092666835 0.08196334 0.06253465 -0.12820089 0.02180716 0.052427314
-0.0059111076 -0.0016904391 -0.10212396 0.006827487 0.03816161 0.074740306 0.01063622 -0.06997614
-0.12886158 -0.113111 0.0021292928 -0.045087595 -0.08387777 0.051735163 -0.11566157 -0.030516388
0.004655738 -0.014749593 0.051027466 -0.038335912 0.107076235 0.029820513 -0.0888748 -0.08928063
-0.029909622 0.03555784 -0.09892713 -0.05925756 0.049506083 0.006769669 -0.12479442 0.034212682
0.07935975 0.02554702 -0.0136263445 -0.1269403 0.061934683 -0.108161576 0.047080036 -0.06962033
-0.1333831 -0.06905884 0.157941 -0.046811897 0.07402646 -0.069792785 -0.063966416 -0.047123544
-0.048492443 -0.0835229 0.007683539 -0.09588676 -0.021896105 -0.027269064 -0.060939323 -0.12569584
0.03165068 -0.0034216172 -0.07262961 0.044652082 0.0049148723 0.028793858 0.061901085 -0.05682752
0.012410115 -0.04088559 0.049559586 0.07139621 0.18719234 -0.023656622 -0.08815908 0.03399781
0.077906676 -0.026204439 -0.015844062 0.0236906 0.11102084 0.044196356 -0.084658876 -0.14430931
0.020439856 -0.013444251 -0.06962081 -0.04509522 -0.039305568 0.004395348 0.0057413257 -0.013990672
-0.05326262 -0.11398537 -0.08853241 -0.06011285 0.004966986 -0.078599975 -0.047189016 0.023603346
0.031832244 -0.003969104 -0.2586699 0.18075994 -0.07802288 -0.0063547003 0.072501026 -0.05386411
-0.06572854 0.047015518 -0.061608247 -0.06904482 0.001138286 -0.03976535 0.053924404 -0.0473431
0.07898793 0.09418748 0.10509367 0.11023512 -0.18872748 0.030328125 0.039706133 0.022384657
-0.11813382 0.0071110944 0.0029533245 -0.005245936 -0.02763052 -0.0006043038 -0.1201907 -0.0735117
-0.0066098287 0.09451612 0.054858487 0.11712642 0.10594186 -0.02228621 -0.047723927 0.0058725867
-0.00025604782 0.039909244 -0.0042345095 -0.0329047 0.0130036725 -0.15102617 0.0418456 0.12730062
-0.038080245 0.027952367 -0.041151628 0.122600354 -0.08213758 -0.042181913 0.1668993 0.04627299
0.08271686 0.047176763 0.13309826 0.16041365 -0.041094095 -0.10133316 -0.17164248 0.017130926
0.103291005 -0.07026006 -0.10569472 0.07685293 0.05456217 0.1466835 -0.08330577 -0.05406422
-0.07417742 -0.06993318 -0.056766022 0.10050714 -0.048528884 -0.11346133 0.07693489 0.030936427
-0.06260513 -0.034846038 0.08164433 0.024610328 -0.013658704 0.006414163 -0.03258378 0.07346301
0.04394883 0.053617604 0.06741085 0.038979266 -0.097910866 -0.08298577 0.08213831 0.101083755
-0.013677966 0.09664585 -0.0336446 -0.012949234 -0.068999745 -0.10916062 0.107411586 0.116592646
00000000: 5629 3c3d 6ee7 323c 88d3 9b3d 3fcb 973d
00000010: a48b 30be 7362 0c3e ea18 24bb 24b6 e2bd
00000020: cccf 54be b15c 7b3d d495 273d cff4 ba3d
00000030: 2c8e 2dbd a70f d3bd 6bf7 853d d769 32bc
00000040: d869 893c e658 d63d 9f91 1c3e 0230 923c
00000050: 3e05 c23d 67eb 263e 81ee ed39 395a 41bd
00000060: 3c7a f03c 7d98 853d f321 243d 7679 a7bd
00000070: ef4b 933b 6863 78bd 3dc6 203e 871f 6dbc
00000080: 43e6 1c3d b57f fd3d 88c7 f63d 90f9 85bd
00000090: fc4a 383c 9fe5 dc3d 47da cfbd ebad 90bd
000000a0: 7f80 9bbd 8a2e 37bd c429 dfbd 72eb 9ebd
000000b0: af45 923c b47d 033c 400b 3e3d 2435 6b3d
000000c0: 7d2c 97bc 55e3 983d 1cc8 bd3d 65dc a73d
000000d0: 2b12 803d 1847 03be eea4 b23c 06be 563d
000000e0: f7b1 c1bb b991 ddba 5e26 d1bd 1db9 df3b
000000f0: 594f 1c3d 7211 993d 8a43 2e3c a74f 8fbd
00000100: 4af4 03be bda6 e7bd 9b8b 0b3b c5ad 38bd
00000110: 1cc8 abbd 40e8 533d f9df ecbd 81fd f9bc
00000120: 298f 983b 47a8 71bc 2d02 513d 1e06 1dbd
00000130: c94a db3d 264a f43c fe03 b6bd c3d8 b6bd
00000140: 0605 f5bc 19a5 113d 4f9a cabd 0eb8 72bd
00000150: e4c6 4a3d 19d4 dd3b 3894 ffbd 9922 0c3d
00000160: 5d87 a23d fc47 d13c 0841 5fbc a3fc 01be
00000170: 39af 7d3d d183 ddbd ffd6 403d 1b95 8ebd
00000180: 9495 08be b96e 8dbd 49bb 213e d5bd 3fbd
00000190: 2f9b 973d 85ef 8ebd d300 83bd 9e04 41bd
000001a0: 03a0 46bd 0e0e abbd 32c6 fb3b 4760 c4bd
000001b0: 765f b3bc 5f63 dfbc 839b 79bd 69b6 00be
000001c0: 25a4 013d 363d 60bb d5be 94bd 1ae5 363d
000001d0: f00c a13b 19e1 eb3c fe8b 7d3d f9c3 68bd
000001e0: cc53 4b3c a677 27bd fefe 4a3d 2d38 923d
000001f0: 59af 3f3e 88cb c1bc bf8c b4bd 4a41 0b3d
00000200: 898d 9f3d b1aa d6bc 68cb 81bc ca12 c23c
00000210: e55e e33d 3d07 353d a261 adbd d2c5 13be
00000220: 7c71 a73c 4745 5cbc 5b95 8ebd c4b5 38bd
00000230: e0fe 20bd da06 903b bb21 bc3b 2239 65bc
00000240: e829 5abd 2971 e9bd 7b50 b5bd e438 76bd
00000250: 19c2 a23b 06f9 a0bd 4549 41bd ce5b c13c
00000260: 8762 023d 420f 82bb 6270 84be 2219 393e
00000270: 76ca 9fbd 173b d0bb 6b7b 943d 9da0 5cbd
00000280: af9c 86bd 5893 403d ee58 7cbd 5f67 8dbd
00000290: 8a32 953a fee0 22bd d6df 5c3d d7ea 41bd
000002a0: 6dc4 a13d 5ee5 c03d 5a3b d73d f3c2 e13d
000002b0: c741 41be b072 f83c e6a2 223d 0760 b73c
000002c0: 25f0 f1bd 2f04 e93b 908c 413b 1ae6 abbb
000002d0: 6659 e2bc 246a 1eba 8b26 f6bd 4d8d 96bd
000002e0: 4397 d8bb ab91 c13d 4bb3 603d fadf ef3d
000002f0: 0cf8 d83d 9291 b6bc 2a7a 43bd d46e c03b
00000300: 283e 86b9 e077 233d a4c1 8abb 14c7 06bd
00000310: 5b0d 553c 9ba6 1abe 4b66 2b3d 185b 023e
00000320: 08fa 1bbd 5dfc e43c 9c8e 28bd e515 fb3d
00000330: bf37 a8bd f1c6 2cbd a6e7 2a3e bf88 3d3d
00000340: 7567 a93d 6c3c 413d e94a 083e 7a43 243e
00000350: 4852 28bd c387 cfbd 0cc3 2fbe 2856 8c3c
00000360: 3c8a d33d 82e4 8fbd 7976 d8bd 1265 9d3d
00000370: 957c 5f3d 3334 163e 379c aabd 7272 5dbd
00000380: 55ea 97bd 2139 8fbd 7d83 68bd b0d6 cd3d
00000390: 39c6 46bd 6a5e e8bd 0a90 9d3d 646e fd3c
000003a0: 1e37 80bd b8ba 0ebd 2435 a73d 999b c93c
000003b0: c2c8 5fbc e62d d23b 9276 05bd c673 963d
000003c0: b003 343d 229e 5b3d b30e 8a3d b9a8 1f3d
000003d0: 7e85 c8bd 72f4 a9bd 2138 a83d 0005 cf3d
000003e0: 8c19 60bc 42ee c53d ecce 09bd 0629 54bc
000003f0: bd4f 8dbd 9a8f dfbd 9bfa db3d 20c8 ee3d

bias f4 [84]
-0.06070718 -0.047928076 -0.030850587 -0.023757141 0.004497944 -0.1329401 -0.0006724669 -0.0343972
-0.025282122 -0.05893009 -0.0954323 0.0352743 -0.07987655 -0.08672493 -0.03346762 -0.027101932
-0.0046605086 -0.09913143 0.06967475 -0.039253168 -0.020191431 -0.009535307 -0.05324474 0.013509783
-0.013347291 -0.093389474 0.041314863 0.034356385 -0.05747015 -0.038396195 0.028513119 0.0013507437
0.055251937 0.010792937 0.10549441 -0.033982042 -0.02488099 -0.064416096 -0.0036341904 -0.0419851
0.02783055 0.06378407 -0.077576794 -0.014555498 -0.12014381 0.015583243 -0.031886008 -0.052400023
0.03618605 -0.02751882 -0.04409014 -0.061876807 -0.09618118 0.042528097 -0.051527027 -0.034211367
0.078490995 -0.012012873 -0.049441237 0.10426493 0.10410824 0.047445238 -0.06515255 0.0071148146
-0.09826065 -0.097270094 -0.09042726 0.006041411 -0.07203057 0.06210071 0.027416226 -0.07346448
-0.02965694 -0.090549976 -0.07318895 0.030403964 0.08685209 0.012814073 -0.061905622 -0.08693077
-0.010362097 0.06291894 0.09697557 -0.045010846
00000000: 18a8 78bd 3b50 44bd 5fba fcbc 569e c2bc
00000010: 7d63 933b 7321 08be 7d48 30ba 14e4 0cbd
00000020: 741c cfbc ae60 71bd 0272 c3bd c97b 103d
00000030: 5196 a3bd d79c b1bd 5815 09bd df04 debc
00000040: 2eb7 98bb 6b05 cbbd a3b1 8e3d eec7 20bd
00000050: 8068 a5bc fa39 1cbc 2817 5abd 2358 5d3c
00000060: 99ae 5abc fb42 bfbd c639 293d 48b9 0c3d
00000070: d265 6bbd 5445 1dbd 5894 e93c 700b b13a
00000080: db4f 623d dcd4 303c 740d d83d c130 0bbd
00000090: 38d3 cbbc 96ec 83bd 992b 6ebb 91f8 2bbd
000000a0: e5fc e33c 39a1 823d 95e0 9ebd 2f7a 6ebc
000000b0: f50d f6bd dc50 7f3c e79a 02bd 68a1 56bd
000000c0: d337 143d 266f e1bc dd97 34bd 8972 7dbd
000000d0: a3fa c4bd f131 2e3d 010e 53bd 3821 0cbd
000000e0: e3bf a03d a4d1 44bc e582 4abd da88 d53d
000000f0: b336 d53d f055 423d b36e 85bd 6423 e93b
00000100: e13c c9bd 8b35 c7bd ed31 b9bd 07f7 c53b
00000110: c384 93bd 505d 7e3d fe97 e03c 8c74 96bd
00000120: 1cf3 f2bc 4472 b9bd 17e4 95bd bc11 f93c
00000130: 82df b13d 1ef2 513c c090 7dbd c208 b2bd
00000140: c9c5 29bc a5db 803d 219b c63d 4b5d 38bd

weight f4 [6, 84]
-0.24258828 -0.075395465 0.010908073 -0.113941774 0.18835545 -0.22603463 -0.080279216 -0.17068206
-0.11562157 0.07751734 -0.118398406 -0.17405297 -0.15186308 -0.2241453 -0.24800219 -0.0013798745
-0.21600139 0.24387784 -0.033841465 0.14894533 0.32776448 -0.13946752 0.17214592 0.20673333
0.27052858 -0.33028933 0.17940655 -0.2855915 -0.19743343 0.014675089 0.23758778 -0.16600394
-0.08143186 -0.17314333 0.05405553 -0.14914556 -0.22060393 -0.055582754 -0.20037623 0.25979108
-0.14831676 0.16369946 0.04758766 -0.24390338 -0.20563373 -0.20527297 0.20391184 -0.055979524
-0.09982232 0.084038064 -0.0043234783 -0.16630088 0.27619985 0.24152085 -0.05135914 -0.014905071
0.06356751 0.051073857 -0.27445817 0.12126475 0.22669502 0.21339206 -0.1627729 0.27384624
-0.20670043 0.23658165 0.13618973 -0.1661507 -0.08267386 0.1574375 -0.07063719 -0.021402279
0.0718614 -0.16090149 -0.08761155 0.032827724 0.14379488 0.13335307 0.12187675 0.2656636
-0.24760526 -0.006463209 0.21358995 0.15632334 0.111825585 0.050274067 -0.23972403 0.019282905
0.24734731 -0.27609578 0.16305707 0.055879004 0.23508917 -0.18302338 0.18404032 0.27787083
-0.06920043 -0.012635874 0.06389525 -0.13705276 -0.2775695 -0.046274845 -0.17048061 -0.26511893
-0.13112728 0.2770903 -0.051651962 -0.16700923 0.10856336 0.12135025 -0.29489586 -0.0731292
0.19728334 0.16351329 -0.089054555 0.03500648 0.13567586 0.05779824 0.1369758 0.08521679
0.09681258 0.12635876 0.14899029 0.13065831 -0.30005935 0.11189833 0.2520318 -0.20526478
0.123374715 -0.010693849 0.093568504 0.1529087 0.2553164 -0.08215162 -0.28900853 -0.067838125
-0.11104352 -0.07603198 0.1417815 -0.09494158 0.22621559 -0.13910702 0.0048939604 -0.096556105
-0.27959394 0.044171866 0.19811127 -0.12651907 0.232594 -0.08472728 -0.1877046 0.13570319
-0.09989579 -0.14011885 -0.1389315 0.18120939 0.19652683 0.26922843 0.19048059 0.3069889
-0.09290888 0.10366923 -0.16440012 -0.1665071 0.13520789 0.17979215 -0.29561925 0.2251293
0.1825293 0.018380791 0.16241615 0.24141444 -0.18811402 0.22244401 0.23332183 0.1764003
-0.064558454 -0.22160412 0.25519803 -0.054868326 0.23298456 0.018591996 0.1724245 -0.18363981
0.14070304 -0.16664514 -0.17394717 0.22377494 0.017331306 -0.16434634 0.041855533 0.20274003
-0.16133344 -0.097690105 0.30505314 0.0960216 0.10414248 0.08682647 -0.118705764 0.07365788
0.2413229 -0.18521026 0.23736008 0.09549353 0.046313025 -0.010324867 -0.19621588 -0.08374565
0.19921975 0.22622558 -0.2088047 0.1905566 0.15828569 0.13923062 0.013564742 -0.06461686
-0.1513326 -0.16801348 0.06842897 0.20912835 -0.11825201 -0.09616937 0.21100359 -0.20393848
0.041901805 -0.26489264 -0.12941341 -0.26860526 0.23621577 -0.21592806 0.25735828 0.023982791
-0.18789494 0.012036725 -0.14346124 0.18158488 0.23658091 -0.010175629 -0.23376656 0.26051202
0.06331979 -0.13701332 0.22375506 -0.14689338 -0.18701226 -0.103969164 -0.10038387 0.032246437
-0.14798905 0.005362665 0.24608107 -0.27793175 0.22162437 -0.21073142 -0.1415984 -0.10452695
00000000: 1069 78be f068 9abd c6b7 323c 4e5a e9bd
00000010: 40e0 403e 9f75 67be 6e69 a4bd 47c7 2ebe
00000020: 00cb ecbd 69c1 9e3d dd7a f2bd f13a 32be
00000030: ff81 1bbe 5886 65be 49f4 7dbe e8dc b4ba
00000040: 782f 5dbe 1dbb 793e 599d 0abd 2085 183e
00000050: bfd0 a73e 93d0 0ebe 0547 303e e7b1 533e
00000060: b982 8a3e af1b a9be 5ab6 373e 0d39 92be
00000070: fd2b 4abe c96f 703c 364a 733e f0fc 29be
00000080: bfc5 a6bd 7c4c 31be 5569 5d3d 9db9 18be
00000090: ffe5 61be beaa 63bd 6d2f 4dbe 5603 853e
000000a0: 59e0 17be d5a0 273e 47eb 423d cfc1 79be
000000b0: a691 52be 1433 52be 44ce 503e c94a 65bd
000000c0: a56f ccbd 261c ac3d f7ab 8dbb c74a 2abe
000000d0: 116a 8d3e 3e51 773e f65d 52bd 6634 74bc
000000e0: af2f 823d d232 513d c885 8cbe a759 f83d
000000f0: bd22 683e 7383 5a3e f0ad 26be 9335 8c3e
00000100: 47a9 53be 7642 723e 5275 0b3e 6923 2abe
00000110: ea50 a9bd 4c37 213e 3baa 90bd d553 afbc
00000120: 122c 933d 5cc3 24be af6d b3bd 5d76 063d
00000130: f73e 133e b58d 083e 849a f93d 0f05 883e
00000140: 3c8c 7dbe 54c9 d3bb 53b7 5a3e 3a13 203e
00000150: d004 e53d 2eec 4d3d 377a 75be 2ff7 9d3c
00000160: 9d48 7d3e 6d5c 8dbe 6ff8 263e 62e1 643d
00000170: 37bb 703e 7b6a 3bbe 1175 3c3e 1645 8e3e
00000180: f4b8 8dbd b206 4fbc 83db 823d 8f57 0cbe
00000190: 971d 8ebe b18a 3dbd 7892 2ebe abbd 87be
000001a0: 3b46 06be c8de 8d3e 0291 53bd 7804 2bbe
000001b0: 7856 de3d 7b86 f83d 97fc 96be c3c4 95bd
000001c0: a504 4a3e 0770 273e 3c62 b6bd f462 0f3d
000001d0: 9dee 0a3e d9bd 6c3d 6243 0c3e 2486 ae3d
000001e0: ad45 c63d 3164 013e e990 183e 4bcb 053e
000001f0: 61a1 99be f42a e53d 500a 813e ee30 52be
00000200: e2ab fc3d 4135 2fbc d8a0 bf3d 1994 1c3e
00000210: d5b8 823e 1c3f a8bd edf8 93be b7ee 8abd
00000220: c96a e3bd a8b6 9bbd 2b2f 113e bb70 c2bd
00000230: 0fa5 673e 1272 0ebe 845d a03b 35bf c5bd
00000240: f026 8fbe 8fed 343d aedd 4a3e 378e 01be
00000250: 1f2d 6e3e 7f85 adbd a235 40be c7f5 0a3e
00000260: 2a96 ccbd 517b 0fbe 0f44 0ebe f48e 393e
00000270: 543e 493e 4fd8 893e 580d 433e a62d 9d3e
00000280: 0347 bebd 8950 d43d 8158 28be d680 2abe
00000290: f073 0a3e 6f1b 383e 685b 97be 4c88 663e
000002a0: f6e8 3a3e 5093 963c 6b50 263e 5935 773e
000002b0: f6a0 40be 5dc8 633e ebeb 6e3e 48a2 343e
000002c0: 3937 84bd 31ec 62be 51a9 823e 9cbd 60bd
000002d0: 8193 6e3e 3e4e 983c 0c90 303e 130c 3cbe
000002e0: 7514 103e 06a5 2abe 351f 32be 4225 653e
000002f0: 62fa 8d3c 684a 28be b570 2b3d 159b 4f3e
00000300: 9834 25be c011 c8bd ed2f 9c3e f9a6 c43d
00000310: a748 d53d 14d2 b13d 021c f3bd f1d9 963d
00000320: 5a1d 773e c2a7 3dbe 850e 733e 1d92 c33d
00000330: bab2 3d3d a229 29bc d1ec 48be d782 abbd
00000340: 4300 4c3e aea7 673e e6d0 55be 4521 433e
00000350: a515 223e 7992 0e3e a73e 5e3c d855 84bd
00000360: eff6 1abe ba0b 2cbe 7d24 8c3d be25 563e
00000370: 1c2e f2bd 72f4 c4bd 5311 583e 40d5 50be
00000380: 3aa1 2b3d 02a0 87be f384 04be a186 89be
00000390: 8ce2 713e 3f1c 5dbe 77c4 833e 8f77 c43c
000003a0: 8867 40be af35 453c 81e7 12be 63f1 393e
000003b0: 4442 723e aeb7 26bc 8060 6fbe d561 853e
000003c0: cead 813d 384d 0cbe 0c20 653e 386b 16be
000003d0: 2480 3fbe c9ed d4bd 0f96 cdbd d714 043d
000003e0: 718a 17be 4bb9 af3b adfc 7b3e 124d 8ebe
000003f0: 80f1 623e fac9 57be 2cff 10be 3a12 d6bd

bias f4 [6]
0.101067975 -0.038978588 -0.09509348 0.026189601 -0.011051481 -0.029365856
00000000: bafc ce3d 03a8 1fbd 5fc0 c2bd 938b d63c
00000010: 4511 35bc aa90 f0bc
