202304182124_bestmodel.pt (torch, 436667 bytes, 10 tensors)

weight f4 [6, 3, 5, 5]
0	0xbdd9731e	-0.1061766
1	0x3d883d3c	0.066523045
2	0xbc62c9a6	-0.013842022
3	0x3d91f0e3	0.071260236
4	0xbd533655	-0.051565487
5	0xbdc04396	-0.09387891
6	0xbdab0b79	-0.083517976
7	0x3b343905	0.0027499807
8	0x3dabd9fb	0.08391186
9	0xbcbc4498	-0.022981927
10	0xbdba7643	-0.09104588
11	0x3d2eaa6c	0.042642996
12	0xbd1b3892	-0.037895747
13	0xbd88f9a6	-0.06688242
14	0xbe09d054	-0.13458377
15	0xbdac5750	-0.08415091
16	0x3c2186d3	0.009858805
17	0xbd97f880	-0.074204445
18	0xbcadf4f5	-0.021234969
19	0x3d0f5306	0.034991287
20	0xbdb74fac	-0.08950743
21	0xbe2f0a86	-0.17093858
22	0x3bbe8f77	0.005815442
23	0xbdd3ab3a	-0.10335393
24	0xbdbe4b44	-0.092916995
25	0x3d36dfb0	0.04464692
26	0xbdcc22f9	-0.09967608
27	0x3d85d78b	0.06535252
28	0xbdceb3f7	-0.10092919
29	0xbcef8109	-0.029236333
30	0xbd02a17e	-0.031892292
31	0xbd93b8b3	-0.07212963
32	0x3dbdcf09	0.092680044
33	0x3d5e44a4	0.05426468
34	0x3d5857f5	0.052818257
35	0xbce00525	-0.027346203
36	0x3c16be2c	0.009200614
37	0xbd4d0033	-0.050049018
38	0xbdd73cc0	-0.10509634
39	0x3d77a2a9	0.06045786
40	0x3da98ac7	0.08278423
41	0xbd83a0d5	-0.06427161
42	0xbd224d76	-0.039624654
43	0x3db5951e	0.088663325
44	0xbda334b1	-0.079690345
45	0x3d1752d9	0.036944244
46	0xbe0f37e7	-0.13986169
47	0xbe1fb3df	-0.15595959
48	0x3cd9eaca	0.026601214
49	0x3d24072c	0.040045902
50	0xbd6d0752	-0.05786831
51	0x3dbf8d97	0.09353178
52	0x3cdbd24e	0.02683368
53	0xbd32e6fb	-0.04367731
54	0xbdbab9ca	-0.09117468
55	0xbba7906d	-0.0051136524
56	0x3e3743a4	0.17896897
57	0x3de52b54	0.11189905
58	0x3e1436f2	0.14474085
59	0xbd453820	-0.048149228
60	0x3e29a25e	0.16565844
61	0x3e17f168	0.14838183
62	0x3e1c70b0	0.15277362
63	0x3e0eacdd	0.1393313
64	0x3db16ee2	0.08663727
65	0x3da08919	0.07838649
66	0xbc6e3b12	-0.014540451
67	0x3e0736af	0.13204454
68	0x3df607da	0.12013216
69	0x3da6cc05	0.081443824
70	0xbdabeede	-0.0839517
71	0x3dcaaebb	0.098966084
72	0xbd8eb843	-0.06968739
73	0x3bccb9ac	0.0062477197
74	0x3dd3ac3d	0.10335586
75	0x3d0fcf17	0.035109606
76	0x3d95e20d	0.073185064
77	0x3cb5fa82	0.022214178
78	0x3d126d49	0.035748754
79	0xbe1e7537	-0.15474401
80	0x3d9430bc	0.07235858
81	0x3da4437d	0.08020685
82	0x3b952a5c	0.004552169
83	0xbddfd1f4	-0.10928717
84	0xbdaf0328	-0.08545524
85	0x3d674244	0.05645968
86	0x3dd4172e	0.10355984
87	0xbdb776b0	-0.08958185
88	0x3d945ea1	0.072446115
89	0x3d1615b5	0.036641795
90	0xbd952a6d	-0.07283483
91	0x3bb01bd7	0.0053744125
92	0x3dbd2517	0.0923559
93	0xbd9c4f3f	-0.076323025
94	0x3c34e8d3	0.011041838
95	0x3b4b1229	0.0030986166
96	0xbd9d6de7	-0.07686978
97	0xbd9d8965	-0.076922216
98	0x3d98b7bd	0.0745692
99	0x3d1c1a01	0.038110737
100	0xbdddef39	-0.10836644
101	0x3cad6d83	0.021170383
102	0x3d9f410e	0.0777608
103	0xbe0e26b4	-0.13881952
104	0xbdaa4c16	-0.083152935
105	0x3e056804	0.1302796
106	0x3de0cc47	0.10976463
107	0x3dd00433	0.10157051
108	0xbdd6a130	-0.10479963
109	0xbc9e9cdc	-0.019361906
110	0x3dc501ac	0.096194595
111	0x3da7cdce	0.08193551
112	0x3e1636a9	0.14669289
113	0x3d24bc7f	0.040218826
114	0xbdb93ace	-0.09044419
115	0x3b07c2e4	0.002071553
116	0xbd6f8f0a	-0.058486022
117	0x3d640e8e	0.055677943
118	0x3c1a6b8f	0.009425058
119	0xbda3107c	-0.079621285
120	0x3dea04cc	0.11426696
121	0x3d8fc699	0.07020301
122	0xbcd01afb	-0.02540349
123	0x3d7ef089	0.06224111
124	0x3dd144cb	0.10218199
125	0xbdb456d7	-0.08805626
126	0x3e02a2fd	0.12757488
127	0x3d9f93bb	0.07791849
128	0xbdd6c4e1	-0.104867704
129	0x3cd0edb8	0.025503978
130	0x3cf715b8	0.030161723
131	0x3d8606c5	0.0654426
132	0x3e3e8434	0.18605119
133	0x3e13669e	0.14394614
134	0xbc98b897	-0.018642707
135	0xbb5ab1c3	-0.0033370114
136	0x3e57fb02	0.21091846
137	0x3dd12bde	0.10213445
138	0x3d83ab02	0.064291015
139	0xbdc3b478	-0.09555906
140	0x3d80f975	0.0629758
141	0x3e61f9e2	0.22067979
142	0x3d37f5bd	0.04491209
143	0xb8949a45	-7.085925e-05
144	0xbd13add3	-0.036054444
145	0x3dac4e00	0.08413315
146	0x3dffc7a0	0.12489247
147	0x3dc20a5b	0.094746314
148	0x3de31356	0.110876724
149	0xbbde07a3	-0.0067758127
150	0xbcdd8759	-0.027042078
151	0x3ba37e02	0.0049893865
152	0xbc8c7631	-0.017146202
153	0x3d4b39bd	0.04961561
154	0xbdb44fa4	-0.08804253
155	0x3d2a20a4	0.041535035
156	0xbd21b1ae	-0.03947609
157	0xbd9ee32f	-0.077581756
158	0x3dc3d3f2	0.0956191
159	0xbb9b71e8	-0.0047438033
160	0x3b29c904	0.0025907168
161	0x3dd57f22	0.10424639
162	0x3c1e1f5f	0.009651034
163	0xbda0837c	-0.07837579
164	0x3c2cb467	0.010541058
165	0x3e21c635	0.15798266
166	0x3d3e72f3	0.046496343
167	0x3e1f1bb9	0.15537919
168	0x3dcacc93	0.09902301
169	0x3dde3d5e	0.108515486
170	0x3e027e60	0.1274352
171	0x3de50c91	0.111840375
172	0x3e3a2743	0.1817904
173	0x3e303537	0.172078
174	0x3cdb66de	0.02678245
175	0xbd808769	-0.062758274
176	0x3b9d59b8	0.004801955
177	0xbe13196f	-0.14365171
178	0xbe046c86	-0.12932023
179	0xbe297975	-0.16550238
180	0x3cdff7b0	0.027339786
181	0x3b87a10f	0.0041390727
182	0x3d3b54d2	0.045735188
183	0xbd3637ef	-0.044486936
184	0xbdf5c79c	-0.12000963
185	0x3d3a209f	0.045441266
186	0x3d1d3d90	0.03838879
187	0x3d91b119	0.07113857
188	0xbc9e4f1a	-0.019324828
189	0x3d106989	0.035256896
190	0x3e03823b	0.12842648
191	0x3e4bc75d	0.1990027
192	0x3df4effc	0.11959836
193	0x3d3d12c2	0.046160467
194	0x3be9efd2	0.0071391845
195	0x3b53e24c	0.0032330928
196	0x3e643f59	0.2228979
197	0x3e3d7897	0.18503033
198	0x3d044088	0.032288104
199	0x3e0c0e21	0.13677265
200	0xbe0aa727	-0.13540326
201	0xbe23b1c5	-0.15985782
202	0xbe1be97b	-0.15225784
203	0xbcd124e8	-0.025530294
204	0xbce62971	-0.028095933
205	0xbd678b39	-0.056529257
206	0x3da3e314	0.08002296
207	0xbd9d6576	-0.07685368
208	0xbd25d88e	-0.040489726
209	0xbdac69ac	-0.08418593
210	0xbd4d416b	-0.050111216
211	0xbc7fa13d	-0.015602407
212	0x3dcdff91	0.10058511
213	0x3d310a35	0.043222625
214	0x3b2fee82	0.0026845043
215	0x3d420df9	0.047376607
216	0x3e2c8260	0.16846609
217	0x3dc3b161	0.09555317
218	0x3c5ec264	0.013596151
219	0x3d8dc0b3	0.0692152
220	0x3da15f94	0.07879558
221	0xbcfbeb3e	-0.03075182
222	0x3e37aca9	0.17936958
223	0x3e1c0e45	0.15239818
224	0xbc8fd476	-0.017557364
225	0xbdb26189	-0.087100096
226	0x3d6eceb8	0.05830261
227	0x3c04f9b3	0.008116174
228	0x3dc6d429	0.09708435
229	0x3b5e4bc4	0.0033919672
230	0x3d20a3ed	0.03921883
231	0xbd1705ef	-0.036870893
232	0x3caa5c6f	0.020796029
233	0xbd278a3f	-0.040903326
234	0xbd2e283d	-0.042518843
235	0x3cacfcbe	0.02111661
236	0x3d382c09	0.04496387
237	0xbd445699	-0.04793415
238	0xbdec35fe	-0.11533736
239	0xba568237	-0.00081828557
240	0x3d28dedc	0.04122816
241	0x3db60269	0.088871785
242	0x3ccfc1e4	0.025361009
243	0xbdbbb32b	-0.09165033
244	0xbd8ecfe2	-0.06973244
245	0xbd90837f	-0.07056331
246	0xbd13e0f3	-0.0361032
247	0x3d05c659	0.032659862
248	0x3d1d47dc	0.03839861
249	0x3d3ba818	0.045814604
250	0xbe125028	-0.1428839
251	0xbe107555	-0.14107259
252	0xbde4b24d	-0.11166821
253	0xbe0fbf10	-0.14037728
254	0xbe043d7c	-0.1291408
255	0x3cded861	0.027202787

bias f4 [6]
0	0x3dddd1fd	0.10831068
1	0xbbba7bd1	-0.0056910296
2	0xbd333c0c	-0.043758437
3	0xbd36d5ce	-0.044637494
4	0xbdf2aada	-0.118489936
5	0x3d914433	0.07093086

weight f4 [16, 6, 5, 5]
0	0xbc7e12bb	-0.015507395
1	0xbe0380d4	-0.12842113
2	0xbe03fdd4	-0.12889796
3	0xbdbdad1d	-0.09261534
4	0x3b43a62b	0.0029853682
5	0xbdbfaa52	-0.09358658
6	0xbdf5a530	-0.11994398
7	0xbe07d6bc	-0.13265508
8	0xbe182d64	-0.14861065
9	0xbcd30ddb	-0.025763443
10	0xbdb0abee	-0.08626543
11	0xbe2f77ed	-0.17135592
12	0xbda01556	-0.078165695
13	0xbe18bae2	-0.1491504
14	0xbe1e0d48	-0.15434754
15	0xbd90b652	-0.07066025
16	0xbdb0231d	-0.08600447
17	0xbb95b86b	-0.0045691035
18	0xbdcff94d	-0.10154972
19	0xbd3f1c7d	-0.046658028
20	0xbdd4b17d	-0.10385416
21	0xbd1ff5ca	-0.039052762
22	0xbd3316ec	-0.043723032
23	0xbdc59ce9	-0.09649069
24	0xbd636a61	-0.055521373
25	0xbd0a08ef	-0.033699926
26	0xbd88d802	-0.06681825
27	0xbdb7ea64	-0.08980253
28	0xbbd4ac01	-0.006490231
29	0x3c64cec9	0.013965317
30	0xbe0d3757	-0.13790642
31	0xbd9307ba	-0.07179208
32	0xbd60c4d2	-0.054875202
33	0xbdf2a81e	-0.11848472
34	0xbdd579fa	-0.10423656
35	0xbdd276dd	-0.102765776
36	0xbccf3277	-0.025292618
37	0xbb12510a	-0.0022326135
38	0x3b9f5af5	0.004863138
39	0xbe1aaca9	-0.15104927
40	0xbcc2558d	-0.023722434
41	0x3cbc6cd8	0.02300112
42	0xbd535101	-0.051590923
43	0x3cb1ae86	0.021689665
44	0xbda9c7b0	-0.082900405
45	0xbd886df9	-0.066616006
46	0xbdc15fea	-0.09442122
47	0x3c56949c	0.013096955
48	0x3d3aa14e	0.04556399
49	0x3ce753fa	0.028238285
50	0xbdc82ce7	-0.097741894
51	0xbe0812bd	-0.13288398
52	0xbe0563ba	-0.13026324
53	0xbd52a8cf	-0.05143052
54	0xbd8fa4c7	-0.07013851
55	0xbdbc14c4	-0.09183648
56	0xbd498f09	-0.049208675
57	0xbd96c54d	-0.07361851
58	0xbd8ced77	-0.0688123
59	0xbc18f531	-0.009335802
60	0xbd7cff8a	-0.06176714
61	0xbdc04c11	-0.093895085
62	0x3b9860e4	0.004650222
63	0xbd801bc6	-0.06255297
64	0xbd61a9da	-0.055093624
65	0xbd4237b0	-0.04741639
66	0xbd57e094	-0.05270441
67	0x3c80bfee	0.01571652
68	0x3cb68d43	0.022284156
69	0x3c280113	0.010254162
70	0xbd12ed70	-0.03587097
71	0x3c84d7da	0.016216207
72	0xbd5f4fc8	-0.054519445
73	0x3d42973a	0.047507502
74	0x3b8edc56	0.004359762
75	0x3c2f208b	0.010688911
76	0x3bc606c6	0.006043288
77	0x3e02940c	0.12751788
78	0x3dc50355	0.09619776
79	0x3c2b668e	0.010461463
80	0x3e0f08eb	0.13968246
81	0x3d59adf7	0.05314442
82	0x3e47be17	0.19506107
83	0x3d10c9c3	0.035348665
84	0x3dd1389b	0.10215875
85	0x3d1b5ddc	0.03793131
86	0x3dd5bed2	0.10436787
87	0x3e14a23d	0.14515014
88	0x3e05b40d	0.13056965
89	0x3dfdfc46	0.12401633
90	0x3db982d2	0.09058155
91	0x3e023cc6	0.12718496
92	0x3db1e335	0.086859144
93	0x3d81c8c9	0.06337125
94	0x3d7b4af3	0.061350774
95	0x3d3b890b	0.04578499
96	0x3daebe00	0.085323334
97	0x3d1f3875	0.0388722
98	0x3d7b8443	0.06140543
99	0x3d85a32f	0.065252654
100	0xbdc0c0c0	-0.09411764
101	0x3d6bb6bd	0.05754732
102	0xbd4f0ef1	-0.05055136
103	0x3db6f2f1	0.08933056
104	0x3daa3759	0.08311338
105	0x3cd9ea3f	0.026600955
106	0x3d974a87	0.07387262
107	0x3d2f06fe	0.042731278
108	0x3d738e4c	0.059461877
109	0x3d82aec7	0.063809924
110	0xbaefed9d	-0.0018305067
111	0x3cb72987	0.022358669
112	0x3d8cef3d	0.068815686
113	0x3b883ce0	0.0041576475
114	0x3da3d22b	0.07999071
115	0x3cfab56d	0.030604089
116	0x3b961d08	0.0045810975
117	0x3deeb10b	0.11654862
118	0x3d61c696	0.055121027
119	0x3e0038a9	0.12521614
120	0x3d38d97e	0.04512929
121	0x3cfc5789	0.030803459
122	0xbbfd29c2	-0.007725925
123	0xbd5b71d5	-0.053575356
124	0xbd01f470	-0.031727254
125	0xbdb3564c	-0.08756694
126	0x3c29dd21	0.010367663
127	0xbd72f32b	-0.059313934
128	0xbdacf512	-0.08445181
129	0xbda5b715	-0.08091561
130	0xbcefbe39	-0.02926551
131	0xbde3a779	-0.11115927
132	0xbd0a0b1d	-0.033702005
133	0xbd6cf4db	-0.0578507
134	0xbbafcc86	-0.0053649573
135	0x3c5e9d18	0.013587259
136	0xbe2a5803	-0.16635136
137	0xbe0cfeb1	-0.13769032
138	0xbdfb7630	-0.12278402
139	0xbce8acc1	-0.028402688
140	0xbd22dc31	-0.039760772
141	0xbcfbe58f	-0.03074911
142	0xbdc69f32	-0.09698333
143	0xbdf33af3	-0.11876478
144	0xbd5467d3	-0.051856827
145	0xbc153764	-0.009107444
146	0xbdaabb29	-0.08336479
147	0xbcb4f266	-0.02208824
148	0xbd8b1797	-0.06791609
149	0xba504fa1	-0.0007946436
150	0xbb976bbb	-0.004620997
151	0x3b8a26d6	0.0042160554
152	0xbdab90c7	-0.083772235
153	0x3c6d68ec	0.014490347
154	0xbd39ad9b	-0.04533158
155	0x3da6e5ef	0.08149325
156	0xbd211f32	-0.03933639
157	0x3d27c13b	0.040955763
158	0xbc611efc	-0.013740297
159	0xbcf4a9e5	-0.029866168
160	0x3d5fb757	0.054618206
161	0xbcd11f81	-0.025527718
162	0x3dfeb6b5	0.12437192
163	0x3df05571	0.11735047
164	0xbd3b3e8b	-0.045713942
165	0xbd0919dc	-0.033471927
166	0x3d477fd0	0.048705876
167	0x3db329a4	0.08748177
168	0x3e11ff50	0.1425755
169	0x3d57d8dd	0.05269705
170	0x3d9f5f72	0.077818766
171	0x3da4e55e	0.08051561
172	0x3da0c54c	0.078501314
173	0xbca6684f	-0.02031341
174	0x3dbd6ad2	0.0924889
175	0xbda75e05	-0.0817223
176	0x3bdb16e0	0.0066860765
177	0x3d9bf269	0.076145954
178	0x3d177310	0.036974967
179	0x3d73f762	0.059562095
180	0x3bce3fc8	0.0062942244
181	0x3d9552a7	0.07291155
182	0x3de509fd	0.11183546
183	0x3ddc2005	0.10748295
184	0x3b7bba80	0.0038410723
185	0x3d084fbb	0.033279162
186	0xbcef86a8	-0.029239014
187	0x3c1de77f	0.0096377125
188	0x3dce3234	0.10068169
189	0x3c773c5b	0.015090073
190	0x3cf04325	0.029328892
191	0x3de9fcda	0.11425181
192	0x3cd7b219	0.02633004
193	0x3d7fd05f	0.062454578
194	0x3d07dae6	0.033167742
195	0x3d3e2c00	0.04642868
196	0x3c8f79e2	0.017514173
197	0x3db39f1f	0.08770584
198	0x3d0c5885	0.034264106
199	0x3dff2b2c	0.12459406
200	0xbd1f694a	-0.03891877
201	0xbd042b6b	-0.03226797
202	0xbb5f559a	-0.0034078122
203	0x3d9e3051	0.077240594
204	0xbc66aef6	-0.0140798
205	0x3dc14cc2	0.094384685
206	0x3d51a258	0.051180214
207	0x3d589e91	0.052885596
208	0x3d4eda91	0.05050141
209	0x3ddd3603	0.108013175
210	0x3d4796a1	0.048727635
211	0x3daa42fd	0.08313558
212	0x3cfed121	0.03110558
213	0x3d612d00	0.054974556
214	0x3d99a6d3	0.07502522
215	0x3d56c4db	0.05243383
216	0x3e2ca92f	0.16861413
217	0x3dd3b6ef	0.10337626
218	0x3e1dc107	0.15405665
219	0x3d49d1a3	0.04927219
220	0x3e18ac43	0.14909463
221	0x3e10f6e9	0.14156689
222	0xbd4e61b8	-0.05038616
223	0x3d23a674	0.039953664
224	0x3e12e2a7	0.14344274
225	0xbd474949	-0.048653875
226	0x3c853104	0.016258724
227	0xbdb95a16	-0.09050386
228	0xbdb76e71	-0.08956612
229	0xbbccd7f5	-0.00625133
230	0xbd94a5bd	-0.072581746
231	0xbdfe4ebd	-0.12417362
232	0xbc193c66	-0.009352779
233	0x3c0b4963	0.0085013835
234	0xbde7a7c0	-0.11311293
235	0x3cd51883	0.026012665
236	0xbda495fd	-0.080364205
237	0xbe008915	-0.12552293
238	0xbe288808	-0.16458142
239	0xbdf1b17a	-0.11801429
240	0xbdbabe77	-0.091183595
241	0xbe31ee8a	-0.17376152
242	0xbe40073f	-0.18752764
243	0xbdd5b5ac	-0.10435042
244	0xbda8d827	-0.08244353
245	0xbd916330	-0.07098997
246	0xbd609ff0	-0.05484003
247	0xbcc02c08	-0.023458496
248	0xbd9d8633	-0.07691612
249	0xbe100562	-0.14064553
250	0xbbc68c1a	-0.006059182
251	0xbbfad482	-0.0076547274
252	0x3da41141	0.080111034
253	0xbcfef6ac	-0.031123482
254	0xbd44839b	-0.04797707
255	0x3d7d1ee7	0.06179705

bias f4 [16]
0	0x3d120ead	0.035658527
1	0x3d9a0086	0.07519631
2	0xbd59902f	-0.05311602
3	0xbdd2386b	-0.10264667
4	0xbcc2c7a3	-0.023776835
5	0x3d44d4a7	0.048054364
6	0x3e03bc2d	0.12864752
7	0x3c486e8f	0.0122333905
8	0xbda76d09	-0.08175094
9	0xbd511bee	-0.051052026
10	0xbdbce376	-0.09223072
11	0xbd9c8f1d	-0.07644484
12	0x3bc45cb5	0.005992497
13	0x3d834e94	0.06411472
14	0xbd272bf1	-0.04081339
15	0x3d8ada57	0.06779926

weight f4 [120, 16, 7, 7]
0	0xbcc05708	-0.023479
1	0xbc37a25a	-0.011208141
2	0xbc65fd52	-0.014037447
3	0xbd2c31e2	-0.04203976
4	0xbd0e047c	-0.034672245
5	0xbcb9e372	-0.022691462
6	0xbbba95d1	-0.005694129
7	0xbc6ecd9d	-0.014575389
8	0xbd477586	-0.048696063
9	0xbccf09fc	-0.025273316
10	0xbd63165f	-0.055441257
11	0xbd22cc62	-0.039745696
12	0xbb825df9	-0.0039784876
13	0xbc8e33f3	-0.017358756
14	0xbd375045	-0.044754285
15	0xbbbce1d4	-0.0057642255
16	0xbd3abba0	-0.04558909
17	0xbca79172	-0.020455096
18	0xbc852f2c	-0.016257845
19	0xbb4d5256	-0.0031329594
20	0xbc102824	-0.008798633
21	0x3b9445ec	0.004524937
22	0xbd2f9b28	-0.042872578
23	0xbd6d8554	-0.05798848
24	0xbab75896	-0.0013988193
25	0x3ca9a224	0.020707197
26	0x3d244e24	0.040113583
27	0x3c6919b7	0.014227322
28	0x3cadf3cf	0.021234421
29	0x3c9ef1cf	0.019402413
30	0xbd2d4473	-0.042301606
31	0x3cb2eb1d	0.021840626
32	0xbc67529e	-0.014118819
33	0x3d07b9b0	0.03313607
34	0x3c9d2b8a	0.0191858
35	0xbd0cbd3c	-0.034360155
36	0xba718687	-0.00092134665
37	0xbd2730b3	-0.040817928
38	0x3c5e8d48	0.013583489
39	0xbc5a2b34	-0.0133159645
40	0xbb60afe7	-0.0034284533
41	0xbccee008	-0.02525331
42	0x3c8c90f1	0.017158957
43	0xbc20845d	-0.009797183
44	0xbbbe9eff	-0.0058172937
45	0xbc3b8fb5	-0.011447837
46	0xbd999fd6	-0.075011894
47	0xbb4b73de	-0.0031044404
48	0xbdaf9196	-0.0857269
49	0xbbc4a366	-0.006000924
50	0x3c596be2	0.01327035
51	0x3cc12b15	0.023580113
52	0x3d6c39a4	0.057672158
53	0xbc006b8d	-0.007838142
54	0x3c230a22	0.009951146
55	0xbd0605c6	-0.03272035
56	0x3d64c7e6	0.0558547
57	0x3d2d0f2b	0.042250793
58	0x3c9f87d2	0.019473944
59	0x3ce91a40	0.0284549
60	0x3d7886da	0.06067548
61	0x3c8e117a	0.017342318
62	0xbc473985	-0.01215971
63	0x3d0b55f3	0.034017514
64	0x3cfc2425	0.030778954
65	0x3be1567f	0.006876766
66	0xbc0e85d4	-0.008698899
67	0x3b7ab8c0	0.0038257092
68	0xbcf588df	-0.029972492
69	0x3b304372	0.002689567
70	0x3cbc6594	0.022997655
71	0x3d09399c	0.033502206
72	0x3aa328b8	0.0012448048
73	0xbb049131	-0.0020228142
74	0xbd019c86	-0.031643413
75	0xbd411aaa	-0.04714457
76	0xbcfc5f43	-0.030807143
77	0x3cbe0059	0.023193525
78	0x3d0dc4bd	0.034611452
79	0x3d3c7b5a	0.046016075
80	0x3afa6391	0.001910316
81	0x3c76f884	0.015073899
82	0xbd3b6d63	-0.045758616
83	0xbc89eafd	-0.016835684
84	0x3c230498	0.009949826
85	0x3cdbe475	0.026842335
86	0x3c1c8159	0.009552323
87	0x3b7df131	0.0038748498
88	0xbb7f4c8b	-0.0038955535
89	0xbd083e6d	-0.03326266
90	0xbc78b040	-0.01517874
91	0xbd810e21	-0.06301523
92	0xbd6927de	-0.056922786
93	0xbd0b4f90	-0.034011424
94	0xbd084d46	-0.03327682
95	0x3d6982f7	0.057009663
96	0x3c87488f	0.01651409
97	0x3d8e22b3	0.06940212
98	0x3b80dd56	0.0039326353
99	0xbd1e16f6	-0.038596116
100	0xbc585ac3	-0.013205233
101	0xbb8d8a2f	-0.0043194513
102	0x3c1899c9	0.009314009
103	0xbbf270cf	-0.0073987017
104	0x3d0f0531	0.03491706
105	0x3cabd3b7	0.020974977
106	0x3d11dd48	0.03561142
107	0x3c5a7902	0.013334515
108	0x3ccc0438	0.024904355
109	0xbc97c535	-0.018526653
110	0xbb5183bf	-0.0031969396
111	0x3c86d1fc	0.01645755
112	0x3b97471f	0.0046166326
113	0x3d02f46d	0.031971384
114	0x3cc185bc	0.02362334
115	0xbbe4a6b8	-0.0069778822
116	0x3d52c2ef	0.051455434
117	0xbd8a0817	-0.06739824
118	0xbd4d68d6	-0.050148807
119	0x3cba6be8	0.022756532
120	0x3d9436ab	0.072369896
121	0x3d33ea73	0.04392476
122	0xbd02cfed	-0.031936575
123	0xbd4b07ff	-0.049568173
124	0xbc2e168b	-0.010625492
125	0xbc9c9c23	-0.01911742
126	0x3d295a13	0.041345667
127	0x3ac8cbaa	0.0015319486
128	0xbd4d862f	-0.050176796
129	0xbce97001	-0.02849579
130	0xbb20fc6e	-0.0024564522
131	0x3aa67829	0.0012700605
132	0x3d0ccee1	0.034376983
133	0xbc4dda30	-0.012564227
134	0x3ac0c0e9	0.0014705929
135	0x3cabf4c3	0.020990735
136	0xbd3458bd	-0.04402994
137	0x3cf31603	0.029673582
138	0x3d75d93c	0.060021624
139	0x3d0d0108	0.03442481
140	0xbcec7c65	-0.02886791
141	0xbd2deb85	-0.042460937
142	0xbbbfec13	-0.0058569997
143	0xbb9023e2	-0.004398809
144	0x3d5c05db	0.05371652
145	0xbcb5121d	-0.022103364
146	0xbcd6ab4c	-0.026204728
147	0x3d0ffb55	0.0351518
148	0x3d6742fe	0.056460373
149	0x3cb5464f	0.022128252
150	0xbd2a3e9d	-0.04156362
151	0xbd543474	-0.051807836
152	0xbc72ccbf	-0.014819323
153	0xbc6f48f8	-0.014604799
154	0x3c99fabf	0.018796323
155	0x3c89fd3a	0.01684438
156	0x3c8daecc	0.017295264
157	0xbd1ce0f4	-0.03830047
158	0xbb2a9dac	-0.0026033921
159	0x3b2e3228	0.0026580188
160	0xbc00e9a4	-0.007868204
161	0xbcad3997	-0.021145625
162	0xbcbf275a	-0.023334194
163	0xbdaf4059	-0.08557195
164	0xbd07b3ec	-0.03313057
165	0xbd2aa490	-0.041660845
166	0xbc2d4ec7	-0.010577864
167	0xbc381e5d	-0.011237708
168	0xbd6f54db	-0.058430534
169	0x3bc64a5a	0.006051344
170	0xbd5acbd1	-0.05341703
171	0xbd125e02	-0.035734184
172	0x3cdee802	0.02721024
173	0x3cd73afc	0.026273243
174	0x3d909c5c	0.07061073
175	0x3d330961	0.043710116
176	0x3bf936ad	0.007605395
177	0xbcff0ca0	-0.03113395
178	0x3d4264b5	0.047459323
179	0x3d1953ad	0.037433315
180	0xbc261428	-0.010136642
181	0x3d9587d4	0.07301298
182	0xbd8f92e1	-0.07010437
183	0xbcac2f19	-0.021018552
184	0x3ca9c9b5	0.020726064
185	0x3d3139ab	0.043267887
186	0x3d6c8f63	0.05775393
187	0x3d7856d2	0.060629673
188	0x3da16b7e	0.07881831
189	0xbcf5970f	-0.029979257
190	0x3c979b85	0.018506775
191	0x3c580707	0.013185269
192	0x3bd960d7	0.0066338587
193	0x3aedd28f	0.0018144416
194	0xbbd2d5b9	-0.006434169
195	0xbc655952	-0.013998346
196	0x3cabd3f7	0.020975096
197	0xbc189b57	-0.00931438
198	0xbbd97538	-0.006636288
199	0xbc9333b7	-0.017968995
200	0x3cbbb642	0.022914056
201	0xbd113a27	-0.03545585
202	0x3d003d0c	0.03130822
203	0xbcc3531f	-0.023843346
204	0xbd74949e	-0.059712045
205	0xbcca3afa	-0.024686325
206	0xbd84ff70	-0.06494033
207	0xbd039196	-0.032121263
208	0xbb71acf1	-0.0036876763
209	0x3cc75f03	0.024337297
210	0xbcd52ea5	-0.026023218
211	0xbd033b68	-0.032039076
212	0xbd691f79	-0.05691478
213	0xbcff80a3	-0.031189268
214	0xbd1bcd0a	-0.038037337
215	0x3d520b98	0.051280588
216	0x3d83c918	0.0643484
217	0xbd1ddb4e	-0.038539223
218	0xbce34fd8	-0.027748033
219	0xbc469273	-0.012119877
220	0x3d9acf13	0.075590275
221	0x3c0d4b52	0.008623915
222	0x3cbec45d	0.023286993
223	0x3d2063f7	0.039157834
224	0xbcb80023	-0.022461003
225	0x3b931d85	0.004489603
226	0xbb9a75b3	-0.004713738
227	0x3d62e545	0.05539443
228	0x3d5ba92a	0.053628124
229	0x3bb16228	0.0054133125
230	0x3c970ef3	0.018439746
231	0x3c4ec631	0.012620495
232	0x3c75ab97	0.0149945235
233	0x3c6513df	0.013981788
234	0x3c4d5709	0.012532958
235	0xbd292812	-0.04129798
236	0xbd294f1b	-0.041335206
237	0xbc98ea8e	-0.018666532
238	0x3d28349f	0.04106581
239	0x3d319d00	0.043362617
240	0x3d1ff0e9	0.03904811
241	0x3cd4a102	0.02595568
242	0xbd82519c	-0.06363222
243	0xbc4deca8	-0.01256863
244	0xbc7e0a25	-0.015505348
245	0x3c1d14ed	0.009587509
246	0x3d40c07e	0.047058575
247	0x3b488add	0.0030600347
248	0xbcb167cc	-0.02165594
249	0x3cfba1ac	0.03071674
250	0x3c26b41e	0.010174779
251	0x3c8d8acf	0.017278103
252	0x3d278ce6	0.040905856
253	0x3d1cb814	0.038261488
254	0xbb31d149	-0.00271328
255	0xbcc1dd94	-0.023665227

bias f4 [120]
0	0xbc9e99ea	-0.019360501
1	0x3c1382c6	0.009003347
2	0x3d04729a	0.032335855
3	0xbb9e2a45	-0.0048268163
4	0x3cc69ac7	0.024243725
5	0xbcee6547	-0.029101027
6	0x3c61e7ba	0.013788158
7	0xbc49e94f	-0.0123236915
8	0xbc05a9c9	-0.008158156
9	0x3c427154	0.01186784
10	0x3ce57c04	0.028013237
11	0x3ba1a306	0.004932764
12	0x3be1e084	0.0068932194
13	0xbc308bd9	-0.01077553
14	0xbccd7bb8	-0.025083408
15	0xbd13a55e	-0.03604638
16	0xbcb4be32	-0.022063348
17	0xbce1d436	-0.02756701
18	0x3ca4b29d	0.0201047
19	0x3b230230	0.002487313
20	0xbcd5b84e	-0.02608886
21	0x3c45d01c	0.012073543
22	0x3cbe96ae	0.023265209
23	0xbd09bd17	-0.033627596
24	0x3b40e261	0.0029431807
25	0xbcb0fd68	-0.021605209
26	0xbce938ef	-0.02846953
27	0x3bc58790	0.006028123
28	0x3c04c5e9	0.008103826
29	0xbbe50976	-0.006989653
30	0x3c6d8847	0.014497823
31	0x3c205fcc	0.009788465
32	0x3bef5ece	0.007305003
33	0x3d014afa	0.031565644
34	0xbd253320	-0.04033196
35	0x3cf77e71	0.03021166
36	0xbc9c5598	-0.019083783
37	0x3b6366c5	0.0034698707
38	0x3c130ade	0.008974759
39	0xbc98fbb1	-0.018674703
40	0x3bb626f8	0.0055588447
41	0xbd0be37f	-0.034152504
42	0x3d081e24	0.03323187
43	0xbb443bed	-0.0029942945
44	0xbc8b4b8d	-0.017003799
45	0x3cec1525	0.028818676
46	0x3cce4a60	0.02518195
47	0xbc7ad10b	-0.015308629
48	0xbcde4ae7	-0.027135326
49	0xbbe1353a	-0.0068728
50	0xbc7376f0	-0.0148599
51	0xbc4db9ef	-0.012556537
52	0xbd058d63	-0.03260554
53	0xbcc8bbd2	-0.024503622
54	0xbbc78be1	-0.006089673
55	0x3c1b8bfd	0.009493825
56	0x3cd4ebe4	0.025991388
57	0xbb1e1a6c	-0.0024124635
58	0xbcd8a62d	-0.026446426
59	0xba6a2f28	-0.00089334184
60	0x3c89be86	0.016814481
61	0xbca1d75f	-0.019756017
62	0xbc87c355	-0.016572634
63	0xbcb8472a	-0.022494871
64	0x3cb101d0	0.02160731
65	0xbbff9f83	-0.0078009977
66	0xbcf8f5ad	-0.030390585
67	0x3c687109	0.014187106
68	0xbcc85800	-0.024456024
69	0xbd0ca23d	-0.03433441
70	0x3d1d464b	0.038397115
71	0x3c96f359	0.018426584
72	0xbce07e7c	-0.027404062
73	0xbd1889ef	-0.03724092
74	0xbd0affb6	-0.03393527
75	0xbb9536da	-0.004553658
76	0x3cac057b	0.020998707
77	0xbd08d4c0	-0.03340602
78	0x3cfb6966	0.030689906
79	0x3b84cd8f	0.004052825
80	0xbcca18ca	-0.024670023
81	0xbd0548a8	-0.032539994
82	0xbada394a	-0.0016649154
83	0xbbf194e7	-0.007372487
84	0xbcba6ecc	-0.02275791
85	0x3c81ab33	0.015828704
86	0xbd04c1fc	-0.03241156
87	0x3cb9bc0a	0.022672672
88	0xbb1ced42	-0.0023945128
89	0xbc06a35a	-0.008217657
90	0x3d05a69f	0.032629605
91	0x3c918771	0.017764779
92	0x3cdc076f	0.026859013
93	0x3c1317c2	0.008977832
94	0xbc533bf2	-0.01289271
95	0xbc579959	-0.0131591195
96	0xbd29f0e2	-0.04148949
97	0xbcdae381	-0.02671981
98	0xbc76bdaa	-0.015059868
99	0xbc245068	-0.010028936
100	0x3c4e8f74	0.012607444
101	0x3d16b203	0.03679086
102	0xbc2f0c27	-0.01068405
103	0xbcf13983	-0.029446369
104	0xbcaf8801	-0.021427156
105	0xbcac572d	-0.021037662
106	0xbb474a0f	-0.0030409133
107	0xbbe946f9	-0.0071190563
108	0x3ca62880	0.020282984
109	0x3d0cd9ff	0.034387585
110	0x3cf24471	0.029573651
111	0x3d47e23a	0.04879973
112	0x3cb4463d	0.022006148
113	0x3c9298aa	0.017895062
114	0xbcaf67b8	-0.021411762
115	0xbc72366f	-0.014783486
116	0xbc8f20b0	-0.017471641
117	0x3b9c7571	0.0047747423
118	0x3ce96fbd	0.028495664
119	0xbd0ee979	-0.034890626

weight f4 [84, 120]
0	0xbcb9dd80	-0.022688627
1	0xbe1afd9f	-0.15135811
2	0x3e2b50e0	0.1673007
3	0xbba16a82	-0.004926027
4	0xbd2e51f4	-0.042558625
5	0x3d81a25c	0.06329796
6	0xbb81ab56	-0.0039571924
7	0x3e60ea5c	0.21964401
8	0xbd07c8db	-0.033150535
9	0xbcdd7486	-0.027033102
10	0xbd75d550	-0.060017884
11	0xbdf6a978	-0.12044042
12	0x3d0f0ca1	0.034924153
13	0x3d8204c7	0.063485675
14	0xbdb412bb	-0.08792635
15	0xbe1e45be	-0.15456292
16	0xbd51bbb8	-0.051204413
17	0x3cf66382	0.030076746
18	0xbe118ead	-0.14214583
19	0xbccb4ffd	-0.024818415
20	0x3d3ff8bc	0.04686807
21	0x3cacb040	0.021080136
22	0xbd351528	-0.04420963
23	0xbc96e37d	-0.018419022
24	0xbdc9c368	-0.09851724
25	0xbddb84e4	-0.10718706
26	0xbd902db2	-0.07039966
27	0xbd97c989	-0.07411487
28	0xbd267ca2	-0.040646203
29	0x3d060da3	0.03272785
30	0xbdf17926	-0.11790685
31	0xbd996642	-0.07490207
32	0xbd16fff2	-0.036865182
33	0x3d760552	0.060063668
34	0xbcc6332d	-0.024194324
35	0xbcb60184	-0.02221752
36	0x3dca6ffa	0.09884639
37	0x3e11ffe3	0.1425777
38	0x3d26a357	0.040683117
39	0xbc731067	-0.014835454
40	0xbb98e9bb	-0.0046665347
41	0xbdd8581c	-0.105636805
42	0xbcfdcd0c	-0.030981563
43	0x3db05eb4	0.08611813
44	0x3df10481	0.11768437
45	0x3cbdf220	0.023186743
46	0xbd8ea390	-0.06964791
47	0xbe188de2	-0.14897874
48	0x3c208df8	0.009799473
49	0xbc99ed32	-0.018789861
50	0x3d36e56e	0.044652395
51	0xbd827824	-0.06370571
52	0xbd5a1bca	-0.053249158
53	0xbd86f7ad	-0.06590209
54	0xbc3a4bd9	-0.011370623
55	0x3d314eab	0.043287914
56	0xbe1d34de	-0.15352198
57	0x3d5bc25a	0.053652145
58	0xbdbc5477	-0.09195798
59	0x3c21041d	0.009827641
60	0x3e244690	0.16042542
61	0xbd55db76	-0.052211247
62	0xbdb178d4	-0.08665624
63	0xbd8c3c2b	-0.06847414
64	0x3da611b5	0.08108846
65	0xbdafde75	-0.08587352
66	0x3dd4dac5	0.103932895
67	0x3de1281a	0.10993977
68	0x3c2232e1	0.009899826
69	0xbde73bec	-0.11290726
70	0x3d7f39d3	0.062311005
71	0x3d004c2f	0.031322654
72	0x3c3a3fe8	0.0113677755
73	0x3d0c99e9	0.034326468
74	0xbdd6860e	-0.10474788
75	0x3ce1fd00	0.02758646
76	0xbd99f81f	-0.075180285
77	0x3c93870a	0.018008728
78	0x3d8f540e	0.06998454
79	0x3d893984	0.06700423
80	0xbca640b7	-0.02029453
81	0xbbf9403f	-0.0076065357
82	0x3d979d97	0.07403105
83	0xbda9e9a7	-0.08296519
84	0x3d1c6f24	0.03819193
85	0x3d674a2f	0.05646723
86	0xbd854fbd	-0.065093495
87	0xbe1af44d	-0.15132256
88	0xbdba9901	-0.091112144
89	0xba4616a5	-0.0007556475
90	0x3cd2bce5	0.025724838
91	0x3e23fdbf	0.16014765
92	0x395ab2e4	0.00020856742
93	0xbde03397	-0.1094734
94	0xbdc43d6a	-0.09582026
95	0xbd84b0ed	-0.064790584
96	0xbdea7228	-0.11447555
97	0x3d09d475	0.03364988
98	0x3d4bfe6a	0.049803175
99	0xbd62e7d3	-0.055396866
100	0xbd775b7c	-0.06038998
101	0x3d8de379	0.069281526
102	0xbca713ca	-0.020395178
103	0x3d60ffee	0.054931574
104	0x3c9c5385	0.019082794
105	0xbd00e530	-0.03146857
106	0xbd30e8c9	-0.04319075
107	0x3db05462	0.08609845
108	0xbcf503f8	-0.029909119
109	0xbd73806b	-0.05944864
110	0xbd5ac9a8	-0.05341497
111	0xbdab9567	-0.083781056
112	0x3c0f71dc	0.0087551735
113	0xbe0f1337	-0.13972174
114	0xbd0a13bc	-0.033710226
115	0x3d914490	0.070931554
116	0xbd1f796f	-0.038934167
117	0x3d597000	0.053085327
118	0x3cdcde89	0.026961582
119	0xbdbed8fc	-0.0931873
120	0xbb38ade3	-0.0028179816
121	0xbcf31603	-0.029673582
122	0xbda902a2	-0.08252455
123	0x3c9ce2dc	0.019151144
124	0x3de34208	0.11096579
125	0xbbd7ec84	-0.006589474
126	0x3db94b5b	0.09047576
127	0xbdbe9db1	-0.09307421
128	0xbd2c6d40	-0.042096376
129	0x39e73803	0.00044101485
130	0xbdec4248	-0.1153608
131	0xbd9e4414	-0.077278286
132	0xbdbce3fe	-0.092231736
133	0x3db9695c	0.09053299
134	0x3db3ce02	0.08779527
135	0x3bd6bb78	0.0065531097
136	0xbc43659f	-0.011926084
137	0x3d09dcda	0.033657886
138	0xbd13eac3	-0.036112558
139	0x3d2f3a03	0.042779934
140	0xbd69caab	-0.057078045
141	0xbd9a79be	-0.07542752
142	0x3d667754	0.056266144
143	0x3d220c51	0.039562527
144	0x3d937574	0.07200137
145	0xbdb99dfc	-0.09063336
146	0x3dd674bd	0.10471485
147	0x3e35e327	0.17762433
148	0x3c13ecfc	0.009028669
149	0x3d8835ed	0.066509105
150	0x3dab69c5	0.08369783
151	0xbdbb7e71	-0.09154976
152	0x3e02acf7	0.12761293
153	0x3dd440f1	0.10363949
154	0xbd70f70e	-0.05882936
155	0x3c9a8833	0.018863773
156	0xbda01469	-0.07816393
157	0x3cc9b254	0.024621166
158	0x3d9bbffa	0.07604976
159	0xbd923d90	-0.07140648
160	0xbe07f923	-0.13278632
161	0xbd03e013	-0.032196116
162	0x3d96cc14	0.073631436
163	0xbde5688c	-0.11201581
164	0xbcc1ea06	-0.023671161
165	0x3ccf6af9	0.025319563
166	0xbcebebd0	-0.028798968
167	0x3d28de9a	0.041227914
168	0x3d2692ad	0.040667225
169	0x3e149810	0.14511132
170	0xbd41a2cb	-0.047274392
171	0x3deb96a8	0.11503345
172	0xbd6140ef	-0.054993566
173	0x3c825a72	0.015912268
174	0x3ae775ad	0.0017658971
175	0xbe1e6692	-0.15468815
176	0xbd81295c	-0.06306717
177	0x3cd74704	0.02627898
178	0x3cba3b2f	0.022733299
179	0xbd877e7f	-0.06615924
180	0x3d96d926	0.073656365
181	0xbdca5a6e	-0.09880529
182	0x3d812d70	0.06307495
183	0x3c2cf11e	0.010555534
184	0x3e0c1dd3	0.13683252
185	0x3d2d1bc2	0.0422628
186	0xbd6e4ad8	-0.058176845
187	0x3d77b397	0.060474005
188	0xbba83b7e	-0.005134045
189	0x3d810276	0.062992975
190	0xbd759904	-0.05996038
191	0x3cadc9a3	0.021214312
192	0xbd3ebe89	-0.046568427
193	0xbd7701be	-0.060304396
194	0x3d140725	0.036139626
195	0x3ddcbf0a	0.10778625
196	0x3c9b9228	0.018990591
197	0xbe0c854f	-0.13722728
198	0x3d83db92	0.06438364
199	0x3d3e05a3	0.046392094
200	0xbc7e184f	-0.015508725
201	0xbc959972	-0.018261645
202	0xbcecd90c	-0.02891209
203	0x3e0663eb	0.13124053
204	0xbd8ccbcd	-0.068748094
205	0xbdeae2e6	-0.11469059
206	0xbe01921e	-0.12653396
207	0xbda37da3	-0.07982948
208	0xbe24cd47	-0.16093932
209	0x3d470f98	0.048598856
210	0xbdb5a4d5	-0.0886933
211	0xbcf93faf	-0.030425875
212	0xbd3eb77a	-0.046561696
213	0x3d2cadd8	0.042157978
214	0xbd9ec8f0	-0.077531695
215	0x3c08fa69	0.008360484
216	0xbca4d4fc	-0.02012109
217	0x3cf08d27	0.029364182
218	0x3c1f94cd	0.009740067
219	0x3e403fea	0.18774381
220	0x3d06080f	0.03272253
221	0xbc96d9e9	-0.018414455
222	0xbde2f5ce	-0.1108204
223	0x3d8816ea	0.066449955
224	0xbd11aea9	-0.03556696
225	0xbd40e9ed	-0.04709809
226	0xbd05b750	-0.032645524
227	0x3ca53be1	0.020170154
228	0xbdd8fcbd	-0.10595081
229	0x3e0c4006	0.13696298
230	0x3d75a425	0.059970994
231	0x3d96b022	0.073578134
232	0xbcbf93be	-0.023385879
233	0x3d7d63ff	0.06186294
234	0x3dd6256c	0.104563564
235	0x3cb40c82	0.02197862
236	0xbdd6ca22	-0.104877725
237	0x3c95add9	0.018271374
238	0xbdb3f686	-0.08787255
239	0x3a80d478	0.0009828946
240	0xbc15382c	-0.009107631
241	0xbd4d1715	-0.05007084
242	0x3d1a1d42	0.03762556
243	0x3bdcae71	0.006734662
244	0x3d923e38	0.071407735
245	0x3d9ab014	0.075531155
246	0xbba9316c	-0.0051633622
247	0x3cce10b6	0.025154453
248	0x3dd337fe	0.10313414
249	0xbd84a853	-0.06477418
250	0x3ce0c7ad	0.027438963
251	0x3d21b9f7	0.03948399
252	0x3c368746	0.01114065
253	0x3da4c96f	0.08046233
254	0x3deb4925	0.114885606
255	0xbd37fc6e	-0.04491847

bias f4 [84]
0	0x3d4175a8	0.047231346
1	0x3df643e8	0.12024671
2	0x3c4d84bc	0.012543853
3	0xbc22c942	-0.009935679
4	0x3d92307e	0.071381554
5	0x3dd5574e	0.10417043
6	0xbd10e8ac	-0.035378143
7	0xbd3dd2eb	-0.046343725
8	0xbd186ecb	-0.037215035
9	0xba611e6f	-0.0008587604
10	0xbc024b15	-0.007952471
11	0xbd5f2244	-0.054476038
12	0x3e016784	0.12637144
13	0x3dc324cd	0.095285036
14	0x3c8b0128	0.016968325
15	0x3c32b7fb	0.010908122
16	0xbc11aacb	-0.008890818
17	0x3c874af9	0.016515242
18	0xbd555029	-0.0520784
19	0xbdc5246a	-0.09626086
20	0x3d7a757f	0.06114721
21	0x3b11f30d	0.0022270114
22	0x3d57278a	0.05252794
23	0x3dba6418	0.091011226
24	0x3db96072	0.090515986
25	0x3db6f0c0	0.08932638
26	0xbdd7aa39	-0.10530514
27	0x3dea3a96	0.11436956
28	0x37fc3774	3.0066563e-05
29	0x3d62daa9	0.05538431
30	0xbd1ec3b6	-0.038760863
31	0xbd7069b3	-0.058694553
32	0xbc971236	-0.0184413
33	0xbd181b4d	-0.03713541
34	0x3ca35d32	0.0199419
35	0x3d4563d6	0.048190914
36	0x3c37dccd	0.011222077
37	0xbd55a80b	-0.05216221
38	0x3c9db57d	0.01925158
39	0xbd92e1f1	-0.07172001
40	0xbe000c76	-0.12504753
41	0xbb8cd42d	-0.0042977543
42	0xbc92c6c1	-0.017917039
43	0x3de4aa51	0.11165298
44	0xbdf1ba77	-0.118031435
45	0x3b650f6c	0.003495182
46	0xbd9ff0ae	-0.07809578
47	0x3c052ca0	0.008128315
48	0x3cda0486	0.026613485
49	0xbd7891a3	-0.060685765
50	0xbc8b3cd4	-0.016996779
51	0xbdab955c	-0.083780974
52	0xbd3d58ad	-0.046227146
53	0xbd498860	-0.049202323
54	0xbdb37c85	-0.087639846
55	0x3d2513bf	0.040302034
56	0x3d7ab217	0.061204996
57	0xbb5597d5	-0.003259172
58	0x3d3a4aeb	0.045481604
59	0xbce28c88	-0.027654901
60	0x3d7dda2c	0.061975643
61	0x3d58484c	0.052803323
62	0xbcb49560	-0.022043884
63	0xbc8afb77	-0.01696561
64	0x3ddc0bec	0.107444614
65	0x3db4a82d	0.088211395
66	0xbd1ab5c1	-0.03777099
67	0xbdb934f2	-0.09043302
68	0xbd7efe12	-0.06225402
69	0xbcacf6b0	-0.021113724
70	0x3c2ebdf5	0.0106654065
71	0xbd4c8607	-0.049932506
72	0x3d606285	0.054781456
73	0xbcc6d8a8	-0.024273232
74	0xbd467267	-0.048448946
75	0xbcd71e0d	-0.026259447
76	0xbc83e066	-0.016098212
77	0xbd8f3d3b	-0.06994101
78	0x3ca0933f	0.019601462
79	0x3d143efd	0.036192883
80	0x3e058f8f	0.13043045
81	0x3c1609d7	0.009157619
82	0x3c8c4b25	0.017125675
83	0xba51de41	-0.00080058357

weight f4 [6, 84]
0	0xbe1eaaf5	-0.15494902
1	0x3dd564f4	0.10419646
2	0xbe99207c	-0.29907596
3	0x3cd70c2a	0.026250917
4	0xbe77a77f	-0.24184988
5	0xbe628cf2	-0.22124079
6	0x3e73b0e4	0.23797947
7	0x3e1b762a	0.15181795
8	0xbd252a1c	-0.04032336
9	0x3e643741	0.22286703
10	0xbe64abb9	-0.22331132
11	0xbe8a6345	-0.27028862
12	0xbe3f85ec	-0.18703431
13	0x3e540458	0.20704782
14	0xbe81f08f	-0.25378844
15	0xbdd4dd7b	-0.103938065
16	0x3d54ed76	0.051984273
17	0xbd41dbb2	-0.04732866
18	0x3ea87e6c	0.32908952
19	0xbe6a9cf4	-0.22911435
20	0x3e477635	0.19478686
21	0x3d6acb38	0.05732271
22	0xbe835d84	-0.25657284
23	0xbe359979	-0.17734326
24	0xbeab83cf	-0.33499
25	0x3e531346	0.20612821
26	0xbdeb0685	-0.11475853
27	0x3e88a3ab	0.2668737
28	0x3e6005a0	0.21877146
29	0xbdf3953d	-0.11893699
30	0x3e1e9af2	0.15488794
31	0x3e18dbbd	0.14927574
32	0x3e88b39f	0.2669954
33	0x3e637669	0.22213139
34	0x3e4c3380	0.1994152
35	0x3d3f2950	0.046670258
36	0xbd280f8d	-0.041030455
37	0xbe910a2b	-0.2832807
38	0xbd44a839	-0.048011992
39	0xbd9b6bd7	-0.07588928
40	0xbe784a5b	-0.24247114
41	0xbe311194	-0.17291862
42	0xbe55cc7a	-0.20878783
43	0x3ddf5308	0.10904509
44	0xbe0b56ef	-0.13607381
45	0x3e5e55ff	0.21712492
46	0xbd536437	-0.051609244
47	0xbe2d3679	-0.16915311
48	0x3e5534e6	0.2082096
49	0xbe16c27f	-0.14722632
50	0xbe8483d6	-0.25881833
51	0xbe584367	-0.21119462
52	0xbe5e4bb7	-0.2170857
53	0xbdadb5ab	-0.08481916
54	0xbd7b093a	-0.061288096
55	0x3e301ff7	0.17199694
56	0x3e79ee4d	0.24407311
57	0x3dd263b5	0.10272924
58	0x3e3ddeda	0.18542042
59	0x3e0ca133	0.13733368
60	0xbe5e94e5	-0.21736486
61	0x3c8e8b8f	0.017400531
62	0xbdc1aaae	-0.09456383
63	0x3e17914e	0.14801523
64	0x3d983d1c	0.07433531
65	0x3e0a5e27	0.13512479
66	0xbe49c74a	-0.19704929
67	0xbe8b0425	-0.271516
68	0xbe6245eb	-0.22096984
69	0x3e064fef	0.1311643
70	0x3e4295f7	0.1900252
71	0xbdfcaa8b	-0.12337216
72	0xbe6d0607	-0.2314683
73	0xbe5678cd	-0.2094452
74	0xbe03f93b	-0.12888043
75	0xbe3f8c71	-0.18705918
76	0xbe7f2ff3	-0.24920635
77	0xbe356726	-0.1771513
78	0xbe11225d	-0.14173265
79	0x3e0da29d	0.13831563
80	0x3e342b50	0.17594647
81	0x3e6a03bb	0.22852986
82	0xbdcee3f9	-0.10102076
83	0xbe7cfe51	-0.24706389
84	0xbe81d02d	-0.25354138
85	0xbe12a212	-0.14319637
86	0xbe3a6905	-0.18204124
87	0x3e99a191	0.30006078
88	0x3e0c4e53	0.13701753
89	0x3e184439	0.14869775
90	0x3a9a5c4d	0.0011776775
91	0x3e13a394	0.14417869
92	0x3e32ef62	0.1747413
93	0xbe6e2cd3	-0.23259287
94	0x3dff6d9f	0.124720804
95	0x3e2b6709	0.16738524
96	0x3b207121	0.0024481493
97	0xbde12ea7	-0.10995226
98	0xbdbed7f3	-0.09318533
99	0xbda49211	-0.080356725
100	0xbe31ff12	-0.17382458
101	0xbe116bf3	-0.14201336
102	0xbdc5bacd	-0.0965477
103	0xbc3f922b	-0.011692564
104	0x3e9b474d	0.30327836
105	0x3e846592	0.25858742
106	0x3e2200f9	0.15820684
107	0x3e44911f	0.19195984
108	0x3e1b5ba9	0.15171684
109	0xbdc75798	-0.09733504
110	0x3e9107a6	0.28326148
111	0xbe0e05ca	-0.13869396
112	0xbe3168ec	-0.17325181
113	0xbe85b671	-0.26115754
114	0x3dd5dd79	0.10442633
115	0xbe3c2eea	-0.18377271
116	0x3d9e87af	0.07740723
117	0xbe0b0889	-0.13577475
118	0xbdb7da6e	-0.08977209
119	0xbea7e38d	-0.32790795
120	0x3e474d91	0.19463183
121	0xbe60c778	-0.21951091
122	0xbc003b30	-0.007826611
123	0x3e7cf4e9	0.24702801
124	0xbdfe5536	-0.124185964
125	0x3cd40a01	0.025883676
126	0x3e4da60a	0.2008287
127	0xbdd03a05	-0.10167316
128	0x3e9db089	0.30798748
129	0xbe3b2d8a	-0.1827909
130	0xbdcf7c87	-0.101311736
131	0x3e41e73f	0.1893587
132	0xbe42a6b0	-0.19008899
133	0x3e1860c1	0.14880659
134	0x3e4d9703	0.20077138
135	0xbe4175bf	-0.18892573
136	0xbdde94a5	-0.108681954
137	0x3e8e558e	0.27799648
138	0xbe173031	-0.14764477
139	0x3cb0923d	0.021554107
140	0xbdd58dd2	-0.10427441
141	0xbe4e657b	-0.20155899
142	0xbe39b578	-0.18135631
143	0xbd44ccbf	-0.048046824
144	0x3ca326d6	0.01991598
145	0xbeb3791d	-0.3505334
146	0xbe42dbbe	-0.19029137
147	0xbe633150	-0.2218678
148	0xbe448934	-0.19192964
149	0x3d88e13d	0.06683586
150	0xbde68d6d	-0.112574436
151	0x3db8eb55	0.09029261
152	0xbdc49145	-0.095980205
153	0xbd240c54	-0.04005082
154	0x3e5c17b9	0.21493424
155	0x3e31015f	0.1728568
156	0x3d82e24b	0.06390818
157	0x3df02efc	0.117277116
158	0x3d258905	0.040413875
159	0x3e1bf5fe	0.15230557
160	0x3d9f1d81	0.07769299
161	0xbc952d97	-0.018210215
162	0x3e376163	0.17908244
163	0x3e4fd717	0.20296894
164	0xbb8cbe0e	-0.004295117
165	0x3d936551	0.07197059
166	0xbe333b04	-0.17502981
167	0x3da04e02	0.07827379
168	0x3e2cf92d	0.16891928
169	0xbe87c065	-0.26513973
170	0x3c96ab61	0.018392267
171	0xbe8e17d4	-0.27752554
172	0xbd608014	-0.054809645
173	0xbc53086c	-0.012880426
174	0xbe15969f	-0.14608239
175	0x3e69f057	0.22845589
176	0xbe67d6b9	-0.22640504
177	0x3e36cb4d	0.1785099
178	0x3b8a677e	0.004223763
179	0xbd252d4e	-0.04032641
180	0x3e05f820	0.13082933
181	0xbe329a3c	-0.17441648
182	0xbe50a81f	-0.20376633
183	0xbe7ba92d	-0.24576254
184	0xbe3b203e	-0.18274018
185	0xbe6e4472	-0.23268297
186	0xbdbdd6a6	-0.092694566
187	0x3e539938	0.20663917
188	0xbe8d0d58	-0.27549243
189	0xbe3e1c63	-0.18565516
190	0x3db2133d	0.08695076
191	0x3da76e6e	0.0817536
192	0x3d4146f8	0.04718682
193	0xbe22d691	-0.15902163
194	0xbe03dad7	-0.1287645
195	0x3d3e79ba	0.046502806
196	0x3cdc989d	0.02692824
197	0xbbab1367	-0.005220819
198	0xbe1c1123	-0.15240912
199	0xbe65aa1e	-0.22428176
200	0xbd710edd	-0.058852065
201	0x3d942097	0.072327785
202	0x3e3652ff	0.17805098
203	0x3e811297	0.25209495
204	0xbe6ef625	-0.23336084
205	0x3e82af43	0.2552434
206	0x3c8cfb7d	0.017209763
207	0xbda9b288	-0.08286005
208	0x3c5be717	0.013421795
209	0x3e384df1	0.17998482
210	0xbe2e7056	-0.1703504
211	0xbe36e0e0	-0.1785922
212	0xbe2cb827	-0.16867124
213	0xbde8001a	-0.11328144
214	0x3e719a63	0.2359405
215	0x3e357d77	0.17723642
216	0xbe7f427b	-0.24927704
217	0xbdf4ef33	-0.11959686
218	0xbe5d736e	-0.21626064
219	0xbc0be577	-0.008538595
220	0xbe83afd4	-0.25720084
221	0xbe93fa5e	-0.28901953
222	0xbe4ce55e	-0.20009372
223	0xbe11eb60	-0.14249945
224	0x3e30a084	0.17248732
225	0x3d8f306c	0.069916576
226	0x3e21ea79	0.158121
227	0xbe6747ef	-0.22586034
228	0x3e168d09	0.14702238
229	0x3e914364	0.28371727
230	0xbe6cf9bb	-0.2314214
231	0x3df3d7d8	0.11906403
232	0xbe4193d1	-0.18904044
233	0x3e7c3ae2	0.24631837
234	0x3df973a7	0.12180262
235	0x3d7c02be	0.061526053
236	0xbe87e779	-0.26543787
237	0xbd3987d8	-0.045295566
238	0xbccfd014	-0.025367774
239	0x3e63a015	0.22229035
240	0x3de31d18	0.110895336
241	0x3b4a13dc	0.003083459
242	0x3e824ad8	0.25447726
243	0x3d9f7132	0.07785262
244	0x3e3d1cd8	0.18468034
245	0x3e59f906	0.21286401
246	0x3e06eee5	0.13177069
247	0xbd2c2ad9	-0.04203305
248	0x3cbf0b69	0.02332087
249	0xbdfbbeb5	-0.12292234
250	0xbdf090d4	-0.11746374
251	0xbd43db2b	-0.047816437
252	0x3d7d2ac8	0.061808378
253	0xbd176351	-0.03695995
254	0xbd881c1d	-0.06645987
255	0x3dda4a60	0.10658717

bias f4 [6]
0	0x3dcfb343	0.10141613
1	0x3c827441	0.015924575
2	0x3d32a49a	0.043614008
3	0x3d924cd2	0.071435586
4	0xbcb585cc	-0.022158526
5	0xbd7e277e	-0.06204938
