202304190317_bestmodel.pt (torch, 436667 bytes, 10 tensors)

weight f4 [6, 3, 5, 5]
0	0x3d8f7a71	0.07005776
1	0x3d7977bc	0.060905203
2	0x3d52f472	0.051502652
3	0xbdeb835e	-0.11499666
4	0xbb6fb79d	-0.0036577948
5	0xbdbbccee	-0.091699466
6	0x3dd6aa9c	0.1048176
7	0xbdb8ca89	-0.090230055
8	0x3db4f071	0.08834923
9	0x3d09ed82	0.03367377
10	0x3ca5f815	0.020259896
11	0x3c061c1b	0.008185412
12	0x3d892c9b	0.06697961
13	0xbcee1c73	-0.0290663
14	0x3da34399	0.079718776
15	0xbc50dfc9	-0.012748667
16	0x3d9f20a6	0.07769899
17	0x3d1b323e	0.03788971
18	0xbcedf7c0	-0.0290488
19	0xbdaffc96	-0.08593099
20	0xbcb9f95c	-0.022701912
21	0x3cf0e40d	0.029405618
22	0xbd46a3ce	-0.04849606
23	0x3de620ad	0.11236701
24	0x3d5249c3	0.051339876
25	0xbe0afc38	-0.13572776
26	0xbba82c18	-0.0051322095
27	0x3d5068be	0.05088114
28	0x3d0a5b68	0.033778578
29	0xbc550863	-0.013002488
30	0x3ba18476	0.0049291207
31	0x3cb4688c	0.022022508
32	0x3df2746b	0.11838611
33	0xbba1b35c	-0.0049347114
34	0x3d9e03e4	0.07715586
35	0x3e0026ec	0.12514848
36	0x3c8b40df	0.016998706
37	0xbb8b5b48	-0.004252825
38	0x3e07a302	0.13245776
39	0xbd8dee8d	-0.069302656
40	0x3c615191	0.013752357
41	0x3e0531a8	0.13007224
42	0x3dead274	0.11465922
43	0x3df69787	0.1204062
44	0x3e048bf5	0.12944014
45	0x3c864125	0.016388485
46	0x3b35eeeb	0.0027760814
47	0xbcaf111e	-0.021370467
48	0x3d3ed9fd	0.04659461
49	0x3d51f03b	0.051254492
50	0xbc7df678	-0.015500657
51	0xbe25c0bd	-0.16186805
52	0xbc4386ce	-0.011933995
53	0xbdd656d0	-0.10465777
54	0xbe263f18	-0.16235006
55	0x3c7a3990	0.015272513
56	0xbd3e67de	-0.046485774
57	0x3de37cfa	0.11107822
58	0xbc8fc1a5	-0.017548392
59	0xbca96f23	-0.020682877
60	0x3dad3e95	0.08459202
61	0x3de8bfe6	0.11364727
62	0x3d79a6c2	0.06095005
63	0x3ce5bf5d	0.02804535
64	0x3daa72dc	0.08322689
65	0x3e02419e	0.12720343
66	0x3e2b05f7	0.16701494
67	0x3cdc0544	0.02685798
68	0x3d7d36ed	0.06181996
69	0xbca8025a	-0.020508934
70	0x3ca07240	0.019585729
71	0x3dbcb7ac	0.0921472
72	0x3d403a7b	0.04693077
73	0x3d5cfdb7	0.0539529
74	0xbd7880a6	-0.060669564
75	0xbddad8d7	-0.1068589
76	0xbd9cdb27	-0.076589875
77	0x3d5b8db4	0.053601936
78	0x3d7a191d	0.061059106
79	0xbd9e33b1	-0.07724703
80	0xbdae54e1	-0.08512283
81	0xbde12afc	-0.10994527
82	0xbdba7723	-0.09104755
83	0xbd9ba40e	-0.0759965
84	0xbdcd57b5	-0.100264944
85	0xbda6e6f3	-0.08149519
86	0xbd92b2fb	-0.07163044
87	0xbde41b0b	-0.111379705
88	0xbdad1a80	-0.0845232
89	0xbd0ad5db	-0.033895355
90	0xbdc512e9	-0.096227475
91	0xbd8ed250	-0.06973708
92	0x3c440347	0.011963672
93	0xbdca38dd	-0.09874127
94	0xbc9ebb16	-0.019376319
95	0xbe1bea33	-0.15226059
96	0xbe08ac35	-0.13346942
97	0xbe091617	-0.13387333
98	0x3d63e173	0.055634927
99	0xbd622a2b	-0.055215996
100	0xbde8e395	-0.11371533
101	0xbdbaf4cd	-0.09128723
102	0xbdb2c62d	-0.08729205
103	0x3d96198f	0.07329094
104	0xbdcab8d0	-0.098985314
105	0xbcd3ae01	-0.025839807
106	0xbe0d3c82	-0.13792613
107	0xbd95d35b	-0.073157035
108	0xbdaed91d	-0.08537505
109	0xbd266ebf	-0.04063296
110	0xbdd590a6	-0.1042798
111	0xbd93eb90	-0.07222664
112	0xbe47ad86	-0.19499788
113	0x3bbcb4c0	0.0057588518
114	0xbd751313	-0.059832644
115	0xbdf41548	-0.119181216
116	0xbe43417a	-0.19067946
117	0xbe2901db	-0.16504614
118	0xbd9f484d	-0.07777462
119	0xbe353cdf	-0.17699002
120	0xbe6df65c	-0.2323851
121	0xbcf2a59f	-0.02961999
122	0xbe514148	-0.20435059
123	0x3c07a765	0.008279656
124	0xbdf58321	-0.119879015
125	0x3dc98e9d	0.098416544
126	0xbd956545	-0.07294706
127	0xbd8b1a8b	-0.06792172
128	0xbd767947	-0.060174253
129	0x3dc1cd7c	0.09463021
130	0xbd244d76	-0.040112935
131	0x3d2dbb1c	0.04241477
132	0xbe04b703	-0.12960438
133	0xbe24c57a	-0.16090956
134	0x3dab2554	0.08356729
135	0xbd11954f	-0.035542782
136	0xbdac8f58	-0.08425778
137	0xbe2bc941	-0.16775991
138	0x3d13cf7d	0.036086548
139	0xbb89aedc	-0.004201753
140	0x3c9858b2	0.01859698
141	0xbb8b7a28	-0.0042565055
142	0xbde24897	-0.11049002
143	0xbdf6d1e2	-0.12051751
144	0x3aac92cc	0.0013166307
145	0xbd82e3bd	-0.06391094
146	0xbdbd65c3	-0.09247925
147	0xbdc5ae5e	-0.096523985
148	0xbdbffc1a	-0.093742564
149	0xbda25289	-0.079258986
150	0x3d8c7729	0.068586655
151	0xbd2fbec5	-0.04290654
152	0xbbf9be7e	-0.0076215854
153	0x3dcd2fa7	0.100188546
154	0x3c84f725	0.016231129
155	0x3cc141da	0.02359097
156	0x3e158911	0.14603068
157	0xbc67b8db	-0.014143194
158	0xbd2eefa6	-0.042709015
159	0x3e11ec8e	0.14250395
160	0xbd5f6d3b	-0.05454753
161	0x3c9be8c8	0.019031897
162	0x3df33aaf	0.118764274
163	0x3cde6136	0.027145963
164	0xbcec6ed2	-0.028861437
165	0x3e124ed5	0.14287885
166	0x3dfd6313	0.123724125
167	0x3e073de5	0.13207205
168	0x3b09235a	0.0020925612
169	0x3dfeb40e	0.124366865
170	0x3d8f7bc9	0.07006032
171	0x3df80153	0.121096276
172	0x3c968ea2	0.01837856
173	0x3dac4bf5	0.08412925
174	0x3d146c06	0.03623583
175	0x3d2b7461	0.041859034
176	0xbd4c9dc2	-0.049955137
177	0xbce0e965	-0.027455041
178	0xbd8579b9	-0.065173574
179	0xbc586418	-0.013207458
180	0xbb480e9e	-0.003052629
181	0xbdd6c329	-0.104864426
182	0xbcd0cc07	-0.025487913
183	0x3cb02daf	0.021506159
184	0xbca9edd9	-0.020743297
185	0xbad2cefe	-0.0016083417
186	0xbdb312cb	-0.08743819
187	0xbccafac3	-0.024777776
188	0xbd5cde81	-0.053923134
189	0x3daa8866	0.08326797
190	0xbd31b79d	-0.043387998
191	0x3da0edfd	0.07857893
192	0xbdafcfac	-0.08584532
193	0xbd80e6ec	-0.06294045
194	0x3d9536f0	0.07285869
195	0xbd1601bd	-0.03662275
196	0x3d90df83	0.070738815
197	0x3daba924	0.083818704
198	0xbcee836f	-0.029115407
199	0xbd9c4df9	-0.076320596
200	0xbdac2bc3	-0.084067844
201	0xbcd3acc0	-0.02583921
202	0x3cc98df5	0.024603823
203	0xbe09bfe8	-0.13452113
204	0x3d8bb443	0.068214916
205	0xbcc4d5fd	-0.024027819
206	0xbe35b626	-0.17745265
207	0xbe0055d4	-0.12532741
208	0xbd9aa783	-0.075514816
209	0x3cef5560	0.029215515
210	0xbde2dde6	-0.1107748
211	0xbe5bfce4	-0.21483189
212	0xbe3a70bf	-0.18207072
213	0xbdfd4133	-0.123659514
214	0xbd6f1d1b	-0.058377367
215	0xbdb01027	-0.08596831
216	0xbdee3d02	-0.1163273
217	0xbdb76f38	-0.0895676
218	0xbdf93cdc	-0.12169811
219	0xbe25789d	-0.16159292
220	0xbe03f8fb	-0.12887947
221	0x3c522258	0.012825571
222	0xbdf6c93a	-0.120501
223	0xbe3a39a5	-0.18186052
224	0xbe22ecc8	-0.15910637
225	0xbc813b65	-0.015775392
226	0xbdab804c	-0.0837408
227	0xbcfd6ad3	-0.030934727
228	0x3d8f6426	0.07001524
229	0xbc8235e4	-0.015894838
230	0xbda2848d	-0.07935438
231	0x3d28030f	0.041018542
232	0x3d9cc27a	0.07654281
233	0x3ce8c558	0.028414413
234	0x3cd87509	0.026422994
235	0x3d427474	0.04747434
236	0x3da62536	0.08112566
237	0xbd7718ff	-0.060326573
238	0xbdee310a	-0.11630447
239	0x3db7506c	0.08950886
240	0xbd78cdf0	-0.060743272
241	0x3aaf6e92	0.0013384393
242	0x3b01287e	0.0019707973
243	0x3cd838a0	0.026394188
244	0xbddc7291	-0.10764039
245	0xbcfa61d9	-0.030564236
246	0xbd06c794	-0.032905176
247	0x3a309a12	0.00067368255
248	0xbdfb3b88	-0.12267214
249	0x3d79d4f8	0.06099412
250	0x3e040743	0.12893395
251	0x3d1f3a48	0.03887394
252	0xbcdd8529	-0.027041035
253	0x3cc10d8d	0.023566032
254	0x3dca4051	0.09875549
255	0x3d9f1ddb	0.07769366

bias f4 [6]
0	0xbc0881aa	-0.008331696
1	0x3bca0013	0.0061645596
2	0xbce5d824	-0.028057165
3	0x3d2ae7fe	0.04172515
4	0xbe114ad9	-0.14188708
5	0xbd8c26be	-0.06843327

weight f4 [16, 6, 5, 5]
0	0x3e06f9c4	0.13181216
1	0xbd2d15b2	-0.04225702
2	0x3d9d5d9e	0.07683872
3	0xbda943a7	-0.08264857
4	0xbdaad7f0	-0.08341968
5	0x3e0d4612	0.13796261
6	0x3d82e29c	0.063908786
7	0x3bd6b816	0.0065527065
8	0xbda1572e	-0.07877956
9	0xbe001444	-0.1250773
10	0x3e045f5d	0.12927003
11	0x3d7fff4e	0.062499337
12	0x3af34e7f	0.0018562822
13	0xbdb1e622	-0.086864725
14	0xbdf2826e	-0.11841284
15	0x3dee70d6	0.116426155
16	0x3d738a8c	0.0594583
17	0x3d8edc38	0.06975597
18	0xbd63a07d	-0.055572975
19	0x3d014d80	0.03156805
20	0x3d68d567	0.05684414
21	0x3d8d1499	0.06888694
22	0xbd21112b	-0.039323013
23	0xbdbecf60	-0.093168974
24	0xbda06a1e	-0.0783274
25	0xbdbea994	-0.09309688
26	0xbd7787c8	-0.060432225
27	0x3d0ad3ba	0.033893324
28	0x3de0e39b	0.10980912
29	0x3e044dc2	0.12920287
30	0xbdaa75cd	-0.0832325
31	0x3cbc429c	0.02298098
32	0x3d676c25	0.05649962
33	0x3e054460	0.13014364
34	0x3e0795d2	0.13240746
35	0xbdbf83c0	-0.09351301
36	0xbdc1e0c9	-0.094667025
37	0x3dd44dbe	0.10366391
38	0x3d8d3f52	0.06896843
39	0x3da2c293	0.07947268
40	0xbc9f710a	-0.01946308
41	0x3d2639db	0.04058252
42	0xbcaddea9	-0.021224337
43	0x3d9b1d62	0.07573964
44	0x3ce3ab66	0.02779169
45	0xbd39fb98	-0.045405954
46	0x3bc8eca0	0.0061317235
47	0x3c1bd5c9	0.00951142
48	0x3c4c768f	0.012479438
49	0x3dddf3cd	0.10837517
50	0xbe21f89d	-0.15817495
51	0xbe1c22c6	-0.1524764
52	0xbdf52288	-0.11969477
53	0xbc0820fe	-0.008308647
54	0x3d9aa150	0.07550299
55	0xbe208d16	-0.1567882
56	0xbdf002b9	-0.11719269
57	0xbd80be9a	-0.06286354
58	0x3d730327	0.05932918
59	0xbcb45834	-0.022014715
60	0xbe023814	-0.12716705
61	0xbd8f2ea9	-0.069913216
62	0xbd0e5d06	-0.034756683
63	0xbcd197c3	-0.025585061
64	0xbc1edd87	-0.009696371
65	0xbe1263b7	-0.1429585
66	0xbd1a8c91	-0.03773171
67	0xbd903275	-0.07040874
68	0xbd52c3c8	-0.051456243
69	0xbbea61e0	-0.007152781
70	0xbd68edcc	-0.056867406
71	0xbdf36dcf	-0.11886179
72	0x3cf33931	0.029690357
73	0xbdaf14c5	-0.08548883
74	0xbdd552f4	-0.10416213
75	0x3e000ca4	0.12504822
76	0x3dc13186	0.09433274
77	0x3d7dfe85	0.062010307
78	0x3d0f047d	0.03491639
79	0xbdb08b96	-0.08620374
80	0x3ccc5541	0.024942996
81	0x3dc3b653	0.0955626
82	0xbd8ef99c	-0.06981203
83	0xbce6484f	-0.028110651
84	0xbd128ee1	-0.03578079
85	0x3d05aacc	0.032633588
86	0x3dc8ddfc	0.09807965
87	0xbcb134ca	-0.021631617
88	0x3bc991e7	0.006151426
89	0xbde68bb2	-0.112571135
90	0x3d311dfc	0.043241486
91	0x3dea2e2b	0.11434587
92	0xbc130bda	-0.008974994
93	0xbd77599d	-0.060388196
94	0xbde55104	-0.11197093
95	0x3e07b606	0.1325303
96	0x3dcae563	0.09907033
97	0x3d7dc2c7	0.061953332
98	0xbdcdc82e	-0.10047947
99	0xbdd3bc25	-0.1033862
100	0x3d2ea601	0.042638782
101	0xbc876a54	-0.016530193
102	0x3cd95cb7	0.026533468
103	0x3c9cbde4	0.019133516
104	0xbd94e181	-0.07269574
105	0xbc7ae877	-0.015314213
106	0xba942891	-0.0011303594
107	0xbd9691bc	-0.073520154
108	0xbdb52cde	-0.08846448
109	0x3c884c6e	0.016638007
110	0x3dada735	0.08479158
111	0xbd2a728b	-0.041613143
112	0x3c34c68e	0.011033667
113	0x3cf57838	0.029964551
114	0xbd409b24	-0.047022954
115	0x3c85a8ac	0.01631578
116	0x3d8da6cd	0.0691658
117	0xbdc54497	-0.09632223
118	0x3d301fdc	0.042999133
119	0xbdcaaa4f	-0.09895765
120	0xbd1daacd	-0.038492966
121	0xbc529a2b	-0.012854139
122	0xbcb561b3	-0.022141313
123	0xbd73ddf4	-0.059537843
124	0xb98a75d6	-0.00026409206
125	0xbc10522e	-0.008808656
126	0xbda54caf	-0.08071267
127	0xbd369ea2	-0.044584878
128	0x3d95d58a	0.0731612
129	0xbd888fcf	-0.06668054
130	0xbba0978e	-0.004900879
131	0xbcf308f8	-0.029667363
132	0xbd6af708	-0.057364494
133	0xbd6b69ed	-0.057474066
134	0xbd82c966	-0.0638607
135	0xbddac0c7	-0.106813006
136	0x3d85ee80	0.06539631
137	0x3d344ec0	0.044020414
138	0x3cf4c0fd	0.02987718
139	0x3c9b1780	0.018932104
140	0xbd00121f	-0.03126728
141	0xbd831d43	-0.064020656
142	0x3d21ca61	0.039499644
143	0xbd2b888f	-0.04187828
144	0xbd9fd6e9	-0.07804663
145	0x3d44fda7	0.048093464
146	0x3c958c6a	0.018255431
147	0x3d2aa041	0.041656736
148	0xbd502e2c	-0.050825283
149	0xbd4e8dd7	-0.050428238
150	0xbcbec6ee	-0.023288216
151	0x3d3d75c5	0.046254892
152	0x3d9c9bfe	0.07646941
153	0x3da04c25	0.078270234
154	0x3d5fc9d1	0.054635826
155	0x3d249352	0.040179558
156	0xbd498057	-0.04919466
157	0x3d7335e3	0.059377562
158	0x3d728499	0.059208486
159	0x3b957330	0.0045608506
160	0xbce4f5ba	-0.027949203
161	0x3c92b950	0.01791063
162	0x3baf9797	0.005358647
163	0x3d2b715a	0.041856147
164	0x3dc94cbd	0.0982909
165	0xbdecc0bd	-0.115601994
166	0xbdb63b9e	-0.0889809
167	0xbc978c25	-0.018499443
168	0xbd65f4c9	-0.05614165
169	0x3d9004d5	0.07032172
170	0xbe23b229	-0.15985931
171	0xbe04f59e	-0.1298432
172	0xbd768a63	-0.06019057
173	0xbde38455	-0.11109225
174	0xbdf2fd61	-0.118647344
175	0xbdfd2e0b	-0.123622976
176	0xbd9b6b86	-0.07588868
177	0xbbcccd79	-0.00625008
178	0xbe0656f3	-0.13119106
179	0x3c7492c9	0.014927574
180	0xbd702d69	-0.058637056
181	0xbd2d7fc3	-0.04235817
182	0xbde245ed	-0.110484935
183	0x3b259e4a	0.002527135
184	0xbd6e43b6	-0.058170043
185	0xbcadecc4	-0.021231063
186	0x3c74ab60	0.014933437
187	0x3c52ae9e	0.012859015
188	0x3c810a96	0.015752118
189	0xbdc2933f	-0.09500741
190	0x3dd0d71b	0.10197278
191	0x3d85dc2b	0.06536134
192	0xbd05b998	-0.0326477
193	0x3d3ec311	0.04657275
194	0x3d2cf650	0.04222709
195	0x3e0b97cc	0.13632125
196	0x3da470a2	0.080292955
197	0x3e0e31b8	0.13886154
198	0x3dea64f6	0.11445038
199	0xbcfcc38d	-0.030854965
200	0x3d13e33b	0.036105376
201	0x3cb93575	0.022608498
202	0xbd952fe7	-0.07284527
203	0xbdc25481	-0.09488774
204	0xbdaac404	-0.08338168
205	0xbda20a87	-0.07912164
206	0xbdb6f187	-0.089327864
207	0xbe03798d	-0.12839337
208	0xbe18779e	-0.1488938
209	0xbe0879bf	-0.13327692
210	0x3d2b84a0	0.041874528
211	0xbae5c3ef	-0.0017529706
212	0xbb9ce4c0	-0.0047880113
213	0xbe106de8	-0.14104426
214	0xbd3da239	-0.046297286
215	0x3d4652df	0.048418876
216	0x3db9ca98	0.09071845
217	0x3c0e3996	0.008680722
218	0xbde94659	-0.11390371
219	0xbd2339f2	-0.039850183
220	0x3cbc20df	0.022964893
221	0x3d5cac83	0.053875457
222	0x3dab15b3	0.08353748
223	0x3d205923	0.039147507
224	0xbcf159de	-0.029461797
225	0x3ddf3336	0.108984396
226	0x3d27ee5f	0.040998813
227	0x3dfed45f	0.1244285
228	0x3de33c88	0.1109553
229	0x3c65a8cb	0.014017294
230	0x3d3e9dd4	0.046537235
231	0x3dd25bed	0.1027144
232	0x3db2172a	0.086958244
233	0x3d1f0635	0.03882428
234	0x3d2538b0	0.040337265
235	0xbd84f4f0	-0.064920306
236	0x3d4497a7	0.04799619
237	0x3c94c199	0.01815872
238	0x3d391134	0.04518242
239	0x3deab308	0.11459929
240	0xbab900f3	-0.0014114663
241	0xbcc6e973	-0.02428124
242	0xbdaecd09	-0.08535201
243	0x3da847d4	0.08216825
244	0x3dbe1ab1	0.09282435
245	0xbdb4c9fc	-0.08827588
246	0xbe17cde8	-0.14824641
247	0xbe09064e	-0.13381311
248	0x3c9c0341	0.01904452
249	0x3cbbb7ff	0.022914885
250	0xbd98aa59	-0.07454366
251	0xbccae364	-0.024766631
252	0xbdbe6ed4	-0.092984825
253	0xba62d4cd	-0.00086529256
254	0x3c9e64da	0.0193352
255	0x3c692b0e	0.014231456

bias f4 [16]
0	0xbc222a33	-0.009897756
1	0x3de07508	0.10959822
2	0xbb12441b	-0.0022318426
3	0x3d31ab9e	0.043376558
4	0x3d98be1a	0.07458134
5	0xbcbcdbf1	-0.023054095
6	0xbd98d70a	-0.074628904
7	0xbcebe1e1	-0.02879423
8	0x3db5a387	0.08869081
9	0x3dcfcb72	0.10146226
10	0x3c566866	0.013086414
11	0xbcc131e0	-0.023583353
12	0xbc5e8ea0	-0.013583809
13	0x3dd21491	0.10257829
14	0xbd315924	-0.0432979
15	0xbdec37f3	-0.11534109

weight f4 [120, 16, 7, 7]
0	0x3d9a0252	0.07519974
1	0x3d7cb0a7	0.061691906
2	0x3d980d34	0.07424393
3	0xbc83f24b	-0.016106745
4	0x3b0b058c	0.0021213023
5	0x3bc5a161	0.0060312008
6	0x3d0bc78e	0.034125857
7	0x3d0ebf12	0.034850188
8	0x3d53506f	0.05159038
9	0xbd0835ea	-0.03325454
10	0xbd669d9d	-0.056302655
11	0xbcd8759c	-0.026423268
12	0x3c98eb22	0.018666808
13	0x3b4e2858	0.0031457152
14	0xbbfe8255	-0.0077670016
15	0xbc949678	-0.018138155
16	0xbd5c0fc3	-0.05372597
17	0xbd2ebb53	-0.042659115
18	0xbbdc3103	-0.00671971
19	0xbce28471	-0.027651044
20	0xbcce06d5	-0.025149742
21	0x3bcc264a	0.0062301503
22	0xbcc90605	-0.024539003
23	0xbbc5d6f9	-0.0060375896
24	0xbd7fbb1f	-0.062434312
25	0x3cf5be4f	0.029997973
26	0xbcb49688	-0.022044435
27	0x3a785cc8	0.00094742747
28	0xbd02e10d	-0.031952906
29	0x3b82dd3d	0.003993659
30	0x3d1ed64a	0.03877858
31	0x3b66f2ee	0.0035240012
32	0x3cb25e9d	0.02177363
33	0xbc918f16	-0.017768424
34	0xbd21a41a	-0.03946314
35	0xbd8119f5	-0.06303779
36	0xbd19d3d3	-0.037555527
37	0xbba7f2b3	-0.0051253675
38	0xbbcdbf49	-0.0062789065
39	0x3d2bc419	0.04193506
40	0xbc7402a6	-0.01489321
41	0xbd4b9c67	-0.049709704
42	0x3da8743b	0.08225294
43	0x3d502dfd	0.050825108
44	0x3d47148c	0.04860358
45	0x3d4700cf	0.048584756
46	0x3ce745b7	0.028231485
47	0xbc2696c1	-0.0101677785
48	0xbaba7689	-0.0014226
49	0x3d0ad09b	0.033890348
50	0xbc0d2a08	-0.008615978
51	0xbd0b46e5	-0.034003157
52	0xbc709af6	-0.014685383
53	0xbd06845a	-0.032841064
54	0x3c514fc1	0.0127753625
55	0xbd3a9c07	-0.045558956
56	0xbd27c889	-0.04096273
57	0xbd5b292a	-0.053506054
58	0xbcd2300b	-0.025657674
59	0xbba01494	-0.0048852656
60	0x3d35989a	0.044334985
61	0xbc7056d9	-0.014669144
62	0x3c3c8786	0.011506921
63	0xbd17ab7e	-0.037028782
64	0xbd4d01be	-0.05005049
65	0xbd0c7b20	-0.03429711
66	0xbc7f8c98	-0.015597485
67	0xbd65566a	-0.055990614
68	0xbccc3245	-0.024926314
69	0xbd57b5d1	-0.052663628
70	0xbd360e6a	-0.04444734
71	0xbcfad5c0	-0.030619502
72	0xbd47c665	-0.04877319
73	0x3bac0443	0.0052495315
74	0xbd46ed20	-0.048565984
75	0xbdc35eb0	-0.095395446
76	0xbc6190b0	-0.013767406
77	0x3d40694f	0.04697543
78	0x3d5e46f2	0.054266877
79	0x3caf8f89	0.021430748
80	0x3bc8bc71	0.0061259796
81	0xbc3fba28	-0.011702098
82	0xbca72134	-0.020401575
83	0xbd639837	-0.055565085
84	0xbd963da5	-0.073359765
85	0x3d3ee392	0.046603747
86	0xbbdd5c45	-0.006755384
87	0xbcaaf889	-0.020870464
88	0x3cdf3e63	0.027251428
89	0x3d6ef09a	0.058334924
90	0xbd0caf4a	-0.034346856
91	0x3d3fbd73	0.046811532
92	0xbd615084	-0.055008426
93	0x3c880970	0.016606063
94	0x3d90362e	0.07041584
95	0x3b8ccebc	0.0042971056
96	0x3d2f197c	0.042748913
97	0x3cf79917	0.030224366
98	0xbc5c140b	-0.013432513
99	0x3ba004e8	0.0048833974
100	0xbc2f8ac3	-0.010714236
101	0x3d0da275	0.03457876
102	0x3c9ed266	0.019387435
103	0xbbeabc9b	-0.007163597
104	0xbc159c58	-0.009131514
105	0x3c9bf2b7	0.019036634
106	0x3c9e47bd	0.019321317
107	0x3d068e74	0.032850698
108	0x3d24cf7d	0.04023694
109	0x3d019a1d	0.031641115
110	0x3d20f8c6	0.03929975
111	0x3c6008ee	0.013674004
112	0xbc1bd573	-0.0095113395
113	0xbc4cdb52	-0.012503462
114	0xbd22dc7e	-0.03976106
115	0xbd264d62	-0.04060114
116	0xbcafe52e	-0.021471586
117	0xbcb5f47a	-0.022211302
118	0xbd238413	-0.039920878
119	0xbca53253	-0.020165598
120	0x3ccaf8a3	0.024776762
121	0xbd9735dc	-0.0738332
122	0xbda73bd9	-0.08165712
123	0xbd00513a	-0.031327464
124	0xbc25272d	-0.010080141
125	0x3caaa5bc	0.020830981
126	0xbb3a529d	-0.002843059
127	0x3c1a59df	0.009420841
128	0xbd76fec8	-0.060301572
129	0x3aa09881	0.0012252481
130	0xbdbe899c	-0.09303591
131	0x3cb6b4d4	0.022303022
132	0xbbef5e8f	-0.0073049734
133	0xbc83117f	-0.015999554
134	0xbc19e200	-0.0093922615
135	0x3ce3518c	0.027748846
136	0xbb0a3ecd	-0.002109456
137	0xbd59ee18	-0.05320558
138	0xbdb6d7cc	-0.08927879
139	0x3bc9c7da	0.0061578574
140	0xbca977e8	-0.020687059
141	0xbce4cbea	-0.027929265
142	0xbd220194	-0.039552286
143	0x3a88187d	0.0010383275
144	0xbaeec862	-0.0018217678
145	0xbd741517	-0.059590425
146	0xbd3e25a8	-0.04642263
147	0xbd83312e	-0.06405865
148	0xbcbbbe75	-0.022917965
149	0x3c644ef4	0.0139348395
150	0x3d13e5de	0.03610789
151	0xbb80d349	-0.003931437
152	0x3c9a25e4	0.018816896
153	0xbcab41d8	-0.02090542
154	0x39d4c13b	0.0004057976
155	0xbbcca038	-0.0062446855
156	0xbc079a1d	-0.00827649
157	0x3bd60605	0.0065314793
158	0x3ac861a0	0.0015287884
159	0xbd210c35	-0.039318282
160	0x3cfc55ea	0.030802686
161	0x3d391964	0.04519023
162	0x3d806152	0.062685624
163	0x3d5c9d5e	0.053861015
164	0x3c97bebe	0.01852357
165	0x3cc66ef2	0.024222825
166	0x3cced6d8	0.02524893
167	0xbbd98cfb	-0.0066391206
168	0x3c602c71	0.013682471
169	0x3d4a4fe7	0.049392607
170	0x3d3d311e	0.04618942
171	0x3ce427eb	0.027851066
172	0x3d84897a	0.06471534
173	0x3c8c15f4	0.017100312
174	0x3a177bdb	0.0005778649
175	0xbd258bdb	-0.04041658
176	0x3d15ee8f	0.03660446
177	0x3ca66510	0.020311862
178	0xbcde2654	-0.027117886
179	0xbc8d34e9	-0.017237144
180	0x38c7f262	9.534207e-05
181	0x3c423033	0.011852312
182	0x3dae5081	0.08511449
183	0x3c4cc608	0.012498386
184	0x3b9fd61b	0.0048778183
185	0xbc9acd07	-0.018896593
186	0xbcb9a7f6	-0.022663098
187	0xbc22a928	-0.009928025
188	0x3caf16b9	0.02137314
189	0xbc43808d	-0.011932504
190	0x3c9ae34e	0.018907215
191	0x3bfaf78f	0.007658906
192	0x3c231a16	0.00995495
193	0x3c84aaa1	0.016194643
194	0x3c21bad1	0.009871201
195	0xbd2e7e1a	-0.04260073
196	0xbc30fe76	-0.010802856
197	0x3d4dc6a7	0.050238278
198	0x3c26bb75	0.010176529
199	0xbc42def2	-0.011893975
200	0xbcbb8add	-0.022893364
201	0x3cc75893	0.024334228
202	0x3cd01b96	0.025403779
203	0xbcaa179b	-0.02076321
204	0x3a0b1165	0.0005305021
205	0xbd05ed57	-0.032697048
206	0x3c1d32b5	0.009594609
207	0x3c830816	0.015995067
208	0xbc284d87	-0.01027239
209	0x3b9902eb	0.0046695373
210	0xbd63b1e5	-0.055589575
211	0x3b40c37e	0.0029413397
212	0xbc8d8b1d	-0.017278248
213	0xbbfade0d	-0.007655865
214	0xbd131ecc	-0.035918042
215	0xbcf0c8f0	-0.02939269
216	0x3cd8d078	0.026466593
217	0xbcbfca2b	-0.02341183
218	0xbd59a56b	-0.05313627
219	0xbd9093ca	-0.070594385
220	0x3c16d273	0.009205448
221	0x3bdb706a	0.0066967504
222	0xbcddc413	-0.027071035
223	0xbc781a45	-0.015142982
224	0xbcd333a0	-0.025781453
225	0x399b9ba2	0.0002967986
226	0xbd426650	-0.047460854
227	0x3b83fcf6	0.004027958
228	0xbc71ffb5	-0.014770438
229	0x3cb08223	0.021546429
230	0xbd6678ef	-0.056267675
231	0xbc617551	-0.013760881
232	0xbd0b91d5	-0.034074623
233	0xbc8756f3	-0.016520953
234	0x3cfab079	0.030601727
235	0xbc1bce47	-0.00950963
236	0xbc49ecd5	-0.012324532
237	0xbcd6934f	-0.02619329
238	0x3ca2e71e	0.019885596
239	0xbc7d2786	-0.015451318
240	0x3d7f1eb0	0.062285125
241	0x3cd1e7f8	0.025623307
242	0x3ae8127c	0.0017705704
243	0xbb90b42a	-0.0044160085
244	0xbbf79489	-0.0075555486
245	0x3d47d13b	0.048783522
246	0x3c965312	0.018350158
247	0x3d23d6f4	0.039999917
248	0x3ca10e0d	0.01966002
249	0xbc77508d	-0.015094888
250	0xbc987d9c	-0.018614583
251	0x3cd7319d	0.026268775
252	0x3d33db53	0.043910336
253	0x3da32d3a	0.07967611
254	0x3dada62b	0.0847896
255	0x3d0066b1	0.031347934

bias f4 [120]
0	0x3c98685a	0.018604446
1	0xbbf3cf1b	-0.0074404604
2	0x3c7b6d9f	0.01534596
3	0xbd32cca3	-0.043652188
4	0x3ad8d511	0.0016542991
5	0x3a3626fe	0.00069485593
6	0xbc90c765	-0.017673204
7	0xbd1221af	-0.035676654
8	0xbd52d97e	-0.051476948
9	0x3c151078	0.009098165
10	0x3d3ee350	0.0466035
11	0x3c33e08e	0.010978831
12	0x3d15a967	0.036538508
13	0x3d1bba12	0.038019247
14	0xbc655e39	-0.013999515
15	0xbcfdca88	-0.030980363
16	0x3c9c4f78	0.019080862
17	0x3c75df84	0.015006904
18	0x3d236078	0.03988692
19	0xbcf846b9	-0.03030716
20	0x3bfb2c80	0.007665217
21	0xbcaaac14	-0.020834006
22	0x3cac47cd	0.021030331
23	0xbd1369ed	-0.03598969
24	0xbc10ab27	-0.008829868
25	0x3c75dc2c	0.015006106
26	0xbb97caae	-0.0046323156
27	0xbbd1f4f2	-0.0064073736
28	0x3cb721ed	0.022355044
29	0xbc8b8c2e	-0.017034616
30	0x38c2c214	9.286791e-05
31	0xbcdff16d	-0.0273368
32	0x3cc8a85a	0.024494339
33	0x3bbb194e	0.0057098037
34	0x3c0f3045	0.008739536
35	0xbbda472c	-0.0066613164
36	0x3be61662	0.007021711
37	0xbd034535	-0.032048423
38	0x3d60c952	0.054879494
39	0x3ab10a8a	0.0013507169
40	0x3c2594ed	0.010106307
41	0xba9b9ce8	-0.0011872323
42	0xbbce5958	-0.0062972717
43	0xbc71301b	-0.014720942
44	0xbc36ff4f	-0.011169269
45	0xbc184d5a	-0.009295786
46	0xbacb7ee0	-0.0015525483
47	0x3cd053f3	0.025430655
48	0x3c82fd54	0.015989937
49	0xbd159f17	-0.036528673
50	0x38a0fcc2	7.676474e-05
51	0xbc2811ec	-0.010258179
52	0xbc0e0866	-0.0086689945
53	0x3b2cb1bb	0.0026351053
54	0xbcda215f	-0.02662724
55	0x3cbc23fa	0.022966374
56	0x3a2a6cd3	0.00065012014
57	0x3c08f2f2	0.008358704
58	0x3cfef5db	0.031123092
59	0xbd1b62be	-0.037935965
60	0x3cc6a594	0.024248876
61	0x3c45ef7a	0.012081021
62	0x3d12893d	0.035775412
63	0xbc464294	-0.012100834
64	0xbabd5d24	-0.0014447314
65	0xb9d745da	-0.0004106004
66	0xbd1e72e8	-0.038683802
67	0xbc9c4d63	-0.01907987
68	0x3cc97213	0.024590528
69	0xbd077a90	-0.03307587
70	0xbc63e8e9	-0.013910511
71	0xbcf629fd	-0.030049318
72	0x3c91d739	0.017802821
73	0x3b100b18	0.0021979269
74	0xbca63474	-0.020288683
75	0xbc008e26	-0.007846391
76	0x3bb3728e	0.0054763025
77	0xbcfc4ab9	-0.03079735
78	0xbaafb3a4	-0.0013404978
79	0xbb033379	-0.0020019694
80	0x3cf5bae1	0.029996337
81	0x3d06c955	0.03290685
82	0x3cf17f71	0.029479714
83	0x3cf57d03	0.029966837
84	0x3c26afac	0.010173719
85	0xbbe55e01	-0.0069997315
86	0xbb827a70	-0.003981881
87	0xbcfa32e2	-0.030541841
88	0xbbb60197	-0.0055543887
89	0x3d108b34	0.035289004
90	0x3c8921f1	0.016739817
91	0xbcaa2205	-0.020768175
92	0xbaad5405	-0.0013223892
93	0x3b7afecc	0.0038298843
94	0x3d12abec	0.03580849
95	0xbcb5dc1b	-0.022199681
96	0xbc974dc5	-0.0184697
97	0xbd0fe89a	-0.035133936
98	0x3d4bc8b7	0.049751963
99	0xbcb86d8d	-0.022513175
100	0x3bd45587	0.006479922
101	0x3ce0f4e4	0.027460523
102	0x3a841cbb	0.0010079363
103	0xbc98e17a	-0.018662203
104	0xbc28b13d	-0.010296163
105	0xbb660f88	-0.0035104472
106	0x3c1ff489	0.009762892
107	0xbcfcf484	-0.030878313
108	0x3d2077c1	0.039176706
109	0xbc4821b0	-0.012215063
110	0xbcfcf3f6	-0.030878048
111	0xbc12e86c	-0.0089665465
112	0x3c3716f4	0.011174906
113	0xbce29fc9	-0.027664082
114	0xbc9603d9	-0.018312382
115	0x3c57a27e	0.0131613
116	0xbc08bcc7	-0.008345789
117	0x3d505d4d	0.05087023
118	0xbce9f86c	-0.02856084
119	0x3c257df6	0.010100832

weight f4 [84, 120]
0	0xbd35862e	-0.044317417
1	0xbdaee05e	-0.085388884
2	0x3d52dc94	0.05147989
3	0x3d07f0c3	0.033188593
4	0x3d0d93a1	0.034564618
5	0xbda8acda	-0.08236094
6	0x3ce2010c	0.02758839
7	0xbdffaa91	-0.12483705
8	0x3da2ed2b	0.079553925
9	0x3dbfe624	0.09370068
10	0xbe07afe6	-0.13250694
11	0xbdd69dc7	-0.104793124
12	0xbe0e3c81	-0.13890268
13	0xbd46ae0f	-0.04850584
14	0x3e2d4532	0.16920927
15	0xbce11755	-0.027476946
16	0xbe3ad8d6	-0.18246779
17	0x3ceddee9	0.029036956
18	0xbddfd59e	-0.10929416
19	0x39cd87ee	0.00039201922
20	0x3d95260b	0.07282647
21	0xbdac6932	-0.08418502
22	0xbe2e132e	-0.16999504
23	0xbd24547f	-0.040119644
24	0xbd00f37b	-0.0314822
25	0x3da39eba	0.07989259
26	0x3b7cd326	0.0038578003
27	0xbcd3ddb5	-0.025862554
28	0xbcd628f7	-0.02614258
29	0xbddb5027	-0.10708647
30	0xbd2f668a	-0.0428224
31	0xbdedef7a	-0.11617942
32	0xbcf76aec	-0.030202352
33	0xbcb51f35	-0.022109607
34	0xbd46b9bf	-0.048516985
35	0x3df83040	0.12118578
36	0xbb2e5db2	-0.002660614
37	0x3d091559	0.033467624
38	0xbba93a27	-0.005164403
39	0x3da93cc2	0.08263542
40	0x3ddf1946	0.108934924
41	0x3d492991	0.049111906
42	0xbd00ab66	-0.03141346
43	0x3c5381eb	0.012909393
44	0xbbb66423	-0.0055661364
45	0xbc741394	-0.014897246
46	0xbda1e824	-0.079056054
47	0x3d22ddc5	0.039762277
48	0xbda3ce91	-0.07998384
49	0xbc086e1f	-0.008327036
50	0x3d865733	0.06559601
51	0xbdfee0b4	-0.124452025
52	0xbd04f34e	-0.032458596
53	0x3d282433	0.041050147
54	0x3d89ed12	0.06734671
55	0xbd39a95f	-0.04532754
56	0x3d2253ba	0.03963063
57	0x3d0b7655	0.034048397
58	0x3d6f91d2	0.058488674
59	0xbde06559	-0.109568305
60	0x3d2f53c4	0.042804495
61	0xbdca1c86	-0.09868722
62	0x3dfe6056	0.12420718
63	0xbd8cdf5c	-0.0687854
64	0x3e429b15	0.19004472
65	0x3dbc994d	0.09208927
66	0xbd7aed8a	-0.06126169
67	0xbcc970fe	-0.024590012
68	0xbce82995	-0.02834014
69	0xbd96537a	-0.07340141
70	0xbc1b09cd	-0.009462786
71	0x3e154283	0.14576153
72	0x3dfbd939	0.12297291
73	0xbc361292	-0.011112826
74	0xbda340eb	-0.079713665
75	0x3dc24967	0.09486657
76	0x3dea996b	0.114550434
77	0xbd5e1912	-0.054223128
78	0x3dbd6732	0.092481986
79	0x3ddb470b	0.1070691
80	0x3cf5f9d6	0.030026358
81	0xbcfb122f	-0.030648319
82	0xbe0497e2	-0.12948564
83	0xbd26e1e9	-0.04074279
84	0x3d311df0	0.04324144
85	0x3c881523	0.016611641
86	0x3ca62512	0.020281348
87	0x3b8ec237	0.0043566483
88	0x3caeec45	0.021352896
89	0x3d050651	0.032476727
90	0xbdc042bf	-0.09387731
91	0x3d7ba9f2	0.06144137
92	0xbd7d77cc	-0.061881825
93	0xbc0f4f1c	-0.0087468885
94	0xbde8b80a	-0.11363228
95	0x3d474ad4	0.048655346
96	0x3d0814cf	0.03322297
97	0x3e143924	0.14474922
98	0xbd9c5ba6	-0.07634668
99	0xbd6696fb	-0.05629633
100	0x3d4c8c7c	0.049938664
101	0xbdcc9f69	-0.099913426
102	0x3d941e6a	0.072323635
103	0x3dc30e90	0.09524262
104	0x3d2146f4	0.039374307
105	0x3d46bb8f	0.048518714
106	0xbc22a71f	-0.00992754
107	0xbc3dbdd2	-0.011580901
108	0xbd0939a1	-0.033502225
109	0xbc757864	-0.014982317
110	0xbdd4c25b	-0.10388633
111	0xbdb4c64a	-0.08826883
112	0xbe00a1b0	-0.12561679
113	0x3d9df8fe	0.07713507
114	0x3cac5162	0.0210349
115	0x3d26dd37	0.04073831
116	0x3c455a77	0.012045494
117	0xbe33d281	-0.1756077
118	0x3c66a879	0.014078253
119	0xbe0162a1	-0.1263528
120	0x3ce23b25	0.027616093
121	0x3d1775f8	0.03697774
122	0x3d4daf27	0.050215866
123	0xbda7e054	-0.08197084
124	0x3e68e083	0.22741894
125	0x3db4de9d	0.088315226
126	0xbdcc4a90	-0.09975159
127	0xbd45d839	-0.04830191
128	0xbe08fdf3	-0.13378124
129	0xbd48bee4	-0.049010172
130	0xbdab2dd1	-0.08358348
131	0xbcb6d072	-0.022316191
132	0x3d3f855b	0.046758037
133	0xbddd6da8	-0.10811931
134	0x3bf2c0b2	0.007408225
135	0x3c46d437	0.012135557
136	0x3b1851b0	0.002324205
137	0x3d26fd66	0.040769003
138	0x3cc8a946	0.024494778
139	0x3d8972dc	0.06711361
140	0x3c82778e	0.015926149
141	0xbca3083c	-0.019901387
142	0x3c02a33b	0.0079734875
143	0xbce78bc9	-0.028264897
144	0xbdf9631b	-0.12177106
145	0x3ca38456	0.019960564
146	0xbb8bae97	-0.004262756
147	0xbcb7b0d1	-0.02242318
148	0xbd853a83	-0.06505301
149	0x3dd46e37	0.10372584
150	0x3deb3512	0.11484732
151	0x3dab4886	0.08363442
152	0xbdeb5992	-0.114916936
153	0xbc5f22b1	-0.013619111
154	0x3d4f292e	0.05057638
155	0x3c4b8167	0.012420989
156	0xbcd50d77	-0.026007397
157	0xbde57ebd	-0.11205814
158	0xbddb99d9	-0.107227035
159	0x3d10355e	0.035207145
160	0x3d2d3d41	0.042294744
161	0x3cbcece1	0.023062171
162	0xbd6e6e17	-0.05821046
163	0xbdf22a90	-0.118245244
164	0x3e3abc0f	0.18235801
165	0x3d890b8f	0.06691658
166	0x3cc612b5	0.024178842
167	0x3d62689f	0.055275556
168	0xbceb1b81	-0.028699638
169	0x3e060dad	0.13091154
170	0x3c5377e4	0.012907002
171	0x3c5edbf2	0.013602244
172	0xbdc3c1bc	-0.09558436
173	0x3e176252	0.147836
174	0x3e1540a6	0.14575443
175	0xbd1e1336	-0.03859254
176	0xbd97fd41	-0.07421351
177	0x3c4d538b	0.012532125
178	0xbd7ef28c	-0.06224303
179	0xbe160eac	-0.14654034
180	0xbdeccbe2	-0.11562325
181	0x3de0c37e	0.10974787
182	0x3cfddab4	0.030988075
183	0xbd0e69f1	-0.034769002
184	0xbd906a99	-0.07051582
185	0x3d4866b5	0.048926074
186	0x3dea440e	0.11438762
187	0xbd1ce1a1	-0.038301114
188	0x3c17d046	0.009265965
189	0x3dc44dfb	0.09585186
190	0xbca574f7	-0.020197375
191	0xbd8d2f73	-0.06893816
192	0x3c9a04d3	0.018801128
193	0xbc30089f	-0.010744243
194	0x3dddf34c	0.10837421
195	0x3df0d1d7	0.11758774
196	0xbd7dc0fe	-0.06195163
197	0x3d6fc359	0.058535907
198	0xbd1c2552	-0.03812153
199	0xbd2906c4	-0.041266218
200	0x3df17c2f	0.11791264
201	0x3d85d728	0.065351784
202	0xbcc9a9e5	-0.024617145
203	0xbe16e25c	-0.14734787
204	0x3dc53b04	0.09630397
205	0x3e8277dd	0.25482073
206	0x3dcc187f	0.0996561
207	0xbbc2d0d1	-0.005945303
208	0x3db77338	0.08957523
209	0xbdd2dec0	-0.102963924
210	0xbe0211bc	-0.12702078
211	0xbda9dea5	-0.08294419
212	0x3c415110	0.011799112
213	0xbd16b609	-0.036794696
214	0x3d205739	0.039145682
215	0xbc694434	-0.014237452
216	0x3dbe3ca6	0.092889115
217	0x3c694449	0.014237472
218	0x3d036bb3	0.03208513
219	0xbcaa02be	-0.02075326
220	0xbdecf13b	-0.115694486
221	0x3ce8b33d	0.02840578
222	0x3de53e00	0.11193466
223	0xbd57f4b5	-0.052723605
224	0x3cb30970	0.021855086
225	0xbe130b12	-0.14359692
226	0x3c6aadf5	0.014323701
227	0xbd1e4b07	-0.03864577
228	0xbcd521a8	-0.026017025
229	0xbd4f75cd	-0.050649453
230	0x3e0191a5	0.12653215
231	0xbde709d3	-0.11281171
232	0xbe4f454c	-0.20241278
233	0x3d4feebe	0.05076479
234	0x3c9f5e50	0.019454151
235	0xbc15ea22	-0.00915006
236	0x398ea7bb	0.0002720932
237	0x3cf3bc97	0.029753013
238	0xbdaac3a6	-0.08338098
239	0xba12f4e7	-0.00056059513
240	0x3dcd88cd	0.10035858
241	0x3d812acd	0.06306992
242	0x3d0a95f4	0.033834413
243	0x3db96cb7	0.09053939
244	0xbd9cac43	-0.07650044
245	0x3d9e7da8	0.07738811
246	0x3d4aaf5d	0.049483646
247	0x3aa77b2d	0.0012777798
248	0xbe244f05	-0.16045769
249	0x3d028c4a	0.03187207
250	0x3e0588da	0.13040486
251	0xbc2ef4dc	-0.010678496
252	0xbd0f6f1a	-0.035018064
253	0x3d6bf22d	0.057604004
254	0xbd440236	-0.04785367
255	0xbd643b86	-0.05572083

bias f4 [84]
0	0xbd96c870	-0.07362449
1	0x3d726db9	0.05918667
2	0xbd2b81d0	-0.041871846
3	0x3d429888	0.047508746
4	0x3e055ebd	0.13024421
5	0xbc82d7c8	-0.015972033
6	0xbdc42427	-0.09577208
7	0x3d0f24fe	0.034947388
8	0x3d8d8ea0	0.06911969
9	0x3d94dd4a	0.0726877
10	0xbd261e20	-0.040556073
11	0xbd437dc4	-0.04772736
12	0x3d1f26ea	0.03885547
13	0xbcc68334	-0.024232484
14	0x3d98b4ef	0.07456385
15	0xbc84723b	-0.01616775
16	0xbcb5f3c7	-0.022210969
17	0x3cb28bb8	0.021795139
18	0xbccf7f00	-0.025329113
19	0x3cc5e89c	0.024158768
20	0xbd0a6f6e	-0.033797674
21	0x3d1db5ae	0.03850334
22	0xbdbbede7	-0.09176236
23	0xbd1884d1	-0.03723604
24	0xbd85a076	-0.06524746
25	0xbd10aac1	-0.035319094
26	0x3dd4cb66	0.10390358
27	0x3dee4c83	0.11635687
28	0x3e02a738	0.12759101
29	0xbd1e7937	-0.03868982
30	0x3cee17cd	0.029064083
31	0x3dc53be7	0.09630566
32	0xbd950130	-0.07275617
33	0xbc2a0a3f	-0.010378419
34	0xbcf570d6	-0.02996103
35	0x3c8ba86e	0.017048087
36	0x3da6b2c2	0.08139564
37	0x3c3f0de3	0.011661026
38	0xbdf400fd	-0.11914251
39	0x3d40b736	0.047049724
40	0x3d23e57a	0.040013768
41	0xbdb7f374	-0.08981982
42	0x3da4c000	0.080444336
43	0xbdac76ee	-0.084211215
44	0x3ded07d8	0.11573762
45	0x3da29bd4	0.07939878
46	0x3d8e827f	0.06958484
47	0x3c3441be	0.011002002
48	0x3d9b6fd6	0.075896904
49	0xbba5668f	-0.0050476263
50	0xbda813a4	-0.08206871
51	0x3dc78cef	0.09743678
52	0x3cbf7b0c	0.023374103
53	0xbd4c772e	-0.049918346
54	0xbd57e1e4	-0.05270566
55	0xbc001dd7	-0.007819614
56	0xbd147c69	-0.03625146
57	0x3cf751ee	0.030190434
58	0xbd9d6d45	-0.07686857
59	0xbdb0fff2	-0.08642568
60	0x3d40f176	0.047105275
61	0xbc881c71	-0.016615124
62	0x3bc009d4	0.0058605466
63	0xbd0188c5	-0.031624574
64	0x3d31a739	0.043372367
65	0xbd232186	-0.039826892
66	0xbd7353ce	-0.059406094
67	0x3d2b5344	0.041827455
68	0xbdca9be2	-0.098930135
69	0x3d107542	0.035268076
70	0x3e0eef45	0.13958462
71	0x3ccab5b7	0.024744852
72	0xbd480ce3	-0.048840415
73	0x3d203698	0.039114565
74	0x3ad4b51a	0.0016228289
75	0x3d945b5e	0.072439894
76	0x3c495443	0.012288156
77	0x3db50f32	0.08840789
78	0x3d8783cc	0.06616935
79	0xbd733d4e	-0.059384637
80	0xbd6e5a5f	-0.058191653
81	0x3c2fcc2c	0.010729831
82	0x3ddf1b2e	0.10893856
83	0xbdc4ead0	-0.096150994

weight f4 [6, 84]
0	0x3dc55f63	0.09637334
1	0xbe6da0b0	-0.23205829
2	0x3e1e96a2	0.1548715
3	0x3d2fd12d	0.042924095
4	0x3dc9d861	0.09855724
5	0x3dc326f5	0.09528915
6	0xbe4fc0d5	-0.20288403
7	0xbca017b9	-0.019542562
8	0x3e4dfe88	0.20116627
9	0x3c4362f5	0.011925449
10	0xbe7ca4df	-0.24672268
11	0xbded3363	-0.11582067
12	0xbdcb766f	-0.09934699
13	0x3e740f1b	0.23833887
14	0x3e24fe7e	0.16112706
15	0xbc69488a	-0.014238486
16	0x3e73d6d2	0.23812416
17	0xbe19d4f9	-0.15022649
18	0xbd2a5a4c	-0.04159002
19	0xbe089b84	-0.13340575
20	0xbe9b70e0	-0.30359554
21	0x3d4e6462	0.0503887
22	0xbe31dabe	-0.173686
23	0xbe63bd6f	-0.22240232
24	0xbe466b69	-0.19376911
25	0xbceab8fe	-0.028652664
26	0xbe5e800b	-0.21728532
27	0xbd1b2125	-0.037873406
28	0xbc8d28a9	-0.017231302
29	0x3e3c4314	0.18384963
30	0x3d75d5e5	0.06001844
31	0xbe57f96f	-0.21091245
32	0x3dcca6e6	0.09992771
33	0xbe7f3af5	-0.24924834
34	0xbe6bbf0c	-0.23022097
35	0xbe701551	-0.23445632
36	0x3e0f71f6	0.14008316
37	0xbe78abc2	-0.2428427
38	0xbe718425	-0.23585565
39	0xbb55dc8d	-0.003263268
40	0xbe869750	-0.26287317
41	0x3cc25fe6	0.023727369
42	0x3e5b0e0c	0.21392077
43	0xbe7452f6	-0.23859772
44	0x3e7af64e	0.2450802
45	0x3e864682	0.26225668
46	0x3df0b66b	0.117535435
47	0x3e69e459	0.22841014
48	0x3df32996	0.11873166
49	0x3dd67d59	0.10473127
50	0x3d28b680	0.04118967
51	0xbe28c732	-0.16482237
52	0x3e72f746	0.2372714
53	0xbe390e67	-0.180719
54	0xbe329706	-0.17440423
55	0x3e494d32	0.19658354
56	0xbe75e246	-0.24012098
57	0x3d6b755f	0.05748498
58	0xbe044393	-0.12916403
59	0xbe666479	-0.22499265
60	0xbda6ea0e	-0.08150111
61	0xbe7ab59a	-0.24483338
62	0x3e80c99e	0.25153822
63	0x3e800868	0.25006413
64	0x3e1f2cfa	0.15544501
65	0x3cb36292	0.021897588
66	0xbe61782b	-0.22018497
67	0x3dd00c3b	0.10158583
68	0x3d23f007	0.04002383
69	0x3b49b1f3	0.0030776232
70	0x3e6dc9d6	0.23221526
71	0xbe58a0bd	-0.21155067
72	0x3e634b3f	0.22196673
73	0x3d53dd19	0.051724527
74	0x3dab36b2	0.08360042
75	0x3e153d84	0.14574248
76	0x3e42441d	0.18971296
77	0x3cf4c53f	0.02987921
78	0xbe552f72	-0.2081888
79	0x3e4726ba	0.19448367
80	0x3e852bbf	0.26009938
81	0x3d0e1870	0.034691274
82	0x3cdc4e35	0.02689276
83	0x3e96ed4c	0.29477918
84	0x3e16297e	0.14664266
85	0x3debf13b	0.115206204
86	0xbd2c0502	-0.041996963
87	0xbe9443a4	-0.28957856
88	0xbe0b11a0	-0.13580942
89	0xbe94bdf3	-0.2905117
90	0xbe4d0995	-0.20023187
91	0x3e0636d4	0.13106853
92	0xbdbb1bb7	-0.091361456
93	0xbd33b268	-0.043871313
94	0x3d4b8c1f	0.049694177
95	0xbe187ef4	-0.14892179
96	0x3e4271a3	0.18988661
97	0xbe117292	-0.14203861
98	0xbe4a5a5f	-0.19761036
99	0x3e3be983	0.18350796
100	0xbdb095d1	-0.08622325
101	0xbd349e72	-0.044096418
102	0x3e9173f6	0.28408784
103	0x3e503b95	0.20335229
104	0x3d7cb882	0.061699398
105	0x3dfae3ab	0.122504555
106	0xbe3b8ff3	-0.18316631
107	0x3da99743	0.08280804
108	0x3dd74b25	0.105123796
109	0xbc5e4e10	-0.013568416
110	0x3ddd028b	0.10791501
111	0xbe2bbd24	-0.1677137
112	0x3dd0c5d7	0.10193985
113	0xbdc28a05	-0.094989814
114	0xbd84d429	-0.06485779
115	0x3d90be81	0.07067586
116	0x3ea8b5a9	0.32951096
117	0x3d9f26d8	0.07771081
118	0x3e06521d	0.13117261
119	0x3e3b087e	0.18264958
120	0x3d78c5f6	0.060735665
121	0x3d475e0c	0.048673674
122	0xbe6c0894	-0.23050147
123	0x3dd0f2c3	0.10202553
124	0xbde7f31a	-0.11325665
125	0x3ea0bad3	0.31392536
126	0xbe3b4c12	-0.18290737
127	0x3d4a306c	0.049362585
128	0x3e0f18e9	0.13974346
129	0x3e6d6d0e	0.23186132
130	0xbe14a40c	-0.14515704
131	0xbe0eff65	-0.13964613
132	0xbe367a73	-0.17820148
133	0x3e08de5c	0.13366073
134	0x3e9421a5	0.2893192
135	0x3e000371	0.12501313
136	0x3e185ba3	0.14878707
137	0xbdea63ef	-0.11444842
138	0x3e32105a	0.1738905
139	0xbe153008	-0.14569104
140	0x3df4cef1	0.119535334
141	0x3db4330f	0.08798801
142	0x3e4a277b	0.19741623
143	0x3e2cb541	0.16866018
144	0x3e20c34b	0.15699498
145	0x3e1bcd0b	0.15214936
146	0xbe06190e	-0.13095495
147	0x3e80aa80	0.2513008
148	0x3d3a846e	0.04553645
149	0xbe098ca6	-0.1343256
150	0x3d3ce071	0.04611248
151	0xbdbeb609	-0.09312064
152	0x3e56f25f	0.20990895
153	0x3e445c1e	0.19175765
154	0x3e795ed6	0.24352583
155	0xbd8bc065	-0.06823806
156	0x3e1ce165	0.15320356
157	0x3d2cf4d8	0.04222569
158	0xbcc07cc1	-0.023496987
159	0xbe3bc657	-0.1833738
160	0xbdd79572	-0.10526551
161	0x3e80e05a	0.25171167
162	0x3e510232	0.20410994
163	0xbe37b41a	-0.17939797
164	0xbdd529a3	-0.10408332
165	0xbe3dfacd	-0.18552704
166	0xbe96c6a2	-0.2944842
167	0xbd8e1e55	-0.06939379
168	0x3d71081f	0.058845636
169	0xbd3a1f9e	-0.04544031
170	0xbe400ef4	-0.18755704
171	0x3e384319	0.17994346
172	0xbe870880	-0.26373672
173	0x3e1426c8	0.14467919
174	0x3e156099	0.1458763
175	0xbe534cff	-0.2063484
176	0xbe4c8f7e	-0.19976613
177	0x3e7a2630	0.2442863
178	0x3dbe3a7b	0.09288498
179	0xbe688bc7	-0.22709571
180	0xbe8fd7d4	-0.2809435
181	0xbd816ecb	-0.0631996
182	0x3dec686c	0.115433544
183	0x3e7e5a06	0.24839029
184	0xbda2f930	-0.07957685
185	0xbe6f426d	-0.23365183
186	0xbe8cdc19	-0.2751167
187	0xbe75b2e3	-0.23994021
188	0xbd8febd4	-0.070274025
189	0x3e5c377c	0.2150554
190	0xbe5b7b04	-0.21433645
191	0xbe50326e	-0.20331737
192	0x3e2bd871	0.16781785
193	0xbc23cba3	-0.009997281
194	0x3de21834	0.11039773
195	0x3e3102c1	0.17286207
196	0xbc097c77	-0.008391491
197	0xbe2ce2da	-0.16883412
198	0x3b0b4832	0.0021252749
199	0x3db5f3fd	0.08884428
200	0xbe7a7f17	-0.24462543
201	0x3e3116a0	0.17293787
202	0x3b46149b	0.0030224684
203	0x3dee4f8c	0.11636266
204	0x3db649ba	0.08900781
205	0x3de36559	0.11103315
206	0x3e0d4771	0.13796784
207	0x3e81af68	0.25329137
208	0x3e271488	0.16316426
209	0xbe8b9af7	-0.27266666
210	0xbd2531b9	-0.040330622
211	0x3cb6b2f6	0.022302132
212	0x3d9e88fd	0.07740972
213	0xbe1f71cb	-0.15570752
214	0xbdca5ac7	-0.09880596
215	0xbe6b8ba9	-0.23002495
216	0x3cc3470e	0.023837592
217	0x3e3d06f7	0.18459688
218	0xbe914845	-0.2837545
219	0x3d79686a	0.060890593
220	0x3e59c12b	0.21265094
221	0x3dbed716	0.09318368
222	0xbe4cba4d	-0.19992943
223	0xbdad4244	-0.08459905
224	0x3e02bcf8	0.12767398
225	0x3e2e150d	0.17000218
226	0xbdb98e60	-0.09060359
227	0xbe10ae99	-0.14129104
228	0x3e2be581	0.16786768
229	0x3e0255cb	0.1272804
230	0xbdb368d3	-0.08760228
231	0xbde24cd9	-0.11049814
232	0x3dd7c63c	0.10535857
233	0x3e3e4048	0.18579209
234	0x3e5e6c23	0.21720938
235	0xbe65dec1	-0.22448255
236	0xbdcb8548	-0.09937531
237	0x3e61a01c	0.22033733
238	0xbe57b7a7	-0.21066152
239	0xbe47b7ca	-0.19503704
240	0xbe072a5c	-0.13199753
241	0x3e191197	0.14948116
242	0xbe14d36f	-0.1453378
243	0xbdefec4a	-0.117149904
244	0xbe35f211	-0.17768122
245	0xbe7c27c2	-0.24624541
246	0xbe71a6fe	-0.23598859
247	0x3d3b6b06	0.045756362
248	0xbdce2e3b	-0.100674115
249	0xbdb35be7	-0.08757763
250	0x3e605e12	0.21910885
251	0xbd4a2ba5	-0.04935803
252	0xbe19481a	-0.14968911
253	0xbe7e7396	-0.2484878
254	0xbcc93bb0	-0.024564594
255	0xbd497b16	-0.04918965

bias f4 [6]
0	0x3c893336	0.016748052
1	0xbd44d3cc	-0.048053548
2	0x3d7eacc3	0.062176477
3	0x3d56d8dd	0.05245291
4	0xbcebeaab	-0.028798422
5	0xbd2fb6e6	-0.042899035
