202304182223_bestmodel.pt (torch, 436667 bytes, 10 tensors)

weight f4 [6, 3, 5, 5]
00000000: eb10 0cbe b777 a0bc ec8c 293d 40e5 423d
00000010: 60da f1bd 4e27 86bd 93c3 babd cd0c 09be
00000020: 5c59 edbd 901a 9fb9 534d 12be ff1f 653d
00000030: e1be 91bd bacb 263c d327 d6bd cd21 dbbd
00000040: bdbd 19bc 0c4d 30bd 9533 e7bd 1892 833d
00000050: ca8b b8bd 73b0 c7bd e15b 653d 01d2 bcbd
00000060: e1a4 06be dafa 073d 53ef 0a3d cec1 c2bd
00000070: dad3 00be e43d 2cbd 30d4 f6bd bb82 11bc
00000080: 047c 09be bfe6 4dbe e54c 24be 1107 6ebe
00000090: 22f6 c9bc e940 32be 6b4b 5abe b380 f4bd
000000a0: be8b 7ebe a76b 2dbe 2645 a7bc 9087 20be
000000b0: 20ba 99bd e6bc 0bbe 6bd3 6bbc 81b7 9bbd
000000c0: 6db4 3ebe d0f3 babc f28d adbd a221 03be
000000d0: 070b 2d3d 0a01 0bbd 0d40 a0bd af86 9bbc
000000e0: 6de2 27be 0e84 d2ba bbeb 47be 040d 15be
000000f0: 4b59 07be bc4e c7bd 81af 06be 9a0a 16be
00000100: 6275 0bbe 6066 633c f9f7 533d 219d 8ebb
00000110: 30fe 19bd cfee 143b 3cd2 86bc c2e6 debd
00000120: c2a6 c1bd dcc9 53bb 9a28 7cbd 8545 bbbd
00000130: 49c2 423d 75bc ae3c f8ca 87bd 4791 c9bd
00000140: 1c0e 21bd b500 9a3c 2003 b53d 2d89 a03d
00000150: 1013 993d 5a2c 933d 19bc 7db9 2523 e53d
00000160: cfa1 9f3d a8b7 b1bd 5807 e6bc 3c46 c13c
00000170: 9b51 973d 79a6 243d 46e7 f5bd eb66 233d
00000180: 5a4b 1d3d 85ad 24bd 140a c93d 5aa5 febc
00000190: 37e8 2d3c 1c1f 3dbd 79fb 99bd 3ee8 6ebd
000001a0: ea62 02be c549 aa3c 378a c33d 1c4b e1b9
000001b0: 581f aebd dc3a 17be e219 71bc 696b d93d
000001c0: 39ed ce3d 6190 8e3d 9fea 873d 81b0 ebbc
000001d0: 837f 93bd 2d98 813c 6e29 4d3b e621 86bd
000001e0: 3d0e 933d c3da 7a3c 5f00 043e d2eb f5bc
000001f0: 819d ddbd 2cca c33c f540 8fbd c507 f23d
00000200: 2f46 d2bd 08aa 003c f7d6 bdbc f1cd 5b3d
00000210: 3755 ed3c df4c 1f3b fdd7 c2bd 87eb 3e3e
00000220: 6079 173e b142 32bb ed53 5ebd 5e2a 483d
00000230: b423 2b3e 05a2 df3d bc18 803d be42 7fbd
00000240: dd14 86bd d9bc 873c 0af1 2d3e d490 f5bb
00000250: 3d94 0c3e a1a5 8ebd 29ba 0a3e ed70 953d
00000260: 1936 833d 63b1 003e 6928 47bc c786 033e
00000270: 1458 b9bc 2e15 793d cb52 d73d e7a1 ad3d
00000280: a324 063e 7a21 13bd 64fe 933d b047 0ebc
00000290: d51b 273a cd3f da3c c2be dc3d 2b1a 043e
000002a0: c58c 3abd 139d 113e 2fad af3d f969 353d
000002b0: a813 ec3d 7a58 56bd 7642 1b3e 6ea9 f5bc
000002c0: 905f ab3d ec0e 2c3d e550 b33c 612e 14bd
000002d0: 5362 d8bd aab2 323c 1b6b 053c 7a70 5e3d
000002e0: 3235 c83d d720 dd3c c80b 84bd 5e30 a13d
000002f0: 0a58 a53d 0dfe 81bd 53d8 3f3d eba6 e23d
00000300: 85d1 be3c 4e48 98bc a5f6 51bb dc7a 73bd
00000310: 5841 34bc e630 37bd 05ab 1abd f23f 5dbd
00000320: e1d3 9bbd d842 17bd d7d5 e5bd e138 99bd
00000330: e0fe a63d 0801 883d 1ce9 c4bd 0b49 e8bd
00000340: 4526 f5bd 8f9b b6ba 111b c4bc f633 18bd
00000350: c7e9 9dbd 4674 6ebd 75bb 39bd 4da2 503c
00000360: 2f8c ae3d e922 26bc 9977 ccbd 3bf8 913d
00000370: 589d cfbd fd9d d43d 2243 d9bc b81d 94bd
00000380: c045 e7bd 4bfd b7bd 2e10 14bd 2940 673d
00000390: 0a24 483d 52d3 dbbd e495 43bd bfb2 8e3b
000003a0: ee7b 92bd 5bfc 6a3d 749a 813d 9830 99bd
000003b0: 7bf7 a13d 038a 11bd 82cc 3c3d 84c3 c4bd
000003c0: b089 e6bd 7a8d ef3c 9b11 98bd b299 f7bd
000003d0: 8001 ddbd 33b6 49bd f4d6 333d b849 10be
000003e0: 4788 f23c 9f69 3abe f79c dd3d 5a64 d23d
000003f0: 27b6 0abd 5257 953d 3d80 babb 183e a4bd
-0.13678329 -0.019588334 0.04139416 0.04758191 -0.1180923 -0.065504655 -0.09119334 -0.1338379
-0.115893096 -0.00030346634 -0.1428731 0.055938717 -0.071164854 0.010180408 -0.104568146 -0.10699806
-0.009383616 -0.043042228 -0.11289135 0.064243495 -0.09011038 -0.09750452 0.055995826 -0.092197426
-0.13148834 0.033198215 0.033919644 -0.095096216 -0.12580815 -0.04205121 -0.1205219 -0.008881266
-0.13426214 -0.20107554 -0.16044958 -0.23244883 -0.024653498 -0.17407574 -0.21317832 -0.1193861
-0.24857995 -0.16935597 -0.020418715 -0.15676713 -0.07506204 -0.13646278 -0.014393668 -0.0760336
-0.18623514 -0.022821337 -0.084743395 -0.12805799 0.042246845 -0.033936538 -0.07824717 -0.01898512
-0.16394968 -0.0016061084 -0.19523518 -0.14555746 -0.13217656 -0.09731814 -0.13152887 -0.14652482
-0.13618997 0.013879389 0.051750157 -0.0043522273 -0.037595928 0.0022725349 -0.01645767 -0.10883857
-0.09455635 -0.0032316362 -0.06156216 -0.09144119 0.047548566 0.021330098 -0.0663051 -0.098421626
-0.039320096 0.018799165 0.08838487 0.07838664 0.07474339 0.07186194 -0.00024198032 0.11188344
0.077945344 -0.08677608 -0.028079674 0.02359306 0.07388612 0.040197823 -0.120070025 0.039893072
0.03840194 -0.040204544 0.098163754 -0.031084705 0.010614446 -0.046172246 -0.07518668 -0.058326952
-0.12733045 0.02078713 0.09547847 -0.00042971305 -0.08502072 -0.14768547 -0.014715644 0.1061619
0.101038404 0.06961132 0.06636547 -0.028770687 -0.07202055 0.015819633 0.0031305212 -0.06549434
0.0718045 0.015310946 0.12890767 -0.030019674 -0.10821057 0.023900114 -0.069948114 0.11817888
-0.10267293 0.007853039 -0.023173792 0.053663198 0.028971298 0.0024307293 -0.09513853 0.18644534
0.14792395 -0.0027200396 -0.054279257 0.04886853 0.16712838 0.10919575 0.06254718 -0.06231951
-0.06546948 0.016569542 0.1698648 -0.0074940715 0.13728423 -0.06965185 0.13547577 0.072969295
0.06406803 0.12567668 -0.012155631 0.12844382 -0.022625007 0.060811214 0.105138384 0.08478146
0.13099913 -0.035920598 0.072262555 -0.008684084 0.0006374692 0.02664175 0.10778572 0.12900607
-0.045544405 0.14220075 0.08577954 0.044290517 0.11527187 -0.05233047 0.15162072 -0.029988017
0.083678365 0.042006418 0.02188916 -0.036177043 -0.10565629 0.010906855 0.008143212 0.054306485
0.09775771 0.026993198 -0.064475596 0.078705534 0.08073433 -0.063472845 0.046837162 0.11066993
0.023293266 -0.018589165 -0.003203788 -0.05944334 -0.011001907 -0.044724368 -0.037760753 -0.05401606
-0.07608772 -0.03692898 -0.11222427 -0.07481552 0.08154082 0.06640822 -0.096147746 -0.11342057
-0.1197019 -0.0013931858 -0.023938688 -0.03715893 -0.07710605 -0.058216356 -0.04534479 0.012734008
0.08522832 -0.010140159 -0.09983749 0.07127424 -0.10137433 0.103816964 -0.02652127 -0.07232231
-0.11292601 -0.08983859 -0.036148243 0.056457672 0.048862495 -0.107336655 -0.04775037 0.0043548043
-0.07152544 0.05736957 0.06328288 -0.07479972 0.07908531 -0.03553201 0.04609347 -0.09607604
-0.112567306 0.029242266 -0.07425233 -0.12089862 -0.10791302 -0.049246024 0.043906167 -0.14090621
0.029605998 -0.18204354 0.10820954 0.10273047 -0.03386512 0.07292046 -0.0056915567 -0.08019656

bias f4 [6]
00000000: 4404 07be 34dd 94bc 7f52 543b d862 5e3c
00000010: 2913 eebb aa17 15bd
-0.13185221 -0.018171884 0.0032397804 0.013573371 -0.0072654677 -0.03639952

weight f4 [16, 6, 5, 5]
00000000: 8fcd ef3d 9461 ba3d 0440 313d b86b 043d
00000010: fdfd 0a3d 7089 643d fa90 4ebd a6d5 9a3c
00000020: e1d2 043d 2825 31bc 47fe 283d 2c94 16bd
00000030: bcf4 0ebd 05a3 0bbc 2a20 ee3c 100f f4bc
00000040: c03c ed3c 1178 f33d a392 ee3d ed4e 7e3d
00000050: c4bf 8b3b ea96 253b 2f24 963c 7e99 44bc
00000060: a357 193e b3a5 1b3d 51a7 a2bc 9142 bb3d
00000070: 80cb 813d 5eb8 443d d946 153c dddb 183d
00000080: 2c0b e23d 6319 723d d59b a53c 7bd5 133d
00000090: 3d02 623c 89a2 a83d 4723 b93c f8a8 3c3d
000000a0: 8ac0 773b ed25 e33d ef11 01bd 2aa0 7e3d
000000b0: f355 8fbc b495 2f3d 3715 0a3d 6202 e23b
000000c0: e6ee ac3d 909e 9e3b 4e1b 233d ffe4 c13c
000000d0: abd8 203c de4f f4bb e74b 88bb f5c3 833d
000000e0: b59e 04bd c220 eb3b 4b2e ebbc c33f 963d
000000f0: 4bfc 6abd 6aab 953b 5118 f33c a8b1 d23d
00000100: 9584 2c3d 7c39 f8bc 932b 233e 632e eb3d
00000110: aff0 1b3e 0c8e 823d 35fe 093e 6fb5 9c3d
00000120: 36a6 093e 95f5 c83d 43dc 343d d176 c4bb
00000130: c654 ddbc d3ed 2a3d 87be e73a 90ca 84bd
00000140: 9fff d83c 3d55 8ebd 9df9 ebbb b0bb da3c
00000150: 7195 863d 521c 3ebd 669e 21bd a381 123d
00000160: 764c 7fbd b982 0abd 2ea1 afbc 073b 733d
00000170: 7d82 69bd 305e 8c3d 2c9f a2bc d51f 6dbd
00000180: 8bdc 3dbd 8a56 82bd b166 7e3c e5c0 2fbd
00000190: e6da 3ebd c815 a53c 52ed 56bb 1fb5 ad3d
000001a0: 06d6 0f3b e0ef 403d e27f 263d c137 acbc
000001b0: f9a6 873d 0a5f 5e3d f220 583d 99b4 533d
000001c0: 30ec c43c 395f 47bc f08f bc3d 3f27 ab3c
000001d0: 9192 3ebd 145b 83bd 90dc 21bd 97ab 893d
000001e0: 88b7 843d 9115 2fbd ab8f 853d 67d3 603d
000001f0: 2c21 fa3d 01af 56ba c130 023e 758c 823c
00000200: 1b7d a93d bf3d 623c 7ddb 583b c047 143e
00000210: d33c a33d dff4 123e ad17 49bc 9909 89bc
00000220: 294b 233e 2897 a33d 5841 5e3c d9a3 ed3d
00000230: c836 ad3d 01a7 063e 8166 1b3e 775b 183e
00000240: 1024 d63c bf93 293e 7c94 fd3d 821f d33d
00000250: 6080 a53c 7e03 0abd c398 053e 71ae d33d
00000260: 39da c63d 040b de3d 78ff 0c3d c792 033e
00000270: bd5f 873c 3548 de3d f2ed 6e3d 15c7 46bd
00000280: e8f1 f3bc 6c49 673c 0c01 ac3d 8363 cbbc
00000290: 8c95 3d3d 7a6c e0bc 5f8a 1abd 7be7 17bd
000002a0: 741e 94bc 5fd6 863d b164 4a3c 9661 dabc
000002b0: 8528 f3bd 9b4e a0bd c79c 51bd f5ab 95bd
000002c0: 6ce4 17be 31bd 90bd c74f dabd 1aab 923c
000002d0: bc9e 03bd 5c9c a7bd 8f0a cabd b31e bebd
000002e0: e40e 80bd c124 833d 3f0c 293d 8833 67bd
000002f0: 1c10 b13d b19c 25bd 9ed8 943d ca6c c23d
00000300: 8086 a53d e610 003c 8afc 833b 050c 5c3d
00000310: cf7a 263e 5b63 1d3e 0a86 813d ea71 243e
00000320: 851d 58bc f4a7 2f3d 18cb 34bc 64d1 6dbd
00000330: b076 f5bc 3a13 773d d259 fb3c 54a2 b9bc
00000340: be1c c13d 829d 04bd f3ec f3ba e40b b23b
00000350: 1350 483d d33f a7bb 5508 6abd bdf3 663c
00000360: 7f89 b4bb e152 283d cd59 18bd d300 e73c
00000370: a3e3 553c 1832 983d c74d 683b fd2b c23d
00000380: 5306 fd3d c655 94bc 8960 9bbc f9f2 d7bd
00000390: eb4f 073d e746 b8bd 6fbb 15bd e641 45bd
000003a0: f261 ecbd c49d 683c b6b1 f43c 13f6 8b3c
000003b0: d1fd 9bbd 3c5c edbc 705c 793c ae50 9bbc
000003c0: d2b7 c23c 4920 85bd 07e2 bbbc e091 08bd
000003d0: 9679 04bc 05a5 0ebd 714b 55bd 7392 223b
000003e0: ad11 b63d ac71 17bc 8b58 1dbd 2d6f c53d
000003f0: fbbd 033c 9afa 2d3d 784d ed3c c369 843d
0.11709129 0.09100643 0.04327394 0.03232929 0.03393363 0.055795133 -0.05043123 0.018900704
0.032427672 -0.010812081 0.041258123 -0.0367624 -0.034901366 -0.008522754 0.029068071 -0.029792339
0.028959632 0.11888135 0.116490625 0.06208699 0.0042648036 0.0025266954 0.0183278 -0.011999486
0.14974837 0.03799982 -0.019855173 0.09143556 0.06337643 0.04802739 0.00911113 0.037319053
0.11037287 0.059106242 0.020215908 0.036092263 0.013794479 0.08234126 0.02259983 0.04605958
0.0037803971 0.11091218 -0.031511243 0.062164463 -0.017497038 0.042867377 0.03371164 0.0068972567
0.08444004 0.0048406795 0.03982096 0.023668764 0.009817283 -0.00745581 -0.004159439 0.0643386
-0.032377917 0.007175536 -0.028708598 0.0733638 -0.05736951 0.0045675533 0.02967468 0.102877915
0.042118628 -0.030300848 0.15934591 0.11483457 0.15228532 0.063747495 0.13475879 0.07651793
0.1344231 0.09812466 0.04415537 -0.0059956093 -0.027017962 0.041730713 0.0017680683 -0.06483948
0.026489077 -0.06949852 -0.007201387 0.026700824 0.065714724 -0.046413727 -0.0394577 0.035768162
-0.06232878 -0.033816073 -0.021439161 0.059382465 -0.05700921 0.06853902 -0.01985129 -0.057891686
-0.046352904 -0.06364162 0.015527413 -0.042908568 -0.046595477 0.020151988 -0.0032795263 0.08481812
0.0021947636 0.047103763 0.040649302 -0.02102268 0.066236444 0.054289855 0.052765794 0.051685903
0.024038404 -0.012168699 0.092071414 0.020892737 -0.046526495 -0.06413856 -0.039516985 0.06722181
0.06480318 -0.042745177 0.06521543 0.05488911 0.12213358 -0.000818953 0.1271391 0.015936116
0.08275815 0.013808667 0.003308981 0.14480495 0.07970586 0.14351223 -0.012273711 -0.01672821
0.1594664 0.07987815 0.013565384 0.11603517 0.08457714 0.13149644 0.15175821 0.14878641
0.026140243 0.16560267 0.12381837 0.10308744 0.020202816 -0.033694737 0.13046555 0.103360064
0.097095914 0.10841945 0.03442332 0.1284896 0.016525144 0.10853616 0.05833239 -0.048529703
-0.029778436 0.014116626 0.08398637 -0.024827724 0.046285197 -0.027395476 -0.037729617 -0.03708599
-0.018080927 0.06583857 0.012353108 -0.02665786 -0.11872963 -0.07827493 -0.051174905 -0.07308189
-0.1483323 -0.070673354 -0.106597476 0.017903853 -0.032133803 -0.0818412 -0.09865295 -0.09283199
-0.0625284 0.064034946 0.041271444 -0.05644563 0.08645651 -0.040432636 0.07267879 0.09493406
0.080822945 0.007816529 0.0040279077 0.0537224 0.16257785 0.15369932 0.06324394 0.1605908
-0.013190632 0.042884782 -0.011034749 -0.05806102 -0.029963821 0.06032107 0.030682478 -0.022660412
0.0942931 -0.032376774 -0.0018610045 0.0054335464 0.04890449 -0.005104044 -0.057136852 0.014096198
-0.005509555 0.041094664 -0.037195016 0.028198635 0.013054761 0.074314296 0.003544675 0.09481046
0.12354722 -0.018107306 -0.01896693 -0.1054439 0.0330352 -0.089978985 -0.036555704 -0.04815855
-0.11542119 0.0141977705 0.029869895 0.01708511 -0.07616771 -0.028974645 0.015219793 -0.01895937
0.023769293 -0.065002985 -0.022934927 -0.033342242 -0.008085629 -0.034825344 -0.0520739 0.0024806529
0.0889009 -0.00924341 -0.03841452 0.09640346 0.0080409 0.04247532 0.028967604 0.06465485

bias f4 [16]
00000000: e808 aabd 8903 90bd c501 33bd 0bc3 acbd
00000010: 8695 a1bd 3b07 343d 9054 1d3d e5b0 ac3d
00000020: 0df4 a0bd 13d6 40bc 9e81 c0bd 5e2d 1ebc
00000030: 7e79 a63d 5b38 ec3d 327a a5bd 5cdf 823d
-0.0830248 -0.07031924 -0.04370286 -0.08435639 -0.078898475 0.043952208 0.038410723 0.084321775
-0.07859049 -0.011769789 -0.093997225 -0.009654371 0.081286415 0.115341865 -0.080799475 0.06390259

weight f4 [120, 16, 7, 7]
00000000: e70b 4f3c 84ef 02bd ee44 c0bc 5394 ce3b
00000010: a350 92bc a5dc 0c3c cd78 8fbc 968a 083d
00000020: ed41 4b3c aeaa eabc 2407 793a 2e51 183a
00000030: dc7c 15bc 4acf 96bc 868c f53c 6498 06bc
00000040: 4332 8b3b 3bee c7bb 2cd3 a6bb 2b7e b8bb
00000050: 9273 1cbd a08e 033d 064b fc3c e9c0 34bd
00000060: 9767 40bc 9c2c 98bd 25b9 9bbc 4035 c2bc
00000070: 02ce 6c3d 30e0 8c3c 5033 cd3b 3525 6ebd
00000080: f4c2 2ebd fba2 993c dcd1 3a3d aee6 5e3d
00000090: a8e5 8f3d 1d19 853d e9d2 75bc 3626 9e3a
000000a0: f8fa 323b 2504 863d 842d 8fbc 8f5e ce3c
000000b0: d20d 923d 6458 003d df39 d63c 445f b03c
000000c0: 9167 b13d 0a55 373b 046c 063c f91e 20bd
000000d0: a47d 00bd d5f9 183b b44d 25bd 4212 0fbc
000000e0: 59ba 823c 7371 94bc dd94 16bd c589 493b
000000f0: 587c f0bc c9c0 4cbd 659a 15bd 1ceb 2c3c
00000100: 43d3 09bc 33b3 c5ba 27a4 80bc 30d9 04bd
00000110: 3f1e fbbc 573e a2bc 2fe2 673d 3a0c df3b
00000120: d966 03bd 4de2 1dbd 08fa e6bc d4b9 3a3d
00000130: 0650 463d 414b a23d b25f 53bc 1830 35bc
00000140: 89eb 5fbb 9a2d 473d c3d9 e3bc 8566 b43c
00000150: f736 033d c006 463c 8240 c1bc 5816 1e3c
00000160: 19f4 143c 7784 493d 6d01 493d 25d6 41bd
00000170: 6971 14bd f560 6bbc 6151 8c3b c171 8a3b
00000180: df7f 4abd 6882 b63c 63e6 1dbd bdb4 8f3c
00000190: 0432 403d 5727 e6bc 3367 f1bc 22ad cf3b
000001a0: 8377 48bd b0c5 59bc 5985 47bd dd56 49bb
000001b0: ea2d 59bb 2650 b53c 6211 3dbd e2d7 81bd
000001c0: b8e5 d3bc f214 32bc d3cc c0bc ec50 22bd
000001d0: c5e4 b3bc cc2e 803a a3d2 29bb 0c97 6fbc
000001e0: 8b54 31bc 4b48 433c d4f1 2f3d 2a6d 873c
000001f0: bffa 93bc ac26 9fbc 2460 16bd 6ded 37b9
00000200: ca8c f33c cdf7 003d ac85 18bd 69d2 47bd
00000210: b14b 2ebd 67b8 b2bd 7ad7 92bc df99 2e3c
00000220: ef8b e43c 28ae d23c 03b3 e9bc c26c 713d
00000230: 7cfa e1bc ae95 fbbc c79d 8e3c e446 673c
00000240: 6b7b febb b97d 813a 8316 913d 633e 08bc
00000250: 4398 7fbc 20e9 2d3b 098f d7bc 52cb 893c
00000260: 3442 3ebd 3e58 30bc 2e84 e23c e016 0b3b
00000270: 9c48 003c 54ea 9f3c 64d2 db3c c5cc 663c
00000280: 61ed 85bd 255f fc3c f820 033d 8378 9abc
00000290: 27c9 19bc 697c afbc 42be b93c d245 ea3b
000002a0: ba56 66bc 0c71 0a3d ba9c c53b a2bf 4b3d
000002b0: 45a8 eabc 1e07 613c 841d 3e3d f3ae b03c
000002c0: 7d61 153d b2a1 bcbc 0c04 113d bd6d 7c3c
000002d0: 50fc f93c c18f 3bbc 3945 4c3c 8222 2cbc
000002e0: b23f ecbb 3e3d ad3a 90c2 2f3c 6e1c aebc
000002f0: d7ff c6bc c7f2 e4bb 3ef7 65bc 1fc2 b6bc
00000300: 01b5 97bb e424 a43b 8c19 033d b4a1 213d
00000310: 4410 7ebc b4c1 8a3c ea07 bf3c 078f 0ebd
00000320: 5c97 963c 908b 41bc 3d05 a73c 27c5 58bd
00000330: 293f a0bc 61e1 22bd b11b 313b bedd 6ebc
00000340: 0e33 bdbc 84e7 34ba 5eed 0cbd e54b 2cbc
00000350: 6810 81bc b244 81bd 369d debc b740 b2bc
00000360: 1d60 01bc 9cd5 29bc dc30 63bd 4a70 b53c
00000370: 244a b53b 8bfb 02bd 7991 21bc 9ce6 8a3c
00000380: bd9b 233d a599 fc3b 5aa3 3a3d 2134 b3bc
00000390: b643 9c3c 7a44 67bc b21d 0d3d f38d 8dbd
000003a0: b2c2 bb3c 429d ba3b 3f06 51bc ecfe 183c
000003b0: d42c 48bc 41cc f03c 91f4 d2bc 630c d4b9
000003c0: d7b9 77bb 29a9 493d a2e6 ed3c 7c50 60bc
000003d0: 1009 323d 7f73 2bbc cb05 adbb 5d88 913c
000003e0: 5ca2 073d ad3f 053d 5d45 523c a7df 3a3c
000003f0: 3100 d13c 775f e4bc 36eb fcbb d0ca dbbc
0.012637115 -0.0319667 -0.023470368 0.0063043027 -0.017860716 0.008597528 -0.017513657 0.03333529
0.012405855 -0.02864584 0.000949966 0.00058104366 -0.009124007 -0.01840939 0.029974233 -0.008215044
0.004247935 -0.0061013973 -0.0050910916 -0.005630275 -0.038196154 0.03211844 0.030797493 -0.044129286
-0.011743448 -0.074303836 -0.019009182 -0.023707032 0.05781365 0.017196745 0.0062622204 -0.058140952
-0.04266639 0.018754473 0.045610294 0.054419212 0.07026225 0.064989306 -0.015003898 0.0012065831
0.0027310234 0.06543759 -0.017477758 0.025191573 0.07131542 0.031334296 0.026150642 0.021529801
0.08662332 0.0027974271 0.008204464 -0.039092038 -0.03136982 0.002334227 -0.040357307 -0.00873238
0.015957998 -0.018120503 -0.03676306 0.0030752283 -0.029356167 -0.04998854 -0.036524195 0.010554101
-0.008412185 -0.0015083313 -0.015703274 -0.03243369 -0.03065407 -0.019805117 0.05661219 0.0068068774
-0.032080505 -0.038545895 -0.028195396 0.045587376 0.04841616 0.0792451 -0.0129012335 -0.01105883
-0.003416749 0.048627473 -0.027813798 0.022021541 0.03203484 0.01208657 -0.02359033 0.009648882
0.009091401 0.049198594 0.049073625 -0.047323365 -0.03624097 -0.014366378 0.004282162 0.0042249863
-0.049438354 0.02227898 -0.038549792 0.017542237 0.0469227 -0.02809493 -0.029468155 0.0063377777
-0.0489421 -0.013291761 -0.048711155 -0.003072194 -0.003313894 0.022132944 -0.046159156 -0.063400045
-0.025866374 -0.010869252 -0.023535168 -0.039627954 -0.021959672 0.0009779572 -0.0025912903 -0.014623415
-0.010823379 0.011919091 0.042955235 0.016531546 -0.018063901 -0.01942762 -0.03671278 -0.00017540688
0.02973022 0.03148632 -0.037236854 -0.048784647 -0.042552654 -0.08726578 -0.017925013 0.010656803
0.027898757 0.02571781 -0.028527742 0.05894161 -0.02758526 -0.030711021 0.017409218 0.014116023
-0.0077661774 0.0009879387 0.07084372 -0.008315655 -0.015600267 0.0026536658 -0.026313322 0.016820583
-0.046449855 -0.010763226 0.027650919 0.0021223351 0.007829811 0.019520916 0.02683372 0.014086907
-0.06539417 0.030807087 0.032013863 -0.018856293 -0.009386337 -0.021421628 0.02267373 0.0071494365
-0.014058763 0.033799216 0.006030646 0.049743302 -0.02864469 0.013734607 0.046414867 0.021567797
0.036469925 -0.023026321 0.03540425 0.015407023 0.03051582 -0.011447848 0.012467676 -0.010506274
-0.0072097415 0.0013217104 0.01072754 -0.02125379 -0.024291916 -0.006986949 -0.014035998 -0.022309361
-0.0046297316 0.0050092805 0.032006785 0.039460853 -0.015506808 0.016938068 0.023319203 -0.03480437
0.01838272 -0.011813059 0.02038824 -0.052922394 -0.019561367 -0.03976572 0.0027024562 -0.014579235
-0.023095634 -0.00069009536 -0.03440606 -0.010516142 -0.015754893 -0.06311931 -0.027174573 -0.021759374
-0.00789645 -0.01036587 -0.055466518 0.02214827 0.00553252 -0.03197817 -0.009861344 0.016955666
0.039943445 0.0077087455 0.04556594 -0.021875443 0.019075256 -0.014115447 0.034452148 -0.0691184
0.022919986 0.005695016 -0.012757837 0.009338122 -0.012217719 0.02939427 -0.025751384 -0.0004044502
-0.0037799978 0.04923359 0.029040638 -0.013691064 0.043465674 -0.010464548 -0.0052802316 0.017765218
0.033113822 0.03253143 0.01283392 0.011405862 0.025512787 -0.027877552 -0.007718469 -0.026830107

bias f4 [120]
00000000: f2c2 f73a 40cd ddbc 67ec c6bc 19f9 d5bc
00000010: c7e9 f33c 11f5 e63c 23bd e7bb 006f 9d3c
00000020: 6fc1 0a3d f041 073d d2e0 343d 6822 773c
00000030: 40d3 f3bc a25d c83c 249c a43c 9824 2b3c
00000040: dbb9 ef3a fcf2 65ba 4013 48bc b3bb 8fb9
00000050: 3e7e d23c 125b 22bb b2d4 f8bb d833 c4bc
00000060: cff9 77bc 3c69 dc3b ea92 2fbd f3fb 923c
00000070: 0f79 383d 1fe8 e03b 81cb dbbb c693 f03c
00000080: c9f7 08bd 75fe 4bbc bb30 9d3c 49be 49bd
00000090: c71e 37bd 501d 9c3c 8ad7 413d 1a47 cdbb
000000a0: 1792 9c3b 1f4d d23b 8e0f f73c 4feb 4ebc
000000b0: de6d d8bc 932e d9bc dbe6 9fbc 9dbe 0cbc
000000c0: 2e58 80ba 4f44 323d 978e 913c e2cf 21bd
000000d0: 756e 22bd 3f11 59bb 8b8d 16bd 9676 bbbc
000000e0: e7ab d7bc 171d 733c aede 983c 9393 24bc
000000f0: ae12 22bc 556d 37bc 806b c53c a088 b83b
00000100: 789d 2b3b 386c ad3c c78a 363d 43b9 1ebd
00000110: a5db 463c 865d 8e3c 5700 333c a09d d83c
00000120: 61f5 82bc 7578 68bc 9295 973c 1647 713c
00000130: 83de c2bc 4984 5abc 05d8 adba e002 323c
00000140: 276d 76bc 3e07 a13c 9b1d 983c 3c75 97bc
00000150: 94ea 893b fe53 92bc 630b ce3c 73fd 393c
00000160: 8342 3e3c 609e 35bb 7d24 a4bb 7533 e33b
00000170: cdb4 e9bc 605e 05bc 4132 a93c 2e07 d53c
00000180: f1a9 163d d4f8 1e3d 5e00 263c ef0a f1bc
00000190: 2e5d 1cbd 9a14 1cbd 71cc 853a b3dc 18bc
000001a0: 1b27 49bb 785d 2d3d 3303 b63c 6de8 223d
000001b0: 14c6 1c3c aac9 323d 7a6a a73c 54d4 953b
000001c0: 9832 4dbc 9c59 a63b 69e1 363d 59b3 2f3c
000001d0: 1311 e5bb 4bb5 c5bc b74f 243c 911d 40bc
0.0018902703 -0.02707541 -0.024282647 -0.026119756 0.02977456 0.028193029 -0.0070721074 0.019217968
0.03387588 0.033021867 0.044159718 0.015083887 -0.029763818 0.02445871 0.020093985 0.010445736
0.0018289642 -0.0008771864 -0.012211621 -0.00027414932 0.025694963 -0.002477352 -0.0075937146 -0.023950502
-0.015135243 0.006726412 -0.042864718 0.017942404 0.045037325 0.0068636085 -0.006707609 0.029367339
-0.03343943 -0.012450804 0.019188276 -0.049253736 -0.044707086 0.019056946 0.047324695 -0.0062645795
0.0047781575 0.006417885 0.030158784 -0.012629344 -0.026419576 -0.026511466 -0.01951926 -0.008590368
-0.0009791905 0.043522175 0.017768187 -0.039504893 -0.03965612 -0.0033121852 -0.03675608 -0.022883695
-0.026327087 0.0148384785 0.01866087 -0.01004495 -0.009892149 -0.0111955 0.024099112 0.0056315213
0.0026186388 0.021169767 0.044565942 -0.038750898 0.012137328 0.01737858 0.010925374 0.026442349
-0.015986146 -0.014188875 0.018503938 0.014726421 -0.023787742 -0.013337203 -0.0013263231 0.010864943
-0.015040672 0.019656774 0.018568804 -0.018488519 0.004208872 -0.017862316 0.025151914 0.011351931
0.011612537 -0.0027712807 -0.0050092326 0.0069336244 -0.028528595 -0.008140177 0.020653846 0.0260044
0.036783163 0.03881152 0.0101319235 -0.029424159 -0.0381748 -0.038105585 0.0010208023 -0.009329963
-0.0030693475 0.042325467 0.022218322 0.03977244 0.00956871 0.043649353 0.020436514 0.0045724306
-0.0125242695 0.0050766002 0.04464856 0.010723912 -0.006990561 -0.024134299 0.010028771 -0.011725799

weight f4 [84, 120]
00000000: bf85 2ebd 79c6 83bc fefe 463d bca3 583d
00000010: 2b04 cb3c 4029 fd3d 3424 d13d 88a8 c73d
00000020: 60a3 eebd e606 28bd 46d7 ca3d 10f4 b7bd
00000030: 4635 063d d81d 093d 548e 9ebd 10fd 39bd
00000040: 4a03 4dbd d448 93bc 2c43 bbbd 94fd 303c
00000050: 5ebd c7bd 3dd1 f23c b8b4 ae3d a786 c3bc
00000060: 7a99 bf3d b547 9bbc 7e03 8ebc fe98 fe3d
00000070: 686a c2bc 961a 22bc a7d8 783d 1297 2d3d
00000080: 876b ec3c 9ede 383c e503 ebbd 2e15 0ebe
00000090: 061b 88bd fafd b4bd 7d4d 463d 5da4 c4bb
000000a0: d106 cbbb 1394 9abc e1a2 d1bd 5239 c8bd
000000b0: 2752 02bd f4c5 70bd 19be 37bd 329b 3abd
000000c0: d789 28bc 4a84 debd 659c 84bd 2c24 9d3d
000000d0: 5865 563d 4503 92bd 601d 02be 7599 583d
000000e0: 7a23 eebd 888e f33d f0a3 a13d 3ab0 ae3b
000000f0: c85f 7f3d f656 b13d 0c89 c13c fc90 963d
00000100: 6c23 9cbd 14b3 373e a2ed 88bd 2af9 933d
00000110: 8aee adbd cb07 64bd 9ee7 d2bd 6174 1abd
00000120: bfac c4bd 59ef 093d 456e b9bd ff28 bcbc
00000130: 2a95 6cbd 1279 97bc 4430 653d 08ab e4bd
00000140: a90b 7b3d 2407 cabb 4375 083c c0c2 433d
00000150: 2fa3 7bbb 8637 1abd 4405 f13d 14cc 95bd
00000160: 3711 edbd 25ae 40bc b8e2 2bbb ba49 adbc
00000170: 74f1 aabd 2e89 0abe c5ff 883c edf6 f13d
00000180: 4a08 99bc 5cee 18bd 5a92 05bd 90af 093d
00000190: c1f1 07be fc35 bebd 44f7 96bc 53b5 0a3e
000001a0: d942 2d3d ebb3 603d 8608 8d3d e6da 36bd
000001b0: 74e9 c0bd 02f0 0bbd bc02 9cbd b97a dcbc
000001c0: 7dee 99bd 79b9 22be 5f5e 623d cb00 f8bd
000001d0: bce6 37bd ab32 013d 4f5d af3d 6269 f33d
000001e0: 212a 4d3c 30fb b6bd e85b d6bb 90fd e0bd
000001f0: 1781 1a3e 816d e8bc ca24 b13d f65b ca3d
00000200: f746 bf3c dd63 2dbe 4dee 5c3d 9de8 78bd
00000210: 7062 7e3b aae7 27bc 2eaf 043c 45e0 c0bd
00000220: fb4b 91bd 2446 0bbb 4c03 f6bc dfda a6bd
00000230: 6dc9 2ebd 0ca5 04be e5ce 243c 81d5 163d
00000240: 4370 8e3d 00ff 97bd 45b0 043e a5d6 9fbd
00000250: 2583 b6bc 31a5 f6bb 770e a4bd 1305 403c
00000260: 7207 d1bb ae6c 58bd c7e5 853d 2395 b23c
00000270: 614a b8bc bca3 993d 9f4f 8f3d 989b 153d
00000280: 32f3 ad3d c655 f6ba 349d fabd 2845 c9bc
00000290: 562d 073e f080 90bc c487 e43d ed17 213d
000002a0: 84c3 ed3b 28b7 b03d 95b0 7a3d 3cc1 993c
000002b0: 4f30 543d fdf5 d53c e7c6 773d 93ea 39bd
000002c0: 0ee7 183d 13a8 9a3d 6253 b93d 5ab4 7d3d
000002d0: fe33 a5bd e774 07bd cc54 c33d 298e d13c
000002e0: fd7c 21bd 03fe 043e 6712 b13c fb18 973d
000002f0: 534b c73c 9723 fa3c 8fc1 e73d c993 c4bd
00000300: 92f2 803c 9df5 f0bd 0484 68bd 2d4d 0cbd
00000310: 9d8a 743d d5fe 49be 9d43 37bd 6e14 1cbc
00000320: 6b1c 863b 5213 c1bd 397a d4bd f876 88bd
00000330: fced 0bbe e1f1 fdbd f0ac 0c3e da22 0e3d
00000340: 162b 113d 89a7 13bd 4a53 e1bc 076f d2bd
00000350: 661a 003d 7dbe 11be 3040 b1bd d1f9 003e
00000360: cf32 5fbd 33fe 12be 5e81 853c a35b e3bd
00000370: 3c0c 943d 9cee 1e3d 0aa1 25be 8edc 893d
00000380: 2867 bdbd 6442 ae3d 9abf 643c 27c4 663c
00000390: 9d27 b03b 3838 11be 0d9b f93d 1063 45bd
000003a0: d3bd b7bd 87a7 43bd 0421 b73c 12fe 63bd
000003b0: a64d 05be 880c 29bd 4216 37bd c589 113e
000003c0: d8f0 0d3e d837 b5bc d47a 0fbd c4d0 93bd
000003d0: 9248 8a3d e8be 163d 6055 d8bd 64d3 cdbd
000003e0: 3d92 4b3d 6bc8 37bc 9609 01be b72b f23d
000003f0: 577d 02bc d7a1 9e3b b005 d43d 8203 14bc
-0.04260802 -0.01608585 0.048583023 0.052890524 0.02478226 0.123613834 0.10211983 0.09748942
-0.11652255 -0.041022204 0.099043414 -0.08982098 0.03276565 0.033475727 -0.07741991 -0.045407355
-0.050051965 -0.017979063 -0.091436714 0.010802645 -0.09752916 0.029640788 0.08530563 -0.023867918
0.09355445 -0.018955091 -0.01733565 0.12431525 -0.02373238 -0.009894034 0.06075349 0.0423804
0.028859867 0.011283545 -0.11475352 -0.13875267 -0.06645779 -0.08837505 0.048413742 -0.006001039
-0.006195881 -0.018869435 -0.10236145 -0.09776558 -0.031816628 -0.058782533 -0.044859026 -0.045558162
-0.01028677 -0.10865076 -0.064751424 0.07672915 0.052342743 -0.0712953 -0.12706518 0.052880723
-0.1162786 0.1189242 0.07892597 0.0053310664 0.062347203 0.086591646 0.02362492 0.07351872
-0.07623944 0.17939407 -0.0668595 0.07225259 -0.08492763 -0.055671494 -0.10298084 -0.037708644
-0.09603261 0.033675525 -0.09054235 -0.022968767 -0.05775944 -0.018490348 0.055954233 -0.11165434
0.061290417 -0.006165402 0.008328739 0.04779315 -0.0038396826 -0.037650608 0.117685825 -0.073143154
-0.11575549 -0.011760269 -0.0026227664 -0.02115332 -0.08346835 -0.13528892 0.016723523 0.118146755
-0.01868071 -0.037336692 -0.032610275 0.033614695 -0.13275816 -0.092876405 -0.018428452 0.13545732
0.04230008 0.054859083 0.06886391 -0.04464235 -0.09419528 -0.034164436 -0.07617709 -0.026913987
-0.07516191 -0.15891065 0.05526578 -0.12109526 -0.04489778 0.03154246 0.08562719 0.118853346
0.012522251 -0.08934629 -0.006541718 -0.10985863 0.15088306 -0.028372528 0.08649595 0.098808214
0.023349268 -0.16932626 0.0539382 -0.060768712 0.0038815998 -0.010248104 0.008098407 -0.09417776
-0.0709457 -0.0021251524 -0.030030869 -0.08147215 -0.042672563 -0.12953585 0.010059093 0.036824707
0.06955006 -0.07421684 0.12957866 -0.07804612 -0.022279331 -0.0075270166 -0.080105714 0.01171996
-0.0063790614 -0.05283802 0.06537967 0.02179963 -0.022496404 0.07501933 0.069976084 0.03652534
0.084936514 -0.0018793873 -0.12237015 -0.02456911 0.13200888 -0.017639607 0.11158708 0.039329458
0.0072559733 0.08628684 0.061203558 0.0187689 0.051803883 0.026118273 0.060492422 -0.045389723
0.037329726 0.07551589 0.09049107 0.061939575 -0.08066557 -0.03307047 0.09537658 0.025580483
-0.03942584 0.12987523 0.02161522 0.073778115 0.02432791 0.030534549 0.11316215 -0.095985
0.015740667 -0.11765597 -0.056766525 -0.034253288 0.059702504 -0.19726117 -0.044742215 -0.009526355
0.004092743 -0.09427513 -0.103748746 -0.066633165 -0.13665003 -0.1239965 0.13737845 0.034701206
0.03544148 -0.036048446 -0.027505536 -0.10275083 0.031275176 -0.14232822 -0.08654821 0.12595297
-0.054491814 -0.14354782 0.016297039 -0.11101463 0.07228896 0.038801774 -0.16174713 0.067315206
-0.09248191 0.08508757 0.013961697 0.014084852 0.005375816 -0.14181602 0.12187777 -0.048190176
-0.08971753 -0.04776719 0.02235461 -0.055662222 -0.13017902 -0.041271716 -0.04469896 0.14212711
0.13861406 -0.022121355 -0.035029247 -0.07217553 0.06752123 0.036803156 -0.10563159 -0.10050085
0.04970001 -0.011217217 -0.12601313 0.11824744 -0.007964454 0.00484107 0.10352647 -0.009034039

bias f4 [84]
00000000: 7bbf 223b e60d 2f3a fd38 a8bd c67c 37bd
00000010: 86a1 e43d a8ad 07bc 6eb9 bbbb 2484 76bd
00000020: e095 e5bd d9ff ee3d 3a82 1cbd 3fa6 8f3b
00000030: ad07 923d d8db a03b 109a 173d 76a7 6d3c
00000040: 15d4 243d ad25 cebd 9b55 43bd 50ce c03c
00000050: add2 a63c 6c7d 603d f6e1 1f3d 69ce 84bd
00000060: 488d 253d 5f5c 86bd 861d b63c f527 2ebd
00000070: 73df 773d 4550 863d 672f 373d 1ad7 a13d
00000080: 41a5 b0bd 2384 e9bc 2df8 613d b7fb bb3d
00000090: d1e4 8abd 788e f33c 0fa0 3abd c6ee 483d
000000a0: 0cbd 563d 8dda 8b3c 0916 3e3d 4e81 d83d
000000b0: 38ef f5bb d36e 883d 8526 c03b f0d3 9dbd
000000c0: c859 fb3c 9da5 523c e283 c13d a806 473d
000000d0: 0362 5ebc 717f 513c 59a7 533d 06c6 d93c
000000e0: 57dd 2cbc 3c81 e13c fba0 6a3d 4f77 a83d
000000f0: 59f8 893c e51e 0dba 6ce9 28bc 538c 043d
00000100: 88e7 5a3d 720a a0bd f9ea 13bd 4fe0 e2bc
00000110: 1d83 2dbc 95a3 54bd a318 17bd 9aa2 013d
00000120: 01e9 a43d 6ad3 0a3d 282c 6b3c fd79 eabd
00000130: 30c1 8ebb db7a f63b 9c89 0e3d b435 a73d
00000140: def9 933d c04e c0bc 6b7a 96bc fe71 f23c
0.002483337 0.0006677791 -0.08213995 -0.044796728 0.11163621 -0.008281149 -0.005728892 -0.060184613
-0.11210227 0.11669893 -0.03821013 0.0043838318 0.0713037 0.00490902 0.03701216 0.014505258
0.04024132 -0.1006578 -0.04768906 0.023535877 0.02036413 0.05480711 0.039033853 -0.06484682
0.04041794 -0.06560587 0.022230875 -0.042518575 0.060515832 0.06558279 0.04472294 0.079023555
-0.0862527 -0.02850539 0.05516832 0.0917887 -0.067819245 0.02973102 -0.0455628 0.049055837
0.052426383 0.017071987 0.046407733 0.10571538 -0.0075053237 0.06661763 0.005863967 -0.077064395
0.03068246 0.012856868 0.09448983 0.048590332 -0.0135731725 0.012786732 0.051673267 0.026583683
-0.010550818 0.027527444 0.05728243 0.08225881 0.016842054 -0.0005383327 -0.010309558 0.032360386
0.05344346 -0.07814492 -0.03611276 -0.02769485 -0.010590342 -0.051913816 -0.03688873 0.03164921
0.080522545 0.033893026 0.014353789 -0.11449049 -0.004356526 0.0075219697 0.034799203 0.0816454
0.07225393 -0.02347505 -0.01836892 0.029595371

weight f4 [6, 84]
00000000: 5dbf 74be 8279 8ebe c69e ee3d 11a6 a8bd
00000010: 4458 c7bc 1bf2 a13d 8dad 15be 440a 82be
00000020: 8c10 9cbd 6c89 c93d e140 85be 25d6 b43d
00000030: 1bb6 d43d c894 51be 51a0 6fbe 7b23 563d
00000040: 2a3e cebc 5887 49be 6416 40be 28ae 25bd
00000050: d057 a1be bd24 423e 89bb c93d b1c9 69bd
00000060: 71e6 18be 83eb 10be 0f18 033e d706 83be
00000070: 5960 a63c 25ee 803d 0e12 023e b802 64be
00000080: 1e92 7bbd c0bf 86be 71f9 0bbe 9990 80be
00000090: 3501 48be 362b 3fbe 2c6c 4ebe a8b4 263e
000000a0: 2460 3b3e ea45 7c3e 82ec 5cbe 6cb4 5c3e
000000b0: de16 4f3d b79e eb3d c44d 95bd 81e0 2a3e
000000c0: c295 e23d 47b3 833e 2d84 733e 7b53 c53c
000000d0: c17b 7fbd 5444 e23d a90f 34bd d7ef 3e3e
000000e0: f33c 00be 69aa 35be 35d5 8abe b385 093e
000000f0: 7915 76be 2dde 283e b274 1dbe fa70 6dbe
00000100: 69b5 a03e 0555 59bd e1b0 6b3e b58f e33d
00000110: e61b 8e3e 9a95 84be 0d25 84be ae6b 1cbc
00000120: ba6c b5bc 276a 8abd a83c b6bd a841 63be
00000130: 4622 d6bd 3996 50be b4a0 c03d 39fb b8bd
00000140: b396 44bd 7801 473e f0ae 5c3e c7fb 49be
00000150: d426 babd d194 0abe 6ef0 1ebe 5c95 07bd
00000160: faa0 99be 8967 0e3d 68ca 3d3e 7bdf e03b
00000170: 7e16 5e3c c924 bebd ea20 193e 989b 613d
00000180: b188 2a3e 93bc 363e 95dd 893d c229 5bbe
00000190: ca57 173e 31ed 273e 74ff 11be 18d3 84be
000001a0: 29f0 0a3e 355d fb3d d2b1 74bb 71c6 8e3e
000001b0: 9bc6 233e 13fa 1b3e 04b8 153e 78ed 67be
000001c0: e667 49bd f03c 513e 2cd8 86be afe3 a43d
000001d0: 54a3 233e ceda f0bd 6343 96bd 9003 c33d
000001e0: 571f 84be 5fe3 343e 33e7 b83d aef3 83be
000001f0: d6c8 f7bd 595c 363e 7edd 1d3e c7e8 f2bd
00000200: b3d7 a13e d81a 7e3e 2c31 96be 8b79 8ebd
00000210: 6acd 7cbe 459c dbbd 6031 fa3d 4b69 94be
00000220: 516c d7bd b043 783e 4fd8 91be e719 f6bd
00000230: bca5 073e 8b35 ef3d d64a 6d3e 0233 7fbd
00000240: 65ae 433e 9e0b 2fbe 49b9 953e fcfd 613e
00000250: 97eb babd bd6f 473e b0ce 30be b591 5bbe
00000260: 1803 1e3e 1ac7 143e 6f2a 923c bb87 4d3e
00000270: 46d6 57bc 0b34 323e b6c2 ee3d 3646 21be
00000280: d7da 973d 5aa1 56be 3648 25bb 50b1 333e
00000290: 5952 8dbc f09c 79be b739 38be d834 a23d
000002a0: 73af 513e 105d 80bd b32a 38be 73cf 64be
000002b0: cf3f 043e 3391 9c3c afc7 b93d afb6 ac3d
000002c0: fc78 1bbe e10b 5ebe 61e1 793d 107b 593e
000002d0: 9c80 5abe 5ac1 ebbb 8601 4a3e 5a4d 223e
000002e0: e2ba 823e ed8f 55bd f853 603e d1bb e73d
000002f0: f539 813d 794e 033e 8fb5 f5bd 3c0a 7ebe
00000300: c5e3 2d3e 0ffb 633e a995 763e 47b3 99bc
00000310: fcd0 12be 2544 87be f0e7 893e 3c49 a13d
00000320: 496b 8b3e c98a 48bd 8d5d d53d b2d8 0ebe
00000330: 1b81 8a3e ab71 363d c9db 303e b204 c43d
00000340: 6b72 48be efe9 05be d21f 823d f661 3cbe
00000350: ac54 78be c104 65be fa3d 933e ec52 efbd
00000360: 7549 903e ffca 19be 120a 553e 9e69 cd3d
00000370: 1c63 4dbe 2ce5 68be 5454 013e 1841 2cbe
00000380: dcf9 eb3d 513c adb9 d816 1bbe 929d 40be
00000390: 358d 56be ba0f 2bbe ddde 62be 34e1 f93c
000003a0: 7ec6 a63d 6b24 183e 683a 563e c0bf f63d
000003b0: 401b e03d 96d7 293d ef74 283e 3556 833d
000003c0: d8e6 fc3d ae04 3c3e 6404 373e 2d01 4ebe
000003d0: c742 5c3d 0f1b d4bd 8e48 44be d820 1c3e
000003e0: 07d9 443e e46b 093e abff 833b 3cca 2b3e
000003f0: f9e9 27be 26be 113e dc7a 3b3e 5fb7 513e
-0.23901124 -0.27827078 0.116513774 -0.082348 -0.02433408 0.07907506 -0.14616986 -0.25398457
-0.076203436 0.09840664 -0.2602606 0.08829907 0.10386296 -0.20466912 -0.23401 0.05227993
-0.025176127 -0.19680536 -0.18758541 -0.04044929 -0.31512308 0.18959327 0.098502226 -0.057077114
-0.14931656 -0.1415234 0.12802146 -0.25591156 0.020309614 0.062954225 0.127022 -0.22266662
-0.061418645 -0.2631817 -0.13669373 -0.2511032 -0.1953171 -0.18668827 -0.20158452 0.16279852
0.18298393 0.24636045 -0.21574596 0.215532 0.050558917 0.11504882 -0.07290223 0.16687204
0.1106372 0.25722715 0.2378089 0.024087658 -0.06237388 0.11048189 -0.043960247 0.18646179
-0.1252325 -0.17740788 -0.2711579 0.13429908 -0.24031629 0.16491003 -0.15376547 -0.23187628
0.31388405 -0.053059597 0.23016693 0.11111394 0.2775566 -0.25895387 -0.25809518 -0.009547157
-0.022146571 -0.06758528 -0.08898288 -0.22193015 -0.10455756 -0.20369805 0.09405652 -0.09032292
-0.04799528 0.19434154 0.21551108 -0.19724952 -0.09089437 -0.13533331 -0.15521404 -0.033101425
-0.30005628 0.034766708 0.18534243 0.0068625784 0.013555167 -0.0928436 0.14953962 0.055080026
0.16653706 0.17845373 0.067317165 -0.21402648 0.14779583 0.16399075 -0.14257604 -0.25942302
0.13568176 0.12273637 -0.0037337434 0.27885774 0.1599373 0.15232114 0.14620978 -0.22649181
-0.04917135 0.20433402 -0.263368 0.0805124 0.15980273 -0.11760484 -0.07337072 0.09522164
-0.2580516 0.1766486 0.09028473 -0.2577185 -0.12098853 0.17808665 0.15416524 -0.11860805
0.31609878 0.24814928 -0.2933439 -0.06956776 -0.24687734 -0.107231654 0.12216449 -0.28986582
-0.105187066 0.2424457 -0.28485343 -0.12016659 0.13246816 0.116801344 0.23173079 -0.062304504
0.19109495 -0.17094275 0.29242924 0.22069544 -0.091269664 0.19476219 -0.17266345 -0.21442302
0.15430868 0.14529076 0.0178425 0.20071308 -0.013173645 0.17402665 0.11658232 -0.1574944
0.07414787 -0.20959988 -0.0025220043 0.17548108 -0.01725118 -0.24376273 -0.17990766 0.079202354
0.20477085 -0.0626775 -0.17985038 -0.2234476 0.12914966 0.019112205 0.0907129 0.08433282
-0.1518287 -0.21684219 0.061005954 0.21238351 -0.21338123 -0.00719468 0.19727144 0.1584982
0.25533205 -0.05213921 0.21907032 0.1131512 0.063098826 0.12822904 -0.1199752 -0.24808592
0.16981418 0.2226374 0.24080528 -0.018762244 -0.14337534 -0.26419178 0.26934767 0.078752965
0.2723029 -0.04896048 0.10418234 -0.1394985 0.27051625 0.044541996 0.17271341 0.09571208
-0.19574897 -0.1307752 0.063537255 -0.18396744 -0.2425105 -0.22365095 0.28758222 -0.11685738
0.28181043 -0.15018843 0.20804623 0.100299105 -0.20057338 -0.22743672 0.12629825 -0.16821706
0.11522266 -0.0003304207 -0.15145433 -0.18810108 -0.20952304 -0.16705218 -0.22155328 0.030502893
0.08143328 0.14857642 0.20920718 0.12048292 0.109426975 0.041465364 0.16450857 0.06412927
0.123487175 0.1836116 0.17872769 -0.20117636 0.05377462 -0.103567235 -0.19168302 0.15246904
0.19223414 0.13420063 0.0040282807 0.16776365 -0.16397847 0.14232692 0.18308586 0.20480107

bias f4 [6]
00000000: 1051 843d d94b 903d 6f79 253d fe2b 03be
00000010: dd22 ac3d 67ab 06bc
0.06460774 0.07045717 0.04039901 -0.1280975 0.08405087 -0.008219576
