202304182114_bestmodel.pt (torch, 436667 bytes, 10 tensors)

weight f4 [6, 3, 5, 5]
00000000: 5099 593d b937 043e e81c 1d3e 672c aa3d
00000010: a832 73bb b564 333d aeec 5bbd b856 a9bd
00000020: 44af 94bd 906e a93d 66f9 a73c f3b1 e2bc
00000030: 71db 7e3d 9e60 0fbd b136 e73d 6992 fd3d
00000040: 3163 8c3d 7a27 96bd c5a5 6f3d ea42 98bd
00000050: 77e3 053e 1e55 483d 2478 ea3d f88e 923d
00000060: b749 b53d 66ba c238 a282 043d 4912 cd3d
00000070: 0b58 a03c ecca a93d a6fe 9abd be7a abbd
00000080: b5a2 98bd 25c9 923d def6 92bd fa38 5e3d
00000090: ea16 883d 825e 84bd 1d06 0d3d b4db 803d
000000a0: 68f4 99bd 5a83 02bd 0f9a 6d3d 2210 f43b
000000b0: 3d4b 9b3c 2bd8 e5bd d988 5a3b 1a47 3fbd
000000c0: 2bd5 e23c 385a 89bc 0ec5 6dbd a71f f7bd
000000d0: 4fd6 483d a27f 99bd 9459 e1bd 7117 083d
000000e0: 76f8 10bd de28 70bd ca2a 4e3c 5ca6 043d
000000f0: a16e 31be 6b72 e1bc 0b6d 20be 1018 20bd
00000100: 0afc 3ebe 5206 03be 59dc e2bd 0bfe e2bd
00000110: 827f d9bd 9853 15be e117 19be d8d1 31be
00000120: 7125 24be fb98 c33c b080 34be f15d 083e
00000130: 9b94 96bd 1e32 0a3c 51ad ec3d f817 71bd
00000140: 30ed c23b eecd a6bd 204d be3d 729f cc3d
00000150: 6752 8a3d ccab 9fbd 0154 75bd 8de1 153c
00000160: 0299 74bb aee9 873d 4f9a 0d3d 3b54 bf3b
00000170: f6ff 253e 9f3d 2b3e f53f dd3d c17b 003e
00000180: 9471 2d3e 5f2e 9c3d 24eb cb3d bf70 463c
00000190: 75a9 7ebd ca0f 0ebd 8e9b 943d ee1e 8d3d
000001a0: 5581 2a3d 8471 2dbd 4acf 44bd 41cd 4b3d
000001b0: 03df e8bd 9144 68bd 805a 81bd 3c28 d4bd
000001c0: 33eb d33d c49b 943d 9edb aabd 57ba e53c
000001d0: a93f fe3d 9352 8c3d a622 5a39 8a89 cbbd
000001e0: 496b 933d 2152 91bd 433a 493d 6404 093e
000001f0: 603b 50bd f629 4bbd 5734 9fbd a667 b3bd
00000200: 9cc1 87bd e00d 09bd be07 03be 548f 41be
00000210: e575 42be f6a9 b5bd 6da0 1cbe 994e fabd
00000220: 31c9 05be 292a 33be 2b6f 27be 5032 253d
00000230: 9f59 02be a105 2f3d 8d4b f1bd ad93 b8bd
00000240: 4fee 24bc 99f3 b7bd ed76 6dbd 15cb 883d
00000250: 64be a13d 0751 24bd 4014 aabc 3c50 c5bc
00000260: b409 3d3d 7de0 a7bd b2ec 7dbd d661 68bd
00000270: aaec 813d 1829 513c aef3 99bd ba56 88bd
00000280: ba4b b6bd b8f2 9cbc bd3c d83b 6808 adbd
00000290: b992 933d 8f14 dabd b429 9a3d c087 cdbd
000002a0: 1de6 b03d 72b8 123d dc0a c8bd acc2 03be
000002b0: 4cb0 c33d 9deb 313d e188 75bc f1a7 06be
000002c0: 3f23 8b3d 02aa d2bc f603 813d f8ca 74bd
000002d0: bf8a 6abb 3d13 e8bc 2f5b a1bd 3449 6abd
000002e0: 8e01 103a 876a 833d bad4 433d 1eda 94bb
000002f0: ba69 373d 5941 b7bd a305 02bc 7323 ba3d
00000300: cd61 8f3d 48f4 d9bc c45f 023e 9af7 873c
00000310: 4586 a93a 64b4 acbc 5225 093c dccc 173e
00000320: 0dad 99bc 637b 73bc 4c66 c6bb e942 28bd
00000330: 5fe4 ffbc 3e61 35be 8058 66bd cc85 87bd
00000340: 041c 05bc 1d5f 05bd 6fc3 06be 606b 18bd
00000350: 0738 b63d 156d 93bd e477 a9bd d033 75bc
00000360: b9b2 75bd 1dfa 3e3d c182 703c 145c ad3d
00000370: 6e4f 83bc 6030 313d 5732 9dbd 9967 023d
00000380: 2cda f93d 59b7 c03d 5122 913b 224e 3ebd
00000390: e9bf 49bd e6a1 963c 27a8 143c ce4a 0ebc
000003a0: ac82 ddbd 697a 5fbd 1e8a d83c c5e8 633d
000003b0: 13ca 71bd 2dd1 2ebc 2c2f 21bd 66c2 7c3c
000003c0: ea97 eb3c dad4 bb3c e294 2bbd 3c58 c2bd
000003d0: 2516 0a3d 87a8 a9bd 20d5 d23d efb1 bebc
000003e0: 2607 bf3d a64f 76bc 9067 d5bd 083f 0ebe
000003f0: 8f20 2c3c cf74 77bb 4ae0 883c e594 3e3b
0.053124726 0.12911882 0.15343058 0.0830925 -0.003710905 0.043797214 -0.053692512 -0.082684934
-0.07259992 0.08273041 0.020504665 -0.027672743 0.062220994 -0.03500425 0.112897284 0.12381441
0.06854857 -0.07331748 0.0585077 -0.07434638 0.13075052 0.0489093 0.11448696 0.071561754
0.088519506 9.28536e-05 0.032351144 0.10013253 0.019573232 0.082906574 -0.075681016 -0.083730206
-0.07452909 0.071672715 -0.071759924 0.054253556 0.066449955 -0.064633384 0.03442966 0.06291905
-0.0751732 -0.031863548 0.05800825 0.0074482122 0.018956775 -0.112228714 0.0033345728 -0.046698667
0.027689537 -0.016766652 -0.058049254 -0.12066584 0.049032506 -0.07495047 -0.11003414 0.03322548
-0.0353932 -0.058632724 0.012583444 0.032385215 -0.17327358 -0.027520379 -0.15666597 -0.039085448
-0.18650833 -0.1279538 -0.11077184 -0.11083611 -0.10620023 -0.1458267 -0.14950515 -0.17365205
-0.16029908 0.023876658 -0.17627215 0.13317086 -0.07352563 0.0084348 0.11556495 -0.05886075
0.005948685 -0.08144747 0.09292054 0.09991349 0.06753998 -0.077964395 -0.059894565 0.009148014
-0.0037322645 0.06636368 0.03457099 0.0058388985 0.16210923 0.16722725 0.108032145 0.12547208
0.16937858 0.07626032 0.09956959 0.012111842 -0.062173326 -0.034683026 0.07256232 0.06890665
0.041627247 -0.042344585 -0.04804925 0.049756292 -0.11370661 -0.056706015 -0.0631609 -0.103592366
0.10347595 0.072562724 -0.0834267 0.028042955 0.12414486 0.06851687 0.00020803008 -0.09938343
0.071981974 -0.07095743 0.04912783 0.13380581 -0.050837874 -0.049600564 -0.07773655 -0.08760004
-0.06628725 -0.033460498 -0.12795922 -0.18902332 -0.18990286 -0.08870308 -0.15295573 -0.122220226
-0.1306503 -0.17496552 -0.16351001 0.040331185 -0.127295 0.042729978 -0.11781988 -0.09012542
-0.010066583 -0.089820094 -0.057974745 0.0667936 0.07897642 -0.040116336 -0.02076161 -0.02408611
0.04615183 -0.081971146 -0.06199331 -0.05673393 0.06343968 0.012766145 -0.07517181 -0.06657167
-0.089011624 -0.019158706 0.0065990374 -0.08448869 0.072057195 -0.106484525 0.075274855 -0.10035658
0.086376406 0.035820432 -0.09767696 -0.1286723 0.0955511 0.04343759 -0.014986248 -0.13150002
0.06793832 -0.025715832 0.062995836 -0.05976388 -0.0035788266 -0.028329486 -0.0787872 -0.05719872
0.0005493396 0.06416803 0.047810294 -0.004542603 0.044778563 -0.08948011 -0.007935914 0.09088793
0.07001076 -0.02660574 0.12731844 0.016597558 0.0012933692 -0.02108211 0.008370714 0.14824241
-0.018759275 -0.014860961 -0.006054675 -0.041079435 -0.031236826 -0.17712876 -0.056236744 -0.066173166
-0.008124355 -0.03256141 -0.1316049 -0.037211776 0.08897405 -0.0719854 -0.082748204 -0.014965966
-0.059984896 0.046625245 0.014679612 0.08464828 -0.016029086 0.043259025 -0.07675617 0.03183708
0.12199816 0.09409971 0.0044291397 -0.046461232 -0.049255285 0.018387746 0.009073294 -0.008684827
-0.10815939 -0.0545601 0.026433047 0.05564191 -0.059030604 -0.010669989 -0.039351627 0.015427208
0.028758962 0.022928644 -0.041890033 -0.094894856 0.033712525 -0.08284097 0.102945566 -0.023278205
0.09327535 -0.015033638 -0.104201436 -0.13891232 0.010505809 -0.0037758832 0.016708512 0.0029080447

bias f4 [6]
00000000: 6761 f0bd 0ab4 43be bbec 1c3e 8f9a 21bd
00000010: 303f 23be ea93 963d
-0.11737328 -0.19111648 0.1532468 -0.03945404 -0.15942073 0.07352431

weight f4 [16, 6, 5, 5]
00000000: 88a1 b7bc d6f0 9eba cc66 b6bd 47f0 bcbd
00000010: 5e5a 3bbd 51de c93d f236 083d 4292 2c3d
00000020: 497f 17bc 41df 8cbd 2e70 d63d a3e5 b33d
00000030: b924 523d 9acf c5bd ed01 f1bd 8ad8 023d
00000040: c53d ce3d 0702 df3c 0201 42bd 8ed6 b9bb
00000050: 2e19 053e 58e2 8c3c e1b1 c43d c776 b13b
00000060: 9eec 52bd 764b 033d e5b9 acbd bd50 b6bd
00000070: 441d f6bd 7fe6 b7bd b443 d73d 8f6b 53bc
00000080: 9dd4 b3bd 5f45 c1bb 866c 8fbd 39cb 0a3e
00000090: 25bf 2a3d bbfa aebd 8809 0cbe 75a8 04be
000000a0: f433 513b bb68 02bc b041 823d 83fc 30bd
000000b0: 19ac 33bd 62c6 893d cbe5 b93d d1df 433d
000000c0: 0844 b5bc 8e57 cfbc 3a92 a2bd 5888 1c3a
000000d0: ad70 763d 6072 8b3b 120e 633d 5d81 d83d
000000e0: 5205 b03d 0166 5e3d a03c 89bc 7fc4 233d
000000f0: e238 2d3e b7fb 2a3e 3da0 843d a2f4 423c
00000100: a247 6c3d c7d5 5f3e ca1c 353e d0bf 063e
00000110: 8ef0 073e 1070 a13d 354f 233e a1b2 843d
00000120: 97f5 2f3e 9d9d a03d a69a 073b 62b9 1fbd
00000130: beae 7f3c 0279 14be d5c0 b0bc 4c94 09be
00000140: 6c91 ca3d bfd5 88bc 8a88 1fbd 2e46 07be
00000150: 9d55 0dbe a14e 3c3d 845d 54bd 0825 003d
00000160: 9bc5 2cbc 2bb7 f6bd 8a09 663d 65b7 e0bc
00000170: 4301 08bd baed c5bd 7a91 15be c2c7 603d
00000180: 9407 603d 8e0d 313b 0190 d1bd 9442 96bd
00000190: b664 82bd 24de fabd 5d95 ea3c 75bd 673d
000001a0: db69 583d aa73 46bc d4c2 11be 2549 51bc
000001b0: 02e4 5cbc 401e 923c 42e0 a2bd c372 c6bd
000001c0: ad36 8fbd 3abf 443d 6c19 a53d 4816 fabc
000001d0: 6e29 ffbd eca3 aebd 47b1 2f3b 4956 b73d
000001e0: e0a7 3fbd 68f5 ca3c 9317 e1bc 9314 ef3c
000001f0: 695e 053d 8676 ddbc 813f 923c c5e1 eb3c
00000200: e21a 04bd 3af8 bd3c 3ab0 053d d23e a73d
00000210: 6918 4b3d e65d 103d 1ea1 aa3c 596e cb3d
00000220: 98a3 da3d ecdf 09ba ac28 223d c17e b0bc
00000230: fd7e 2a3e 9b30 013e d353 2abd 56ca f83b
00000240: 793e d03c b12a 193e fee5 843c 80e4 7d3d
00000250: a888 04bd 04a7 60ba 1028 35bd 2e3b 02bd
00000260: f390 c93b 41a0 bc3d 38d6 bebb 7181 61bd
00000270: 704b f4bb 8fbf 5ebd 4ab6 703c 8f57 9cbb
00000280: a577 4e3d f119 26bc f437 463d 19a0 9abc
00000290: b224 ab3d 47f1 d13c afb7 9ebc cb34 363d
000002a0: 80d8 59bd 9b39 03bc d6bb b83a 650b 193c
000002b0: 4f5d 1cbd fbbc a4bc fc93 bdbd b606 d63c
000002c0: f76a b73d bc5d f83d 0968 7f3d 5e3a 973d
000002d0: 50a8 ab3d d8dc c53d af60 b63b 6bda d03d
000002e0: 2c15 fe3d b5ca 39bd 9b8f 5bbd c952 773d
000002f0: dfc4 c53d 209d 933d 5a98 9ebd 2aae 2c3d
00000300: 2729 9ebc 498a 54bd bdb7 2ebd ed7b d3bc
00000310: 1ebe 64bd 9da6 ccbc 1393 ebbc 6b47 d8bd
00000320: b3d4 ac3d d275 ae3d 768c 613d d3b8 af3c
00000330: d292 bbba 0851 73bd 5ab5 623d 0ba7 ad3d
00000340: 1a5a f9bc ff99 58bc 3c36 57bc 29d3 15bd
00000350: 211e 90bd 55da 313d 9f90 2c3c 7540 b5bc
00000360: 6e01 05be 2867 9fbc 7e33 ecbd 0bf2 a8bd
00000370: 9721 1dbe 8278 b5bd 9858 75bd 2af4 91bd
00000380: 9bc1 30bd 5b41 893d 9ac9 c23c a7f9 9c3d
00000390: e317 f33d cc16 d53c cfc8 1abd 008d eb3d
000003a0: cfe2 103e a4b5 113e 787e dc3c f441 90bd
000003b0: f83e 4d3b f6ae 433d 960d 343d 33bb b03d
000003c0: 31c4 b1bc 2a56 593d f010 13bd 7914 25bd
000003d0: e48d 5ebb c2ae bd3c 40eb 953d 3e0f d2bb
000003e0: e632 acbd 9f2a ca3c b099 fd3d aa3e 35bc
000003f0: 8a53 2d3d 98ad 873d 4627 073d 4fdb 9e3d
-0.022415891 -0.0012126218 -0.08906326 -0.09225517 -0.045740478 0.098568566 0.033255525 0.04213167
-0.009246656 -0.0687852 0.10470615 0.08784034 0.051304553 -0.096587375 -0.117679454 0.03194479
0.10070375 0.027222646 -0.047364242 -0.005671329 0.12997887 0.017197773 0.0960424 0.0054157707
-0.051495187 0.032054387 -0.08433894 -0.08902118 -0.12017301 -0.089795105 0.1051096 -0.012904062
-0.08780787 -0.0058981623 -0.07003121 0.13554086 0.041686196 -0.08543917 -0.13675511 -0.12954886
0.0031921836 -0.00795954 0.06360185 -0.043209564 -0.043865297 0.06727292 0.09077033 0.04782087
-0.022127166 -0.025310304 -0.07938047 0.00059712445 0.06016605 0.004255578 0.05543334 0.10571549
0.08594765 0.054296497 -0.016752541 0.039982315 0.1691623 0.16697584 0.064758755 0.011899145
0.057685502 0.21858893 0.17686763 0.13159108 0.13275358 0.07882702 0.15948184 0.06479383
0.17183529 0.07842562 0.0020691543 -0.038995154 0.015605627 -0.14499286 -0.021576324 -0.13435477
0.09891018 -0.016703485 -0.038948573 -0.13210365 -0.1380219 0.045973424 -0.051846996 0.031285316
-0.01054516 -0.12046655 0.05616144 -0.0274312 -0.03320433 -0.09664483 -0.14606276 0.054878004
0.054694727 0.0027016136 -0.10232545 -0.073369175 -0.06366865 -0.12249401 0.028635675 0.056577165
0.052835327 -0.012112537 -0.14234477 -0.012773787 -0.013482096 0.01783669 -0.0795293 -0.09689858
-0.069928505 0.04803393 0.080614895 -0.030528203 -0.12459074 -0.08527359 0.0026808546 0.089520045
-0.046790957 0.024775222 -0.027477061 0.029184615 0.03256074 -0.027034055 0.017852547 0.028794179
-0.0322522 0.023189653 0.032638766 0.08166279 0.049583826 0.0352458 0.02082878 0.099331565
0.10675734 -0.0005259502 0.03958957 -0.021544816 0.16650005 0.12616198 -0.041583847 0.0075924797
0.025420414 0.14957692 0.01622295 0.061985493 -0.032356888 -0.0008569809 -0.04422766 -0.03179472
0.0061513125 0.092102535 -0.0058238767 -0.055055086 -0.007455282 -0.054381903 0.014691899 -0.00477118
0.05040707 -0.010138021 0.048393205 -0.018875169 0.083566085 0.025627745 -0.019374697 0.04448394
-0.053184986 -0.00800934 0.0014094065 0.009341096 -0.038174924 -0.020109644 -0.092567414 0.026126247
0.08955949 0.121272534 0.062355075 0.073841795 0.083817124 0.09661263 0.005565725 0.1019791
0.12406382 -0.045359332 -0.05360375 0.060381684 0.09656691 0.072077036 -0.077439025 0.042158283
-0.019306732 -0.05188969 -0.042655695 -0.025815928 -0.055845372 -0.024981791 -0.028756654 -0.10560497
0.08439007 0.08518566 0.055065595 0.021450436 -0.0014310724 -0.05940345 0.05534873 0.084791265
-0.030438472 -0.013220309 -0.013135489 -0.03657833 -0.07036997 0.04342111 0.010532527 -0.022125462
-0.12988827 -0.019458368 -0.11533259 -0.08249291 -0.15344845 -0.08860876 -0.059898943 -0.07126649
-0.043153387 0.06701919 0.023777772 0.07664805 0.118697904 0.026011847 -0.037789162 0.11501503
0.1414902 0.14229447 0.026915774 -0.070438296 0.003131805 0.047774278 0.04395827 0.086294554
-0.021699997 0.053060688 -0.035904825 -0.040302727 -0.0033959085 0.02315462 0.07320261 -0.0064105084
-0.084081456 0.024678526 0.12382829 -0.011062304 0.042315997 0.06624907 0.03299644 0.077566735

bias f4 [16]
00000000: 55f9 f8bc af88 efbc 1968 a83d c80d a53c
00000010: 6a96 86bd 84f6 413d 4b45 f53d 0d9c 89bd
00000020: 5551 97bd 9481 a0bd 8ba4 c6bd dfcf ee3d
00000030: bf25 a0bd b1f3 8cbd c85a 05bd 2dcb bdbd
-0.030392328 -0.02923998 0.0822298 0.020148173 -0.06571658 0.047354236 0.11976107 -0.067192174
-0.0738856 -0.07837215 -0.09699353 0.11660742 -0.078196995 -0.06882418 -0.03255728 -0.09267268

weight f4 [120, 16, 7, 7]
00000000: 7105 bf3c 47ec c6ba 08f6 1f3d 82bb b33c
00000010: 71ba cbbc 14f4 fb3b e58e 403c 1eb4 443c
00000020: 24e1 54bb 83f5 7d3d 09af b23c 3fe2 d8bc
00000030: dcf5 2bbd 44ac d73c f869 0ebd 5cae 013d
00000040: ab58 003d 4d5c 70bc 4a6c e63c 3ec7 f9bc
00000050: d47c 30bd 8f39 e6bc 277a f8bc f336 75bd
00000060: 0f09 ea3c 2993 9d3c 2a95 a43c eef4 b6bb
00000070: ae4c cc3c 3f08 073d 29ac e0bb 023f d13b
00000080: 6010 163d e07b a3bb 6cc3 223d b075 77bd
00000090: 768a 023d b203 07bd 5e9e 573c 18de 0e3d
000000a0: dc5d 09bd 03f6 4abb e10b f639 7ef9 e2bc
000000b0: 1637 6b3a 842b 58bc 5d25 1d3c ef21 bebc
000000c0: 4db1 aebc 2fa3 12bc e921 9e3c c450 763c
000000d0: 49f9 48bc cbe4 8ebc 541c 11bc 5b8f d23c
000000e0: a475 0ebc 13bd 7dbc 87f5 5cbc c4fc 00bd
000000f0: 081b d9bc 2ed7 033c d458 4abb bc0e 0bbd
00000100: 48da 82bc 30a1 183c a8cf fc3b 1557 043c
00000110: 4756 d63c 3dc6 ecbc dbb4 f7bc f46b f53c
00000120: 5520 273d b3d0 15bd b5f0 2dbd eae1 d9b9
00000130: ea6a 57bd 108a 01bc 3e2f cbba 6908 f3bc
00000140: f2f7 503c 4fad 92bb 8db4 a2bb b38f cbbc
00000150: 28bf 1f3d ef63 ea3c 531c 043d 96df d0bc
00000160: f138 503c b456 823c 774f 193d da16 0cbd
00000170: d167 383b abf6 003d 5a3a 033d 02b7 733b
00000180: a2ee 89bc b883 ec3d 3022 0bbd f793 b9bc
00000190: 7b7e e53c cdb1 cc3c d5d9 50bb 620b 3dbd
000001a0: 0339 cc3c 1144 a3bc dafc 283d db0d 1fbd
000001b0: 9fe4 cf3c b8bf eb3c caeb 9c3c 5a97 c33a
000001c0: a58a 1abc 3492 20bd 44ae bf3b f51d cbbb
000001d0: 031b 1c3a 4017 c7bc 7248 91bc 46ad 67bd
000001e0: cde4 17bd c4b0 0ebd 7ac7 57bc 1d6f 2bbc
000001f0: 2d9e 19bd c1bf 76bd d5ee 03bd 38d1 bdbc
00000200: 1571 16bd 4adb 2abd 8664 c0bc ed27 8bbd
00000210: 6f2c a6bc 1745 403c 8f1f 30bd 1256 a9bc
00000220: 3d29 7bbc 37be 1b3d b35c 0bbd e469 f1bc
00000230: 1234 6fbd d01d 63bd bb52 1a3d d3d3 bfbc
00000240: 2c10 dd3c d475 ee3c 0995 2b3d d4b8 e5bc
00000250: d896 b43c c414 edbc f6e3 11bd a2cf 64bc
00000260: d3fa c83b e5a5 153d 44f8 1b3b 2ad2 c8ba
00000270: 1448 3a3d 485e d3bc b2f2 d03c 8bf3 203d
00000280: af27 87bc 09d1 253d c5fb 033d efbc 3b3d
00000290: e0b1 093c 652b 883c 703c f43c 15be 023d
000002a0: 2b28 c7bb 0bf4 3cbc 3f03 543d fa64 e5bc
000002b0: b421 96bc c7bb 3d3c 4a33 bd3c af08 5a3c
000002c0: b0b2 c3bb c315 97bc 71df 823c ebb8 ae3b
000002d0: 2ce2 ac3c c664 a63c c7fc 66bc 1014 4dbc
000002e0: 7719 71bc c2f8 363c 5822 02bc a2e6 8c3d
000002f0: 0bd2 e0bc 5997 9cbc ca85 453d 31a7 083c
00000300: 70f7 833c 921d 84bd 6df3 86bc c641 72bd
00000310: 3272 b43c 6777 c43c c67e b7bc 157d a93c
00000320: ba43 033d 7c57 573c f4c5 d33c 0298 b2bb
00000330: 7862 f9bb 19dd c33b d494 3a3c abdf 0abd
00000340: 8105 e93c 22ac 2abd 1df4 2dbb 048c 9cbb
00000350: 434e 8dbc 7a2a 113d ea96 a1bc 94a2 383b
00000360: 6a9c 0d3d 6eef 8ebc eb60 11bc 1960 13bd
00000370: b7ad 8ebc 34db 87bc d2e7 933a 9b9e 103d
00000380: 6690 803c 8f22 0d3d 9bb8 2fbc 8c9d ff3c
00000390: 6593 bebc ff6c fd3b 4aa0 913d 0335 ea3c
000003a0: ddc8 443d 0099 4fbc b7bf 243d 6aa9 34bd
000003b0: 46f0 0c3d 5b45 203d 9205 533d 7e37 eb3c
000003c0: 7e47 8fbc d7de 7fbc adac 1dbd 57bb d33b
000003d0: 3c21 97bc 895c 03bc 98be 913a fcd9 a73b
000003e0: 723e 66bb 8778 f43c 7713 3fbc 3af4 59bb
000003f0: 10d5 023d 46a4 e43b c5cc b93c 9455 0c3c
0.023318024 -0.0015176617 0.039052993 0.021939997 -0.024869176 0.0076890085 0.011752819 0.012005834
-0.0032482827 0.062001716 0.021811979 -0.02647507 -0.041982517 0.02632726 -0.03476903 0.031660423
0.03133456 -0.014670444 0.028127808 -0.030490514 -0.043087795 -0.028103618 -0.030331684 -0.059866857
0.028568773 0.01923521 0.020090658 -0.005583397 0.024938907 0.03296685 -0.0068564606 0.006385685
0.03663671 -0.0049891323 0.03973715 -0.06041497 0.031870328 -0.03296251 0.013160316 0.034879774
-0.033536777 -0.0030969388 0.00046929627 -0.027706858 0.0008972747 -0.013193969 0.009591428 -0.02320954
-0.021324778 -0.008950039 0.019303279 0.015033904 -0.012266465 -0.017443081 -0.008856852 0.025703123
-0.00869504 -0.015486973 -0.013486273 -0.031491056 -0.026502147 0.008046908 -0.00308757 -0.0339496
-0.015973225 0.009315774 0.0077151842 0.008077403 0.026164187 -0.028903121 -0.030237606 0.029958703
0.04080232 -0.036575984 -0.042465884 -0.00041557784 -0.052592196 -0.007906452 -0.001550175 -0.029667096
0.012754427 -0.0044762264 -0.004965371 -0.024848795 0.03900066 0.028612105 0.032253575 -0.02549724
0.012708888 0.015910484 0.0374293 -0.03420148 0.0028138051 0.03148524 0.03203807 0.0037187939
-0.016837422 0.11548561 -0.03396815 -0.022653563 0.028014412 0.024987126 -0.003186812 -0.046153434
0.024929529 -0.019929918 0.041256763 -0.038831573 0.02537757 0.028777942 0.019155402 0.0014922426
-0.0094324695 -0.03920193 0.0058496315 -0.0061986395 0.0005954953 -0.024303079 -0.01773474 -0.05656173
-0.037083436 -0.034836546 -0.0131701175 -0.010463503 -0.037504364 -0.060241465 -0.03221019 -0.023171052
-0.036728937 -0.041713037 -0.023485433 -0.067947246 -0.02028486 0.011735222 -0.042998847 -0.020670924
-0.015329656 0.0380232 -0.03402395 -0.029469438 -0.058399267 -0.055448353 0.037676554 -0.023416435
0.02698525 0.02910892 0.041890178 -0.028042234 0.022044584 -0.028940566 -0.03561779 -0.013965519
0.006133416 0.036535162 0.00237991 -0.0015321423 0.045478895 -0.025801793 0.025506351 0.03929476
-0.016498415 0.040482555 0.032222528 0.045834478 0.008404225 0.016622255 0.029813975 0.031919558
-0.0060777864 -0.011532794 0.05176091 -0.028002251 -0.018326618 0.011580414 0.023095746 0.013307734
-0.005972229 -0.018442994 0.015975686 0.0053321025 0.02110394 0.020311724 -0.014098353 -0.01251699
-0.014715544 0.011167707 -0.0079427585 0.06879927 -0.027443906 -0.019115137 0.048223294 0.008340643
0.016109198 -0.064509526 -0.016473496 -0.059144758 0.022027109 0.023982717 -0.022399317 0.020689527
0.03204701 0.0131434165 0.025851227 -0.0054502496 -0.0076106153 0.0059772846 0.011388022 -0.033904713
0.028445007 -0.041668065 -0.0026543208 -0.0047774334 -0.017249232 0.0354409 -0.019725282 0.0028173076
0.034572996 -0.017448153 -0.008873205 -0.035980318 -0.017416818 -0.016584016 0.0011284298 0.035307508
0.015693855 0.034456786 -0.010725166 0.031203054 -0.023263643 0.0077339406 0.07110651 0.028589731
0.04804312 -0.012670755 0.040221896 -0.04410688 0.03440883 0.039128643 0.051518984 0.028712984
-0.017490145 -0.015617094 -0.038494755 0.0064615416 -0.018448465 -0.008017668 0.0011119423 0.0051224213
-0.0035132435 0.029842628 -0.011662356 -0.0033257143 0.031941473 0.0069775907 0.02268065 0.008565325

bias f4 [120]
00000000: f40c 1bbd d5b4 6fbc e9be 2fbd eeb0 25bd
00000010: 1610 533b 9c73 4e3c 87bb 033d b30f 5c3c
00000020: a134 c1bc 309e 133d 19d9 dabc c98b 64bc
00000030: c406 493c 3aff a03c 79c2 31bd 46a3 9fba
00000040: ef6e 43bd aec3 37bc 3742 d93c 1991 e9bc
00000050: 8330 1a3d 430c 143b 8654 963c 672f bdbb
00000060: 2f9d d3bb b896 01bd 43f6 113d d738 cfbc
00000070: 6115 ad3c 61d8 bebc b4a7 efbc 0fee e5bb
00000080: 7e8d 16bd 679b 213c 4701 be3c 2888 e3bc
00000090: cda9 c53b 0ab8 653c 8824 8f3c 2c5b 07bd
000000a0: 4b88 8f3c 8da4 be3c e4b7 bdbc dc76 853c
000000b0: 39d5 1abd e912 513c b4e6 e3bc 6874 d43c
000000c0: 5c08 ae3c 7c2d 6bbc 53ab b5bc 278a 3e3c
000000d0: 3592 cfbc 25e8 64bc bb91 8c3c 77ab 0abd
000000e0: 1359 743c 7645 8cbc 62fa 55bc 1923 523a
000000f0: f836 a5bc e2aa 42bc 57eb 12bd 7bed 733b
00000100: 57d7 3bbc e366 923c ff58 0abd 074c 023d
00000110: 3378 b83c ffa6 a73c bd1c d43c 6726 4ebc
00000120: 41fa 3c3c 6957 12bc d7f4 bbbc 4401 1f3d
00000130: 7518 8e3b bf55 47bc f1e5 ebbc 2359 b13c
00000140: 059b 2a3d ed02 71bb 7a29 16bb 4a7a ffbc
00000150: 78d3 853c 1154 b53c 89aa 7a3c fba2 bcb7
00000160: 8129 f5bb b936 8f3c a8ed 0cbc 71f9 0bbd
00000170: 76ba 3d3c 9def 0dba 68e5 b53c 6ec7 a3bc
00000180: ac0d 583c 1a94 4b3c a759 74ba 6266 9fbc
00000190: 3c0f e3bb c75b 1c3b a870 273b 5f64 c73c
000001a0: 379f 0dbd 27ad 853c c3ac c0bc 1826 e23c
000001b0: c96f 193a 075e 523c d733 d93c abc7 3fbc
000001c0: 9a1a 83bc f3a1 1a3c 9548 a6bc 7558 413b
000001d0: af91 6fbc 3457 8abb 6239 a63c 7296 bebc
-0.03785415 -0.014630516 -0.042906675 -0.040451936 0.0032205633 0.012600806 0.032161262 0.013431477
-0.023584666 0.03603953 -0.026714848 -0.013949343 0.012269679 0.019652952 -0.043398354 -0.0012179397
-0.047713216 -0.011216087 0.026520832 -0.02851157 0.03764392 0.0022590316 0.01835085 -0.005773473
-0.0064579467 -0.031637877 0.035635244 -0.025295658 0.021128358 -0.023296537 -0.029254772 -0.007016904
-0.03675603 0.009863711 0.023193968 -0.027774885 0.0060322047 0.014020929 0.017473474 -0.033045933
0.017521044 0.023271823 -0.023158975 0.016292028 -0.037801 0.012760856 -0.027819969 0.025934413
0.02124422 -0.014354106 -0.02217642 0.011629618 -0.025338272 -0.013971363 0.017159333 -0.033854928
0.014913815 -0.017122965 -0.013060184 0.0008016094 -0.020167813 -0.011881562 -0.03586897 0.0037220407
-0.011464915 0.017871326 -0.03377628 0.031810787 0.022518253 0.020465372 0.02589261 -0.012582398
0.011534275 -0.008931973 -0.022943897 0.038819566 0.0043364116 -0.01216644 -0.028796168 0.021648949
0.041651744 -0.0036775426 -0.0022912906 -0.031186242 0.016336188 0.022134813 0.015299448 -2.248724e-05
-0.0074817543 0.017482148 -0.008601584 -0.034173433 0.0115801 -0.00054144283 0.022204116 -0.019992556
0.013186853 0.012425447 -0.00093212206 -0.019458 -0.0069293063 0.0023858414 0.0025549326 0.024339853
-0.034575667 0.016317917 -0.02351988 0.027606055 0.0005853144 0.012839801 0.026513977 -0.011705319
-0.016003896 0.009438026 -0.020298282 0.0029502187 -0.014622136 -0.004221821 0.020291034 -0.023265097

weight f4 [84, 120]
00000000: fd92 8a3d a3b3 183b 9ea6 85bd 4302 1fbd
00000010: b0d0 dcb8 97a8 133d 32b4 5c3d fad9 93bd
00000020: e53c c93d 158a 2d3d df37 43be 6130 a03d
00000030: 1860 e2bc c64d d83d ce6b 0cbd f373 14bd
00000040: 17cf 22bd a984 c13d 6d85 493d c25a 34be
00000050: 1843 ea3c bf62 9d3d c2e9 13be 6ab9 3f3d
00000060: 0e70 a8bd 03b0 18bd c338 6c3c fc36 a83d
00000070: 806b 373e 2cd7 edbd e2f5 b33d aad3 d73b
00000080: af9d 0e3d d98e 8dbd 9e24 073d c2f1 d1bd
00000090: 7efb 95bb 7160 c43d 21fa 21bd 200a 2fbd
000000a0: e8cf f53d 25af ca3d 74da aebd 35f7 8cbb
000000b0: c2d5 9abd 015d 4dbd 143f 193e a2ac 82bc
000000c0: 78a2 1e3d 29aa 603d 8df4 8dbd 2063 11be
000000d0: b3b3 f8bd d135 1dbd 3938 e1bc 4785 94bd
000000e0: 9945 94bd 79f2 acbd 0ed0 29bc b071 a2bc
000000f0: dccf 7e3e e2c6 5cbd 39e0 d03d 94e4 a8bd
00000100: 9f46 0c3d 66c6 b5bd 2723 b8bd 01c4 97bd
00000110: 3333 d23d 2977 ccbd 1c72 d03c 6166 743d
00000120: 64a7 9d3d 436d 20bd d4ee 71bc 61e2 523e
00000130: bd17 8a3b a34d 2f3d faeb db3d f954 edbd
00000140: 6ae7 3fbe e9e3 1b3d 9de1 0bbe 36cb 913d
00000150: d7ad 8abc d7cb 5abd 286f 033e 8c8c 883d
00000160: 7c92 553d 6ab5 07bd 6a2a 13bc 10cc 1c3d
00000170: db3d 803c 0a8c 45bd 68bb 7abd 19d2 8b3d
00000180: 71d0 af3c 4be8 49bc 01e4 f5bb 6414 8bbd
00000190: 2a30 e23a 5e60 793d 729f aabd bd55 3d3d
000001a0: fc06 753d 520b 9abd ba3e 7ebd 1090 583d
000001b0: 965e 4fbc 64cb 9f3d 9958 09be 8cca 953d
000001c0: 3026 cf3d 8338 1cbd fdde b73d 9017 0bbe
000001d0: 79ac 97bd e799 c0bd 63a8 83bb db8d 36bd
000001e0: a27c 61bc 3ab1 b13d 2498 13be aa3f 04be
000001f0: 554c 90bd a160 70bd f1dc d4bc ef9d 223d
00000200: b4a6 78bc 1c92 493e 3290 613d 3005 d3bd
00000210: 66bf e6bc b224 cb3d 0987 2fbd d8a4 a83d
00000220: e8b7 87bd 783f 993d 7d1f 5bbd fd11 313d
00000230: 233c 75bc 2f73 083d e446 1e3d 48e6 cebd
00000240: 2c13 85bc 1d42 9cbd 2b48 0a39 efe6 a7bd
00000250: b0e6 86bd 0d4c 7cbd 9d9f e2bd ff1d 26be
00000260: ef90 aa3c 887e 3e3c 5672 b0bd a681 083c
00000270: d3e9 813d 89fa 5abd 2c24 fdbd 1f5c bebd
00000280: ca56 d5bd 5c86 e9bd 9fd2 5e3d 7423 4bbc
00000290: 0406 40bd e6d1 fabc ddf3 2dbe 15db 933d
000002a0: c7c3 acbd dae2 e0bd 226d d43b 81bc 59bd
000002b0: cb11 c4bb 20b0 d43c 1091 4fbc 5237 3bbd
000002c0: 1b74 ed3c 4098 42bd 28d0 343c 3817 a83c
000002d0: 06ad 54bd 5385 943d 6b65 efbd b38c 98bd
000002e0: 154e 9cbc b8a2 a43d f74f 543d 9a0a 0b3e
000002f0: e1d4 c839 f299 44bd f92f 19bd f229 2abd
00000300: 12cf 7ebd 3b3e 583e b4c9 46be f1ff a7bd
00000310: 51b6 0bbe 9802 e33d 09f8 1f3b 90b0 dbba
00000320: 3bef 1abd 67d5 ad3d 2085 cc3d 7647 08be
00000330: f832 8abd 497a 37bc eddc da3d e40d 38be
00000340: f7ac 313e 2a67 7d3d 35a3 c63d 80c2 273b
00000350: ef24 3abd c0d9 0abe 9074 9f3d da5f f83a
00000360: 8010 443b 6701 4cbd 1426 c3bd bda6 023d
00000370: abdb 123e 64c3 713d 2374 38be 0975 13bd
00000380: a558 d13d b85d 7fbd b8df ebbd fbb3 f23b
00000390: ae99 d63c 0426 ca3c b186 9c3c d713 28be
000003a0: 948e 8e3d 6b72 9d3d ff9c 8c3d 90ae aa3d
000003b0: d424 23bc fe78 bc3d 4aa3 2dbd db95 353d
000003c0: 0b52 c63d 65f6 b33d c3cd 03be e2b9 1fbc
000003d0: b625 933d c369 aabc 0d0e e7bc 2b1a 8f3d
000003e0: 97d0 c13d c3c2 823d 517b 10bd 5cf0 a73d
000003f0: 52d8 3c3c 5a37 c6bd 7092 823d dee8 2ebd
0.06766317 0.0023300431 -0.0652592 -0.038820516 -0.000105292886 0.03604945 0.053882785 -0.0721931
0.09826068 0.042368013 -0.19064282 0.078217275 -0.027633712 0.10561709 -0.034282498 -0.03624339
-0.039748278 0.09449131 0.04919951 -0.17612746 0.028596446 0.0768485 -0.1444464 0.046807684
-0.08224498 -0.037277233 0.01441783 0.082136124 0.17912102 -0.116133064 0.08787133 0.0065865116
0.034818348 -0.06912012 0.032993905 -0.1025119 -0.0045770993 0.09588707 -0.039545182 -0.042734265
0.120025456 0.098966874 -0.085377604 -0.0043019303 -0.07560302 -0.050137524 0.14965469 -0.015951458
0.03872916 0.054849777 -0.0693141 -0.1419797 -0.1214365 -0.0383814 -0.02749263 -0.07251983
-0.07239837 -0.084446855 -0.0103645455 -0.019829601 0.2488398 -0.053900607 0.10199017 -0.08246723
0.034247037 -0.08875732 -0.0899108 -0.07410432 0.10263672 -0.099836655 0.025445037 0.05966795
0.07697943 -0.0391667 -0.014766414 0.20594169 0.0042142556 0.04279865 0.10738368 -0.11588473
-0.18740621 0.03805915 -0.13660283 0.071188375 -0.016928596 -0.053417053 0.12835371 0.06667432
0.05214165 -0.033131994 -0.00898228 0.038280547 0.015654495 -0.048229255 -0.06121388 0.06827182
0.021461697 -0.012323449 -0.007503987 -0.067909986 0.0017256786 0.06088292 -0.08331193 0.046224345
0.059821114 -0.075216904 -0.06207154 0.052871764 -0.012656828 0.078024656 -0.13412704 0.073140234
0.101147056 -0.03813983 0.089780785 -0.13583207 -0.074059434 -0.094043545 -0.004017876 -0.044568878
-0.013762625 0.086763814 -0.14413506 -0.12914911 -0.07045809 -0.058685903 -0.02598426 0.0397014
-0.015176464 0.19684643 0.055069156 -0.10303724 -0.028167438 0.099191085 -0.04285339 0.082345665
-0.06626874 0.07482809 -0.053496826 0.043230046 -0.014967951 0.033312973 0.038641825 -0.101025164
-0.016244493 -0.076297976 0.0001318759 -0.08198344 -0.06586969 -0.061595965 -0.110656 -0.1622238
0.020821063 0.011626847 -0.08615558 0.008331692 0.063434266 -0.053461585 -0.12360415 -0.092949145
-0.10416944 -0.1140258 0.054400083 -0.012398589 -0.046880737 -0.030617665 -0.16987558 0.07219521
-0.08435779 -0.109807685 0.006482736 -0.053158287 -0.0059835664 0.02596289 -0.012668863 -0.045707054
0.028986027 -0.04750848 0.011035956 0.020518884 -0.05192282 0.07251992 -0.11689266 -0.07448711
-0.019080201 0.08038849 0.051834073 0.13578263 0.0003830558 -0.047998376 -0.037399266 -0.04154391
-0.062209196 0.21117489 -0.19412881 -0.08203114 -0.13643767 0.11084479 0.0024409315 -0.0016760994
-0.037825804 0.08487969 0.09986329 -0.1330851 -0.06748003 -0.011198589 0.106866695 -0.17974049
0.17351137 0.061865963 0.09699098 0.0025598109 -0.04544538 -0.13559628 0.077859044 0.0018949464
0.0029917061 -0.049806025 -0.09528747 0.031897295 0.14341609 0.05902423 -0.18013053 -0.036000285
0.10221986 -0.062345237 -0.1151728 0.0074067093 0.026196327 0.02467633 0.019107195 -0.16413818
0.06960788 0.07687839 0.06865882 0.083340764 -0.009957511 0.09202765 -0.042392053 0.044332366
0.09683617 0.087872304 -0.1287146 -0.009748908 0.07184927 -0.020802384 -0.028204942 0.06987413
0.094636135 0.06384804 -0.035273854 0.08200142 0.011526184 -0.09678526 0.06375587 -0.04270255

bias f4 [84]
00000000: 853d 09bd f117 e0bc 7423 45bd 9d3c 03bd
00000010: ef7d a03c a6d2 39bd 3635 dfbc 9434 0b3d
00000020: 9a5a 9ebd 526b fbbd 4b0c 283e b85e 82bc
00000030: 11ee ed3c fabe 3ebb 4824 5abd 3e7c 56bd
00000040: ce4f 3e3d 91f7 5f3d 8a11 d1bc 491f 50bd
00000050: 7487 013c 69f1 93bc dfde 133d e522 643c
00000060: 0960 013c 0ec8 cd3c d542 b23d 15af 983d
00000070: 159b 033e 8ccb 7f3d ece2 b03c 2311 d2bc
00000080: 0337 fcbd ccc7 27bd 95f1 e9bc 5811 8c3d
00000090: 6fef 0dbd 2ee9 0b3d 313d a03c 46fa ebbd
000000a0: c5b3 86bc 4e42 5f3d d9b1 3a3d 8a23 2ebd
000000b0: 6756 25bd aa67 69bd b97c 67bd a55a b1bc
000000c0: eb09 00bd 2978 9c3d 7018 993c 3c5f 91bd
000000d0: 235c 0b3d e4c4 5d3d ecb5 8dbd cf4f 7f3d
000000e0: d674 d23d bf81 aabd b76b 5abd b80f 23bd
000000f0: c2a4 06be 150d 92bd ce83 a03d 54b0 943d
00000100: 2034 e2bb 1c53 af3c 096f 6c3d 9eed 983c
00000110: fc6e 8fbd 1b4f 403d 351c 483c cdc9 893d
00000120: 1608 ab3d bcf4 03bd e61d 6bbc 2f34 ddbc
00000130: b367 dc3d b172 a03d 1e0a e23b 5a16 a83c
00000140: 6da1 c9bd fbb8 713d 460d 66bd fb97 04bd
-0.033505935 -0.027355166 -0.048129514 -0.032040227 0.0195913 -0.045366906 -0.027247053 0.03398569
-0.077321246 -0.12276329 0.1641094 -0.015914306 0.029044183 -0.002910553 -0.053257257 -0.05236458
0.046462826 0.054679457 -0.025521059 -0.050811086 0.00790583 -0.01805945 0.03610122 0.013924335
0.007896432 0.025119808 0.087041534 0.07455269 0.12852128 0.062449977 0.02159258 -0.025642937
-0.1231518 -0.040962026 -0.028557578 0.068392456 -0.03465217 0.034157924 0.019560428 -0.11522345
-0.016443143 0.054506592 0.045579765 -0.04251436 -0.040365603 -0.056983627 -0.05651543 -0.021649668
-0.03125946 0.07640106 0.01868841 -0.07098243 0.034023415 0.054142848 -0.069194645 0.06233197
0.10276191 -0.08325528 -0.05332538 -0.039809912 -0.13148788 -0.071314014 0.0783764 0.072601944
-0.0069031864 0.021401934 0.05772308 0.018667992 -0.070035905 0.04695044 0.012213756 0.067279436
0.08351152 -0.03221582 -0.01435039 -0.027002422 0.107619666 0.07834376 0.0068981787 0.02051847
-0.09845243 0.0590143 -0.056165002 -0.032371502

weight f4 [6, 84]
00000000: 74f5 f23d 6294 8cbc cf9a c7bb f154 243e
00000010: 5c6a 5a3e 1387 91be 58f5 943e 0660 503d
00000020: 369c a9bc 3ef0 1abe 62e1 2e3e 8c11 0a3e
00000030: c990 3c3e 51a7 2cbe b756 d0bd 7686 a23c
00000040: c11f 93bb 8d74 99be de29 863e 5eed 3e3c
00000050: 958f 7f3e a3fb 343d 0adb 1dbd 0bad 7a3e
00000060: 2bb4 333e 58a5 843e 1fbf 243e d835 953c
00000070: 72aa 863e c218 aa3d 7bb2 463e c91f 67be
00000080: e396 56be d55d 163d c71c 7b3e 106e b2bd
00000090: ae55 853e d07b 85be e270 06bd d754 3abe
000000a0: c01d 0dbe ae57 35bd cc1f b6be 5363 d13d
000000b0: 329a 9b3e 55a6 413e 8721 4dbe 59fa 703e
000000c0: 9851 683e 3033 713d 8050 52be cce5 933e
000000d0: f49f 71be a2f0 1bbd 7e17 ccbd 38ec 2cbe
000000e0: 26d6 2b3e b116 30be 72e4 993d e5aa 43bd
000000f0: 8144 23be 3f02 ebbd 510a 4f3e 9c14 1fbd
00000100: cde4 893d 996d 393e 6460 d73d 81eb 8abe
00000110: 0501 98bd d97c b33d 5a1c 833e 2888 dbbd
00000120: b821 8ebe 4d78 013e 4ad1 43bc ad95 5f3e
00000130: 4e67 253e 8c02 663e 5ef8 f7bc 259c 3c3e
00000140: 896d 9bbd 7596 833e 96e2 87be eb32 323e
00000150: 8e1e 2bbe 08f5 94be e6a0 6abe 86b6 3a3e
00000160: 531f d33d db6b 15be c14c f1bc bb30 89be
00000170: 6f59 503e 7e32 553e becc 7bbe 1994 f8bd
00000180: 4388 69be 3a5e 1abe ebc7 1f3e d1cb 7bbe
00000190: 6164 7a3e c60e f33d bfc6 bcbb 37eb 633e
000001a0: bbb8 3fbe 5d01 b23d eba0 0ebe 80fa 0fbe
000001b0: ae36 593e 5ae7 91bc fdd9 8bbe db73 da3d
000001c0: dfb2 c73b 8fc3 1b3e 8e40 0ebe 3f70 373e
000001d0: d3a4 183e 4bb5 3f3e 9246 71be 0c73 68bb
000001e0: f711 41bd 3b6b 173e 9c49 033e 4841 3bbe
000001f0: 7b17 b13d 2b97 373e 12de 8a3d 00bc 94be
00000200: 184a d23d 37aa 04be 0963 ee3d c50d 0abe
00000210: 366a 2fbe d741 cfbc 4714 2dbe 9345 54bd
00000220: 3ae8 91ba 36e5 9ebe 3f83 3ebe 3010 713d
00000230: bc4a 53be e1f7 95be 4d0b b4bd 78a2 453e
00000240: 62a3 3e3e 3cc4 663e d0b1 febd 1965 90be
00000250: 799d 56be 6b75 6ebd 1fe7 833c 041c ce3d
00000260: be2b 3e3e 9670 30be 1774 3f3c c1de 623e
00000270: f645 e73d 8425 45be 9e67 81be c93f 843d
00000280: 92cf 02be 85fe 02be 4e9b 55bd c88e a3bd
00000290: 6a89 eb3d 6465 93bd fb55 863d c4b2 8abd
000002a0: d5d0 01be c371 8b3e 9c4f 21be f1eb 7f3e
000002b0: 714d 8d3d ffce 303e 3d4b 22be 62df 893e
000002c0: 2d17 6e3e 995a 3fbd e5ca f43d 3207 623e
000002d0: ca42 fe3d 044f 66be 1fc2 4abe 5a3b 853e
000002e0: 7752 2dbe 22ca da3d 9e6c 4dbe f276 9dbd
000002f0: adeb d83d dc67 703c 0804 30be 8d47 00be
00000300: 8855 1abe 8650 37be 6a34 6d3e ef00 d03c
00000310: 5d51 293e 2305 633e a43a f6bd 8e96 45be
00000320: 128d fd3d d2d7 803e 3b1d 473e 4632 cbbc
00000330: 3eb5 cebc 1405 c43d 3334 1fbe 4ba8 61be
00000340: 6a19 4b3e 048a 833e e788 9abd c3b4 743e
00000350: 43fb a23d 942f 2cbe 727b 68bd 5986 85bd
00000360: 584c 883d 8c35 0fbe 6cc5 013d 2a89 df3c
00000370: d42e ad3d 2ebc 953e 1d3d 82be 30b4 c63d
00000380: 938e 29be 6ad5 223e 9492 1fbe a3e6 103e
00000390: 0af9 803e 533d b3bd 0727 15be f635 073e
000003a0: 6667 663e ef07 3abe afd2 223e 8dcd 1dbe
000003b0: 2c02 023c 44d1 77be 0e25 0ebe 01f7 89be
000003c0: 7f4b 203e ff59 4c3e 1d10 303e 04ad 52be
000003d0: b009 86be c30a 1abd 792c 443e 1c07 fbb9
000003e0: 3c90 813e a1bc debd 42eb 1e3e 2743 4dbe
000003f0: 7711 d63d 9793 51be 11a3 f33d bfc4 d7bd
0.11863223 -0.017160598 -0.0060914527 0.16048028 0.21329635 -0.28423366 0.29093432 0.050872825
-0.02070437 -0.15130708 0.17078164 0.13483256 0.18414606 -0.16860701 -0.101727895 0.019839507
-0.0044898693 -0.29971734 0.26203817 0.011653272 0.24957116 0.044185292 -0.03853897 0.24480073
0.17549197 0.25907397 0.16088532 0.018214151 0.26301914 0.083055034 0.19404022 -0.22570719
-0.20955996 0.03671058 0.24522696 -0.08712399 0.2604193 -0.26071024 -0.032822497 -0.18196426
-0.1378088 -0.04427307 -0.35571134 0.10224023 0.3039108 0.18911107 -0.20032321 0.23533
0.22687376 0.058886707 -0.20538521 0.2888626 -0.23596174 -0.038071282 -0.09965418 -0.16886985
0.1678091 -0.17196156 0.075142756 -0.0477704 -0.15944101 -0.11475038 0.20218779 -0.038838014
0.067330934 0.18108214 0.10516432 -0.271328 -0.074220695 0.08764047 0.25607568 -0.10719329
-0.277601 0.12643547 -0.011951754 0.2183444 0.16152689 0.22461909 -0.030269798 0.1841894
-0.075892515 0.25700727 -0.2654006 0.17402236 -0.16710874 -0.29093194 -0.2291294 0.1823369
0.10308709 -0.14591925 -0.029455544 -0.2679499 0.20346616 0.20820042 -0.24589822 -0.121376224
-0.22805886 -0.15075007 0.15603606 -0.24589469 0.24452354 0.11868052 -0.005760997 0.22257696
-0.18722813 0.08691666 -0.13928573 -0.14060402 0.21212265 -0.017810512 -0.2731475 0.10666629
0.006094321 0.15211318 -0.13891813 0.17913912 0.14906625 0.18721502 -0.23562077 -0.0035468964
-0.047136273 0.14786999 0.12821048 -0.18286622 0.08647057 0.1792876 0.06780638 -0.29049683
0.102680385 -0.12955557 0.11639983 -0.13481815 -0.1713036 -0.02529995 -0.16902266 -0.051824164
-0.0011131831 -0.3103425 -0.18604754 0.05885333 -0.20633978 -0.2929068 -0.08791218 0.19300258
0.18617013 0.22535795 -0.12436259 -0.2820213 -0.20958509 -0.058217447 0.016101418 0.10063937
0.18571374 -0.17230448 0.011685393 0.22155286 0.11292641 -0.19252592 -0.25274366 0.064574786
-0.12774494 -0.12792404 -0.052150063 -0.07986218 0.11500819 -0.07197073 0.06559368 -0.06772378
-0.1267732 0.2723523 -0.15753025 0.24992348 0.068995364 0.17266463 -0.15849014 0.2692824
0.23251028 -0.04671726 0.119527616 0.22073057 0.12415083 -0.2249108 -0.19800614 0.26021844
-0.16925989 0.10683085 -0.20060965 -0.07688703 0.105918266 0.0146731995 -0.17189038 -0.12527294
-0.1507169 -0.17901811 0.23164526 0.02539107 0.16534944 0.22169928 -0.120229036 -0.19295713
0.12380423 0.25164658 0.19444744 -0.024804246 -0.025232907 0.09571281 -0.15547256 -0.22036855
0.19833913 0.25691235 -0.07545643 0.2389708 0.079580806 -0.16815025 -0.05675835 -0.065197654
0.066551864 -0.1398527 0.031682417 0.027287085 0.084561974 0.29245132 -0.2543725 0.09702337
-0.16558294 0.15901724 -0.15583259 0.14150481 0.25190002 -0.08751931 -0.14565669 0.13204178
0.22500381 -0.18167089 0.15900682 -0.15410443 0.007935088 -0.24200922 -0.13881323 -0.26946262
0.156538 0.19956206 0.17193647 -0.20573813 -0.26179266 -0.03760792 0.1915759 -0.00047879748
0.25305355 -0.10875822 0.15519431 -0.20045148 0.1045255 -0.20466457 0.11896337 -0.10535573

bias f4 [6]
00000000: 112f 2f3d 34c8 4f3d 6eab b53c e6ca 09bb
00000010: 0822 4fbd a813 afbd
0.042769495 0.050728038 0.02217647 -0.0021025478 -0.050569564 -0.08548671
